{"class_name": "Model", "keras_version": "2.2.2", "config": {"layers": [{"class_name": "InputLayer", "config": {"dtype": "float32", "batch_input_shape": [null, 139, 139, 3], "name": "absolute_input", "sparse": false}, "inbound_nodes": [], "name": "absolute_input"}, {"class_name": "Conv2D", "config": {"kernel_constraint": null, "kernel_initializer": {"class_name": "VarianceScaling", "config": {"distribution": "uniform", "scale": 1.0, "seed": null, "mode": "fan_avg"}}, "name": "conv2d_610", "bias_regularizer": null, "bias_constraint": null, "activation": "linear", "trainable": false, "data_format": "channels_last", "padding": "valid", "strides": [2, 2], "dilation_rate": [1, 1], "kernel_regularizer": null, "filters": 32, "bias_initializer": {"class_name": "Zeros", "config": {}}, "use_bias": false, "activity_regularizer": null, "kernel_size": [3, 3]}, "inbound_nodes": [[["absolute_input", 0, 0, {}]]], "name": "conv2d_610"}, {"class_name": "BatchNormalization", "config": {"beta_constraint": null, "gamma_initializer": {"class_name": "Ones", "config": {}}, "moving_mean_initializer": {"class_name": "Zeros", "config": {}}, "name": "batch_normalization_610", "epsilon": 0.001, "trainable": false, "moving_variance_initializer": {"class_name": "Ones", "config": {}}, "beta_initializer": {"class_name": "Zeros", "config": {}}, "scale": false, "axis": 3, "gamma_constraint": null, "gamma_regularizer": null, "beta_regularizer": null, "momentum": 0.99, "center": true}, "inbound_nodes": [[["conv2d_610", 0, 0, {}]]], "name": "batch_normalization_610"}, {"class_name": "Activation", "config": {"activation": "relu", "trainable": false, "name": "activation_610"}, "inbound_nodes": [[["batch_normalization_610", 0, 0, {}]]], "name": "activation_610"}, {"class_name": "Conv2D", "config": {"kernel_constraint": null, "kernel_initializer": {"class_name": "VarianceScaling", "config": {"distribution": "uniform", "scale": 1.0, "seed": null, "mode": "fan_avg"}}, "name": "conv2d_611", "bias_regularizer": null, "bias_constraint": null, "activation": "linear", "trainable": false, "data_format": "channels_last", "padding": "valid", "strides": [1, 1], "dilation_rate": [1, 1], "kernel_regularizer": null, "filters": 32, "bias_initializer": {"class_name": "Zeros", "config": {}}, "use_bias": false, "activity_regularizer": null, "kernel_size": [3, 3]}, "inbound_nodes": [[["activation_610", 0, 0, {}]]], "name": "conv2d_611"}, {"class_name": "BatchNormalization", "config": {"beta_constraint": null, "gamma_initializer": {"class_name": "Ones", "config": {}}, "moving_mean_initializer": {"class_name": "Zeros", "config": {}}, "name": "batch_normalization_611", "epsilon": 0.001, "trainable": false, "moving_variance_initializer": {"class_name": "Ones", "config": {}}, "beta_initializer": {"class_name": "Zeros", "config": {}}, "scale": false, "axis": 3, "gamma_constraint": null, "gamma_regularizer": null, "beta_regularizer": null, "momentum": 0.99, "center": true}, "inbound_nodes": [[["conv2d_611", 0, 0, {}]]], "name": "batch_normalization_611"}, {"class_name": "Activation", "config": {"activation": "relu", "trainable": false, "name": "activation_611"}, "inbound_nodes": [[["batch_normalization_611", 0, 0, {}]]], "name": "activation_611"}, {"class_name": "Conv2D", "config": {"kernel_constraint": null, "kernel_initializer": {"class_name": "VarianceScaling", "config": {"distribution": "uniform", "scale": 1.0, "seed": null, "mode": "fan_avg"}}, "name": "conv2d_612", "bias_regularizer": null, "bias_constraint": null, "activation": "linear", "trainable": false, "data_format": "channels_last", "padding": "same", "strides": [1, 1], "dilation_rate": [1, 1], "kernel_regularizer": null, "filters": 64, "bias_initializer": {"class_name": "Zeros", "config": {}}, "use_bias": false, "activity_regularizer": null, "kernel_size": [3, 3]}, "inbound_nodes": [[["activation_611", 0, 0, {}]]], "name": "conv2d_612"}, {"class_name": "BatchNormalization", "config": {"beta_constraint": null, "gamma_initializer": {"class_name": "Ones", "config": {}}, "moving_mean_initializer": {"class_name": "Zeros", "config": {}}, "name": "batch_normalization_612", "epsilon": 0.001, "trainable": false, "moving_variance_initializer": {"class_name": "Ones", "config": {}}, "beta_initializer": {"class_name": "Zeros", "config": {}}, "scale": false, "axis": 3, "gamma_constraint": null, "gamma_regularizer": null, "beta_regularizer": null, "momentum": 0.99, "center": true}, "inbound_nodes": [[["conv2d_612", 0, 0, {}]]], "name": "batch_normalization_612"}, {"class_name": "Activation", "config": {"activation": "relu", "trainable": false, "name": "activation_612"}, "inbound_nodes": [[["batch_normalization_612", 0, 0, {}]]], "name": "activation_612"}, {"class_name": "MaxPooling2D", "config": {"name": "max_pooling2d_13", "trainable": false, "data_format": "channels_last", "pool_size": [3, 3], "padding": "valid", "strides": [2, 2]}, "inbound_nodes": [[["activation_612", 0, 0, {}]]], "name": "max_pooling2d_13"}, {"class_name": "Conv2D", "config": {"kernel_constraint": null, "kernel_initializer": {"class_name": "VarianceScaling", "config": {"distribution": "uniform", "scale": 1.0, "seed": null, "mode": "fan_avg"}}, "name": "conv2d_613", "bias_regularizer": null, "bias_constraint": null, "activation": "linear", "trainable": false, "data_format": "channels_last", "padding": "valid", "strides": [1, 1], "dilation_rate": [1, 1], "kernel_regularizer": null, "filters": 80, "bias_initializer": {"class_name": "Zeros", "config": {}}, "use_bias": false, "activity_regularizer": null, "kernel_size": [1, 1]}, "inbound_nodes": [[["max_pooling2d_13", 0, 0, {}]]], "name": "conv2d_613"}, {"class_name": "BatchNormalization", "config": {"beta_constraint": null, "gamma_initializer": {"class_name": "Ones", "config": {}}, "moving_mean_initializer": {"class_name": "Zeros", "config": {}}, "name": "batch_normalization_613", "epsilon": 0.001, "trainable": false, "moving_variance_initializer": {"class_name": "Ones", "config": {}}, "beta_initializer": {"class_name": "Zeros", "config": {}}, "scale": false, "axis": 3, "gamma_constraint": null, "gamma_regularizer": null, "beta_regularizer": null, "momentum": 0.99, "center": true}, "inbound_nodes": [[["conv2d_613", 0, 0, {}]]], "name": "batch_normalization_613"}, {"class_name": "Activation", "config": {"activation": "relu", "trainable": false, "name": "activation_613"}, "inbound_nodes": [[["batch_normalization_613", 0, 0, {}]]], "name": "activation_613"}, {"class_name": "Conv2D", "config": {"kernel_constraint": null, "kernel_initializer": {"class_name": "VarianceScaling", "config": {"distribution": "uniform", "scale": 1.0, "seed": null, "mode": "fan_avg"}}, "name": "conv2d_614", "bias_regularizer": null, "bias_constraint": null, "activation": "linear", "trainable": false, "data_format": "channels_last", "padding": "valid", "strides": [1, 1], "dilation_rate": [1, 1], "kernel_regularizer": null, "filters": 192, "bias_initializer": {"class_name": "Zeros", "config": {}}, "use_bias": false, "activity_regularizer": null, "kernel_size": [3, 3]}, "inbound_nodes": [[["activation_613", 0, 0, {}]]], "name": "conv2d_614"}, {"class_name": "BatchNormalization", "config": {"beta_constraint": null, "gamma_initializer": {"class_name": "Ones", "config": {}}, "moving_mean_initializer": {"class_name": "Zeros", "config": {}}, "name": "batch_normalization_614", "epsilon": 0.001, "trainable": false, "moving_variance_initializer": {"class_name": "Ones", "config": {}}, "beta_initializer": {"class_name": "Zeros", "config": {}}, "scale": false, "axis": 3, "gamma_constraint": null, "gamma_regularizer": null, "beta_regularizer": null, "momentum": 0.99, "center": true}, "inbound_nodes": [[["conv2d_614", 0, 0, {}]]], "name": "batch_normalization_614"}, {"class_name": "Activation", "config": {"activation": "relu", "trainable": false, "name": "activation_614"}, "inbound_nodes": [[["batch_normalization_614", 0, 0, {}]]], "name": "activation_614"}, {"class_name": "MaxPooling2D", "config": {"name": "max_pooling2d_14", "trainable": false, "data_format": "channels_last", "pool_size": [3, 3], "padding": "valid", "strides": [2, 2]}, "inbound_nodes": [[["activation_614", 0, 0, {}]]], "name": "max_pooling2d_14"}, {"class_name": "Conv2D", "config": {"kernel_constraint": null, "kernel_initializer": {"class_name": "VarianceScaling", "config": {"distribution": "uniform", "scale": 1.0, "seed": null, "mode": "fan_avg"}}, "name": "conv2d_618", "bias_regularizer": null, "bias_constraint": null, "activation": "linear", "trainable": false, "data_format": "channels_last", "padding": "same", "strides": [1, 1], "dilation_rate": [1, 1], "kernel_regularizer": null, "filters": 64, "bias_initializer": {"class_name": "Zeros", "config": {}}, "use_bias": false, "activity_regularizer": null, "kernel_size": [1, 1]}, "inbound_nodes": [[["max_pooling2d_14", 0, 0, {}]]], "name": "conv2d_618"}, {"class_name": "BatchNormalization", "config": {"beta_constraint": null, "gamma_initializer": {"class_name": "Ones", "config": {}}, "moving_mean_initializer": {"class_name": "Zeros", "config": {}}, "name": "batch_normalization_618", "epsilon": 0.001, "trainable": false, "moving_variance_initializer": {"class_name": "Ones", "config": {}}, "beta_initializer": {"class_name": "Zeros", "config": {}}, "scale": false, "axis": 3, "gamma_constraint": null, "gamma_regularizer": null, "beta_regularizer": null, "momentum": 0.99, "center": true}, "inbound_nodes": [[["conv2d_618", 0, 0, {}]]], "name": "batch_normalization_618"}, {"class_name": "Activation", "config": {"activation": "relu", "trainable": false, "name": "activation_618"}, "inbound_nodes": [[["batch_normalization_618", 0, 0, {}]]], "name": "activation_618"}, {"class_name": "Conv2D", "config": {"kernel_constraint": null, "kernel_initializer": {"class_name": "VarianceScaling", "config": {"distribution": "uniform", "scale": 1.0, "seed": null, "mode": "fan_avg"}}, "name": "conv2d_616", "bias_regularizer": null, "bias_constraint": null, "activation": "linear", "trainable": false, "data_format": "channels_last", "padding": "same", "strides": [1, 1], "dilation_rate": [1, 1], "kernel_regularizer": null, "filters": 48, "bias_initializer": {"class_name": "Zeros", "config": {}}, "use_bias": false, "activity_regularizer": null, "kernel_size": [1, 1]}, "inbound_nodes": [[["max_pooling2d_14", 0, 0, {}]]], "name": "conv2d_616"}, {"class_name": "Conv2D", "config": {"kernel_constraint": null, "kernel_initializer": {"class_name": "VarianceScaling", "config": {"distribution": "uniform", "scale": 1.0, "seed": null, "mode": "fan_avg"}}, "name": "conv2d_619", "bias_regularizer": null, "bias_constraint": null, "activation": "linear", "trainable": false, "data_format": "channels_last", "padding": "same", "strides": [1, 1], "dilation_rate": [1, 1], "kernel_regularizer": null, "filters": 96, "bias_initializer": {"class_name": "Zeros", "config": {}}, "use_bias": false, "activity_regularizer": null, "kernel_size": [3, 3]}, "inbound_nodes": [[["activation_618", 0, 0, {}]]], "name": "conv2d_619"}, {"class_name": "BatchNormalization", "config": {"beta_constraint": null, "gamma_initializer": {"class_name": "Ones", "config": {}}, "moving_mean_initializer": {"class_name": "Zeros", "config": {}}, "name": "batch_normalization_616", "epsilon": 0.001, "trainable": false, "moving_variance_initializer": {"class_name": "Ones", "config": {}}, "beta_initializer": {"class_name": "Zeros", "config": {}}, "scale": false, "axis": 3, "gamma_constraint": null, "gamma_regularizer": null, "beta_regularizer": null, "momentum": 0.99, "center": true}, "inbound_nodes": [[["conv2d_616", 0, 0, {}]]], "name": "batch_normalization_616"}, {"class_name": "BatchNormalization", "config": {"beta_constraint": null, "gamma_initializer": {"class_name": "Ones", "config": {}}, "moving_mean_initializer": {"class_name": "Zeros", "config": {}}, "name": "batch_normalization_619", "epsilon": 0.001, "trainable": false, "moving_variance_initializer": {"class_name": "Ones", "config": {}}, "beta_initializer": {"class_name": "Zeros", "config": {}}, "scale": false, "axis": 3, "gamma_constraint": null, "gamma_regularizer": null, "beta_regularizer": null, "momentum": 0.99, "center": true}, "inbound_nodes": [[["conv2d_619", 0, 0, {}]]], "name": "batch_normalization_619"}, {"class_name": "Activation", "config": {"activation": "relu", "trainable": false, "name": "activation_616"}, "inbound_nodes": [[["batch_normalization_616", 0, 0, {}]]], "name": "activation_616"}, {"class_name": "Activation", "config": {"activation": "relu", "trainable": false, "name": "activation_619"}, "inbound_nodes": [[["batch_normalization_619", 0, 0, {}]]], "name": "activation_619"}, {"class_name": "AveragePooling2D", "config": {"name": "average_pooling2d_4", "trainable": false, "data_format": "channels_last", "pool_size": [3, 3], "padding": "same", "strides": [1, 1]}, "inbound_nodes": [[["max_pooling2d_14", 0, 0, {}]]], "name": "average_pooling2d_4"}, {"class_name": "Conv2D", "config": {"kernel_constraint": null, "kernel_initializer": {"class_name": "VarianceScaling", "config": {"distribution": "uniform", "scale": 1.0, "seed": null, "mode": "fan_avg"}}, "name": "conv2d_615", "bias_regularizer": null, "bias_constraint": null, "activation": "linear", "trainable": false, "data_format": "channels_last", "padding": "same", "strides": [1, 1], "dilation_rate": [1, 1], "kernel_regularizer": null, "filters": 96, "bias_initializer": {"class_name": "Zeros", "config": {}}, "use_bias": false, "activity_regularizer": null, "kernel_size": [1, 1]}, "inbound_nodes": [[["max_pooling2d_14", 0, 0, {}]]], "name": "conv2d_615"}, {"class_name": "Conv2D", "config": {"kernel_constraint": null, "kernel_initializer": {"class_name": "VarianceScaling", "config": {"distribution": "uniform", "scale": 1.0, "seed": null, "mode": "fan_avg"}}, "name": "conv2d_617", "bias_regularizer": null, "bias_constraint": null, "activation": "linear", "trainable": false, "data_format": "channels_last", "padding": "same", "strides": [1, 1], "dilation_rate": [1, 1], "kernel_regularizer": null, "filters": 64, "bias_initializer": {"class_name": "Zeros", "config": {}}, "use_bias": false, "activity_regularizer": null, "kernel_size": [5, 5]}, "inbound_nodes": [[["activation_616", 0, 0, {}]]], "name": "conv2d_617"}, {"class_name": "Conv2D", "config": {"kernel_constraint": null, "kernel_initializer": {"class_name": "VarianceScaling", "config": {"distribution": "uniform", "scale": 1.0, "seed": null, "mode": "fan_avg"}}, "name": "conv2d_620", "bias_regularizer": null, "bias_constraint": null, "activation": "linear", "trainable": false, "data_format": "channels_last", "padding": "same", "strides": [1, 1], "dilation_rate": [1, 1], "kernel_regularizer": null, "filters": 96, "bias_initializer": {"class_name": "Zeros", "config": {}}, "use_bias": false, "activity_regularizer": null, "kernel_size": [3, 3]}, "inbound_nodes": [[["activation_619", 0, 0, {}]]], "name": "conv2d_620"}, {"class_name": "Conv2D", "config": {"kernel_constraint": null, "kernel_initializer": {"class_name": "VarianceScaling", "config": {"distribution": "uniform", "scale": 1.0, "seed": null, "mode": "fan_avg"}}, "name": "conv2d_621", "bias_regularizer": null, "bias_constraint": null, "activation": "linear", "trainable": false, "data_format": "channels_last", "padding": "same", "strides": [1, 1], "dilation_rate": [1, 1], "kernel_regularizer": null, "filters": 64, "bias_initializer": {"class_name": "Zeros", "config": {}}, "use_bias": false, "activity_regularizer": null, "kernel_size": [1, 1]}, "inbound_nodes": [[["average_pooling2d_4", 0, 0, {}]]], "name": "conv2d_621"}, {"class_name": "BatchNormalization", "config": {"beta_constraint": null, "gamma_initializer": {"class_name": "Ones", "config": {}}, "moving_mean_initializer": {"class_name": "Zeros", "config": {}}, "name": "batch_normalization_615", "epsilon": 0.001, "trainable": false, "moving_variance_initializer": {"class_name": "Ones", "config": {}}, "beta_initializer": {"class_name": "Zeros", "config": {}}, "scale": false, "axis": 3, "gamma_constraint": null, "gamma_regularizer": null, "beta_regularizer": null, "momentum": 0.99, "center": true}, "inbound_nodes": [[["conv2d_615", 0, 0, {}]]], "name": "batch_normalization_615"}, {"class_name": "BatchNormalization", "config": {"beta_constraint": null, "gamma_initializer": {"class_name": "Ones", "config": {}}, "moving_mean_initializer": {"class_name": "Zeros", "config": {}}, "name": "batch_normalization_617", "epsilon": 0.001, "trainable": false, "moving_variance_initializer": {"class_name": "Ones", "config": {}}, "beta_initializer": {"class_name": "Zeros", "config": {}}, "scale": false, "axis": 3, "gamma_constraint": null, "gamma_regularizer": null, "beta_regularizer": null, "momentum": 0.99, "center": true}, "inbound_nodes": [[["conv2d_617", 0, 0, {}]]], "name": "batch_normalization_617"}, {"class_name": "BatchNormalization", "config": {"beta_constraint": null, "gamma_initializer": {"class_name": "Ones", "config": {}}, "moving_mean_initializer": {"class_name": "Zeros", "config": {}}, "name": "batch_normalization_620", "epsilon": 0.001, "trainable": false, "moving_variance_initializer": {"class_name": "Ones", "config": {}}, "beta_initializer": {"class_name": "Zeros", "config": {}}, "scale": false, "axis": 3, "gamma_constraint": null, "gamma_regularizer": null, "beta_regularizer": null, "momentum": 0.99, "center": true}, "inbound_nodes": [[["conv2d_620", 0, 0, {}]]], "name": "batch_normalization_620"}, {"class_name": "BatchNormalization", "config": {"beta_constraint": null, "gamma_initializer": {"class_name": "Ones", "config": {}}, "moving_mean_initializer": {"class_name": "Zeros", "config": {}}, "name": "batch_normalization_621", "epsilon": 0.001, "trainable": false, "moving_variance_initializer": {"class_name": "Ones", "config": {}}, "beta_initializer": {"class_name": "Zeros", "config": {}}, "scale": false, "axis": 3, "gamma_constraint": null, "gamma_regularizer": null, "beta_regularizer": null, "momentum": 0.99, "center": true}, "inbound_nodes": [[["conv2d_621", 0, 0, {}]]], "name": "batch_normalization_621"}, {"class_name": "Activation", "config": {"activation": "relu", "trainable": false, "name": "activation_615"}, "inbound_nodes": [[["batch_normalization_615", 0, 0, {}]]], "name": "activation_615"}, {"class_name": "Activation", "config": {"activation": "relu", "trainable": false, "name": "activation_617"}, "inbound_nodes": [[["batch_normalization_617", 0, 0, {}]]], "name": "activation_617"}, {"class_name": "Activation", "config": {"activation": "relu", "trainable": false, "name": "activation_620"}, "inbound_nodes": [[["batch_normalization_620", 0, 0, {}]]], "name": "activation_620"}, {"class_name": "Activation", "config": {"activation": "relu", "trainable": false, "name": "activation_621"}, "inbound_nodes": [[["batch_normalization_621", 0, 0, {}]]], "name": "activation_621"}, {"class_name": "Concatenate", "config": {"trainable": false, "name": "mixed_5b", "axis": 3}, "inbound_nodes": [[["activation_615", 0, 0, {}], ["activation_617", 0, 0, {}], ["activation_620", 0, 0, {}], ["activation_621", 0, 0, {}]]], "name": "mixed_5b"}, {"class_name": "Conv2D", "config": {"kernel_constraint": null, "kernel_initializer": {"class_name": "VarianceScaling", "config": {"distribution": "uniform", "scale": 1.0, "seed": null, "mode": "fan_avg"}}, "name": "conv2d_625", "bias_regularizer": null, "bias_constraint": null, "activation": "linear", "trainable": false, "data_format": "channels_last", "padding": "same", "strides": [1, 1], "dilation_rate": [1, 1], "kernel_regularizer": null, "filters": 32, "bias_initializer": {"class_name": "Zeros", "config": {}}, "use_bias": false, "activity_regularizer": null, "kernel_size": [1, 1]}, "inbound_nodes": [[["mixed_5b", 0, 0, {}]]], "name": "conv2d_625"}, {"class_name": "BatchNormalization", "config": {"beta_constraint": null, "gamma_initializer": {"class_name": "Ones", "config": {}}, "moving_mean_initializer": {"class_name": "Zeros", "config": {}}, "name": "batch_normalization_625", "epsilon": 0.001, "trainable": false, "moving_variance_initializer": {"class_name": "Ones", "config": {}}, "beta_initializer": {"class_name": "Zeros", "config": {}}, "scale": false, "axis": 3, "gamma_constraint": null, "gamma_regularizer": null, "beta_regularizer": null, "momentum": 0.99, "center": true}, "inbound_nodes": [[["conv2d_625", 0, 0, {}]]], "name": "batch_normalization_625"}, {"class_name": "Activation", "config": {"activation": "relu", "trainable": false, "name": "activation_625"}, "inbound_nodes": [[["batch_normalization_625", 0, 0, {}]]], "name": "activation_625"}, {"class_name": "Conv2D", "config": {"kernel_constraint": null, "kernel_initializer": {"class_name": "VarianceScaling", "config": {"distribution": "uniform", "scale": 1.0, "seed": null, "mode": "fan_avg"}}, "name": "conv2d_623", "bias_regularizer": null, "bias_constraint": null, "activation": "linear", "trainable": false, "data_format": "channels_last", "padding": "same", "strides": [1, 1], "dilation_rate": [1, 1], "kernel_regularizer": null, "filters": 32, "bias_initializer": {"class_name": "Zeros", "config": {}}, "use_bias": false, "activity_regularizer": null, "kernel_size": [1, 1]}, "inbound_nodes": [[["mixed_5b", 0, 0, {}]]], "name": "conv2d_623"}, {"class_name": "Conv2D", "config": {"kernel_constraint": null, "kernel_initializer": {"class_name": "VarianceScaling", "config": {"distribution": "uniform", "scale": 1.0, "seed": null, "mode": "fan_avg"}}, "name": "conv2d_626", "bias_regularizer": null, "bias_constraint": null, "activation": "linear", "trainable": false, "data_format": "channels_last", "padding": "same", "strides": [1, 1], "dilation_rate": [1, 1], "kernel_regularizer": null, "filters": 48, "bias_initializer": {"class_name": "Zeros", "config": {}}, "use_bias": false, "activity_regularizer": null, "kernel_size": [3, 3]}, "inbound_nodes": [[["activation_625", 0, 0, {}]]], "name": "conv2d_626"}, {"class_name": "BatchNormalization", "config": {"beta_constraint": null, "gamma_initializer": {"class_name": "Ones", "config": {}}, "moving_mean_initializer": {"class_name": "Zeros", "config": {}}, "name": "batch_normalization_623", "epsilon": 0.001, "trainable": false, "moving_variance_initializer": {"class_name": "Ones", "config": {}}, "beta_initializer": {"class_name": "Zeros", "config": {}}, "scale": false, "axis": 3, "gamma_constraint": null, "gamma_regularizer": null, "beta_regularizer": null, "momentum": 0.99, "center": true}, "inbound_nodes": [[["conv2d_623", 0, 0, {}]]], "name": "batch_normalization_623"}, {"class_name": "BatchNormalization", "config": {"beta_constraint": null, "gamma_initializer": {"class_name": "Ones", "config": {}}, "moving_mean_initializer": {"class_name": "Zeros", "config": {}}, "name": "batch_normalization_626", "epsilon": 0.001, "trainable": false, "moving_variance_initializer": {"class_name": "Ones", "config": {}}, "beta_initializer": {"class_name": "Zeros", "config": {}}, "scale": false, "axis": 3, "gamma_constraint": null, "gamma_regularizer": null, "beta_regularizer": null, "momentum": 0.99, "center": true}, "inbound_nodes": [[["conv2d_626", 0, 0, {}]]], "name": "batch_normalization_626"}, {"class_name": "Activation", "config": {"activation": "relu", "trainable": false, "name": "activation_623"}, "inbound_nodes": [[["batch_normalization_623", 0, 0, {}]]], "name": "activation_623"}, {"class_name": "Activation", "config": {"activation": "relu", "trainable": false, "name": "activation_626"}, "inbound_nodes": [[["batch_normalization_626", 0, 0, {}]]], "name": "activation_626"}, {"class_name": "Conv2D", "config": {"kernel_constraint": null, "kernel_initializer": {"class_name": "VarianceScaling", "config": {"distribution": "uniform", "scale": 1.0, "seed": null, "mode": "fan_avg"}}, "name": "conv2d_622", "bias_regularizer": null, "bias_constraint": null, "activation": "linear", "trainable": false, "data_format": "channels_last", "padding": "same", "strides": [1, 1], "dilation_rate": [1, 1], "kernel_regularizer": null, "filters": 32, "bias_initializer": {"class_name": "Zeros", "config": {}}, "use_bias": false, "activity_regularizer": null, "kernel_size": [1, 1]}, "inbound_nodes": [[["mixed_5b", 0, 0, {}]]], "name": "conv2d_622"}, {"class_name": "Conv2D", "config": {"kernel_constraint": null, "kernel_initializer": {"class_name": "VarianceScaling", "config": {"distribution": "uniform", "scale": 1.0, "seed": null, "mode": "fan_avg"}}, "name": "conv2d_624", "bias_regularizer": null, "bias_constraint": null, "activation": "linear", "trainable": false, "data_format": "channels_last", "padding": "same", "strides": [1, 1], "dilation_rate": [1, 1], "kernel_regularizer": null, "filters": 32, "bias_initializer": {"class_name": "Zeros", "config": {}}, "use_bias": false, "activity_regularizer": null, "kernel_size": [3, 3]}, "inbound_nodes": [[["activation_623", 0, 0, {}]]], "name": "conv2d_624"}, {"class_name": "Conv2D", "config": {"kernel_constraint": null, "kernel_initializer": {"class_name": "VarianceScaling", "config": {"distribution": "uniform", "scale": 1.0, "seed": null, "mode": "fan_avg"}}, "name": "conv2d_627", "bias_regularizer": null, "bias_constraint": null, "activation": "linear", "trainable": false, "data_format": "channels_last", "padding": "same", "strides": [1, 1], "dilation_rate": [1, 1], "kernel_regularizer": null, "filters": 64, "bias_initializer": {"class_name": "Zeros", "config": {}}, "use_bias": false, "activity_regularizer": null, "kernel_size": [3, 3]}, "inbound_nodes": [[["activation_626", 0, 0, {}]]], "name": "conv2d_627"}, {"class_name": "BatchNormalization", "config": {"beta_constraint": null, "gamma_initializer": {"class_name": "Ones", "config": {}}, "moving_mean_initializer": {"class_name": "Zeros", "config": {}}, "name": "batch_normalization_622", "epsilon": 0.001, "trainable": false, "moving_variance_initializer": {"class_name": "Ones", "config": {}}, "beta_initializer": {"class_name": "Zeros", "config": {}}, "scale": false, "axis": 3, "gamma_constraint": null, "gamma_regularizer": null, "beta_regularizer": null, "momentum": 0.99, "center": true}, "inbound_nodes": [[["conv2d_622", 0, 0, {}]]], "name": "batch_normalization_622"}, {"class_name": "BatchNormalization", "config": {"beta_constraint": null, "gamma_initializer": {"class_name": "Ones", "config": {}}, "moving_mean_initializer": {"class_name": "Zeros", "config": {}}, "name": "batch_normalization_624", "epsilon": 0.001, "trainable": false, "moving_variance_initializer": {"class_name": "Ones", "config": {}}, "beta_initializer": {"class_name": "Zeros", "config": {}}, "scale": false, "axis": 3, "gamma_constraint": null, "gamma_regularizer": null, "beta_regularizer": null, "momentum": 0.99, "center": true}, "inbound_nodes": [[["conv2d_624", 0, 0, {}]]], "name": "batch_normalization_624"}, {"class_name": "BatchNormalization", "config": {"beta_constraint": null, "gamma_initializer": {"class_name": "Ones", "config": {}}, "moving_mean_initializer": {"class_name": "Zeros", "config": {}}, "name": "batch_normalization_627", "epsilon": 0.001, "trainable": false, "moving_variance_initializer": {"class_name": "Ones", "config": {}}, "beta_initializer": {"class_name": "Zeros", "config": {}}, "scale": false, "axis": 3, "gamma_constraint": null, "gamma_regularizer": null, "beta_regularizer": null, "momentum": 0.99, "center": true}, "inbound_nodes": [[["conv2d_627", 0, 0, {}]]], "name": "batch_normalization_627"}, {"class_name": "Activation", "config": {"activation": "relu", "trainable": false, "name": "activation_622"}, "inbound_nodes": [[["batch_normalization_622", 0, 0, {}]]], "name": "activation_622"}, {"class_name": "Activation", "config": {"activation": "relu", "trainable": false, "name": "activation_624"}, "inbound_nodes": [[["batch_normalization_624", 0, 0, {}]]], "name": "activation_624"}, {"class_name": "Activation", "config": {"activation": "relu", "trainable": false, "name": "activation_627"}, "inbound_nodes": [[["batch_normalization_627", 0, 0, {}]]], "name": "activation_627"}, {"class_name": "Concatenate", "config": {"trainable": false, "name": "block35_1_mixed", "axis": 3}, "inbound_nodes": [[["activation_622", 0, 0, {}], ["activation_624", 0, 0, {}], ["activation_627", 0, 0, {}]]], "name": "block35_1_mixed"}, {"class_name": "Conv2D", "config": {"kernel_constraint": null, "kernel_initializer": {"class_name": "VarianceScaling", "config": {"distribution": "uniform", "scale": 1.0, "seed": null, "mode": "fan_avg"}}, "name": "block35_1_conv", "bias_regularizer": null, "bias_constraint": null, "activation": "linear", "trainable": false, "data_format": "channels_last", "padding": "same", "strides": [1, 1], "dilation_rate": [1, 1], "kernel_regularizer": null, "filters": 320, "bias_initializer": {"class_name": "Zeros", "config": {}}, "use_bias": true, "activity_regularizer": null, "kernel_size": [1, 1]}, "inbound_nodes": [[["block35_1_mixed", 0, 0, {}]]], "name": "block35_1_conv"}, {"class_name": "Lambda", "config": {"function": ["YwIAAAACAAAAAwAAAFNgAQBzFAAAAHwAAGQBABl8AABkAgAZfAEAFBdTKAMAAABOaQAAAABpAQAA\nACgAAAAAKAIAAAB0BgAAAGlucHV0c3QFAAAAc2NhbGUoAAAAACgAAAAAc1AAAAAvdXNyL2xvY2Fs\nL2xpYi9weXRob24yLjcvZGlzdC1wYWNrYWdlcy9rZXJhc19hcHBsaWNhdGlvbnMvaW5jZXB0aW9u\nX3Jlc25ldF92Mi5weXQIAAAAPGxhbWJkYT6qAAAAdAAAAAA=\n", null, null], "name": "block35_1", "trainable": false, "function_type": "lambda", "arguments": {"scale": 0.17}, "output_shape": [15, 15, 320], "output_shape_type": "raw"}, "inbound_nodes": [[["mixed_5b", 0, 0, {}], ["block35_1_conv", 0, 0, {}]]], "name": "block35_1"}, {"class_name": "Activation", "config": {"activation": "relu", "trainable": false, "name": "block35_1_ac"}, "inbound_nodes": [[["block35_1", 0, 0, {}]]], "name": "block35_1_ac"}, {"class_name": "Conv2D", "config": {"kernel_constraint": null, "kernel_initializer": {"class_name": "VarianceScaling", "config": {"distribution": "uniform", "scale": 1.0, "seed": null, "mode": "fan_avg"}}, "name": "conv2d_631", "bias_regularizer": null, "bias_constraint": null, "activation": "linear", "trainable": false, "data_format": "channels_last", "padding": "same", "strides": [1, 1], "dilation_rate": [1, 1], "kernel_regularizer": null, "filters": 32, "bias_initializer": {"class_name": "Zeros", "config": {}}, "use_bias": false, "activity_regularizer": null, "kernel_size": [1, 1]}, "inbound_nodes": [[["block35_1_ac", 0, 0, {}]]], "name": "conv2d_631"}, {"class_name": "BatchNormalization", "config": {"beta_constraint": null, "gamma_initializer": {"class_name": "Ones", "config": {}}, "moving_mean_initializer": {"class_name": "Zeros", "config": {}}, "name": "batch_normalization_631", "epsilon": 0.001, "trainable": false, "moving_variance_initializer": {"class_name": "Ones", "config": {}}, "beta_initializer": {"class_name": "Zeros", "config": {}}, "scale": false, "axis": 3, "gamma_constraint": null, "gamma_regularizer": null, "beta_regularizer": null, "momentum": 0.99, "center": true}, "inbound_nodes": [[["conv2d_631", 0, 0, {}]]], "name": "batch_normalization_631"}, {"class_name": "Activation", "config": {"activation": "relu", "trainable": false, "name": "activation_631"}, "inbound_nodes": [[["batch_normalization_631", 0, 0, {}]]], "name": "activation_631"}, {"class_name": "Conv2D", "config": {"kernel_constraint": null, "kernel_initializer": {"class_name": "VarianceScaling", "config": {"distribution": "uniform", "scale": 1.0, "seed": null, "mode": "fan_avg"}}, "name": "conv2d_629", "bias_regularizer": null, "bias_constraint": null, "activation": "linear", "trainable": false, "data_format": "channels_last", "padding": "same", "strides": [1, 1], "dilation_rate": [1, 1], "kernel_regularizer": null, "filters": 32, "bias_initializer": {"class_name": "Zeros", "config": {}}, "use_bias": false, "activity_regularizer": null, "kernel_size": [1, 1]}, "inbound_nodes": [[["block35_1_ac", 0, 0, {}]]], "name": "conv2d_629"}, {"class_name": "Conv2D", "config": {"kernel_constraint": null, "kernel_initializer": {"class_name": "VarianceScaling", "config": {"distribution": "uniform", "scale": 1.0, "seed": null, "mode": "fan_avg"}}, "name": "conv2d_632", "bias_regularizer": null, "bias_constraint": null, "activation": "linear", "trainable": false, "data_format": "channels_last", "padding": "same", "strides": [1, 1], "dilation_rate": [1, 1], "kernel_regularizer": null, "filters": 48, "bias_initializer": {"class_name": "Zeros", "config": {}}, "use_bias": false, "activity_regularizer": null, "kernel_size": [3, 3]}, "inbound_nodes": [[["activation_631", 0, 0, {}]]], "name": "conv2d_632"}, {"class_name": "BatchNormalization", "config": {"beta_constraint": null, "gamma_initializer": {"class_name": "Ones", "config": {}}, "moving_mean_initializer": {"class_name": "Zeros", "config": {}}, "name": "batch_normalization_629", "epsilon": 0.001, "trainable": false, "moving_variance_initializer": {"class_name": "Ones", "config": {}}, "beta_initializer": {"class_name": "Zeros", "config": {}}, "scale": false, "axis": 3, "gamma_constraint": null, "gamma_regularizer": null, "beta_regularizer": null, "momentum": 0.99, "center": true}, "inbound_nodes": [[["conv2d_629", 0, 0, {}]]], "name": "batch_normalization_629"}, {"class_name": "BatchNormalization", "config": {"beta_constraint": null, "gamma_initializer": {"class_name": "Ones", "config": {}}, "moving_mean_initializer": {"class_name": "Zeros", "config": {}}, "name": "batch_normalization_632", "epsilon": 0.001, "trainable": false, "moving_variance_initializer": {"class_name": "Ones", "config": {}}, "beta_initializer": {"class_name": "Zeros", "config": {}}, "scale": false, "axis": 3, "gamma_constraint": null, "gamma_regularizer": null, "beta_regularizer": null, "momentum": 0.99, "center": true}, "inbound_nodes": [[["conv2d_632", 0, 0, {}]]], "name": "batch_normalization_632"}, {"class_name": "Activation", "config": {"activation": "relu", "trainable": false, "name": "activation_629"}, "inbound_nodes": [[["batch_normalization_629", 0, 0, {}]]], "name": "activation_629"}, {"class_name": "Activation", "config": {"activation": "relu", "trainable": false, "name": "activation_632"}, "inbound_nodes": [[["batch_normalization_632", 0, 0, {}]]], "name": "activation_632"}, {"class_name": "Conv2D", "config": {"kernel_constraint": null, "kernel_initializer": {"class_name": "VarianceScaling", "config": {"distribution": "uniform", "scale": 1.0, "seed": null, "mode": "fan_avg"}}, "name": "conv2d_628", "bias_regularizer": null, "bias_constraint": null, "activation": "linear", "trainable": false, "data_format": "channels_last", "padding": "same", "strides": [1, 1], "dilation_rate": [1, 1], "kernel_regularizer": null, "filters": 32, "bias_initializer": {"class_name": "Zeros", "config": {}}, "use_bias": false, "activity_regularizer": null, "kernel_size": [1, 1]}, "inbound_nodes": [[["block35_1_ac", 0, 0, {}]]], "name": "conv2d_628"}, {"class_name": "Conv2D", "config": {"kernel_constraint": null, "kernel_initializer": {"class_name": "VarianceScaling", "config": {"distribution": "uniform", "scale": 1.0, "seed": null, "mode": "fan_avg"}}, "name": "conv2d_630", "bias_regularizer": null, "bias_constraint": null, "activation": "linear", "trainable": false, "data_format": "channels_last", "padding": "same", "strides": [1, 1], "dilation_rate": [1, 1], "kernel_regularizer": null, "filters": 32, "bias_initializer": {"class_name": "Zeros", "config": {}}, "use_bias": false, "activity_regularizer": null, "kernel_size": [3, 3]}, "inbound_nodes": [[["activation_629", 0, 0, {}]]], "name": "conv2d_630"}, {"class_name": "Conv2D", "config": {"kernel_constraint": null, "kernel_initializer": {"class_name": "VarianceScaling", "config": {"distribution": "uniform", "scale": 1.0, "seed": null, "mode": "fan_avg"}}, "name": "conv2d_633", "bias_regularizer": null, "bias_constraint": null, "activation": "linear", "trainable": false, "data_format": "channels_last", "padding": "same", "strides": [1, 1], "dilation_rate": [1, 1], "kernel_regularizer": null, "filters": 64, "bias_initializer": {"class_name": "Zeros", "config": {}}, "use_bias": false, "activity_regularizer": null, "kernel_size": [3, 3]}, "inbound_nodes": [[["activation_632", 0, 0, {}]]], "name": "conv2d_633"}, {"class_name": "BatchNormalization", "config": {"beta_constraint": null, "gamma_initializer": {"class_name": "Ones", "config": {}}, "moving_mean_initializer": {"class_name": "Zeros", "config": {}}, "name": "batch_normalization_628", "epsilon": 0.001, "trainable": false, "moving_variance_initializer": {"class_name": "Ones", "config": {}}, "beta_initializer": {"class_name": "Zeros", "config": {}}, "scale": false, "axis": 3, "gamma_constraint": null, "gamma_regularizer": null, "beta_regularizer": null, "momentum": 0.99, "center": true}, "inbound_nodes": [[["conv2d_628", 0, 0, {}]]], "name": "batch_normalization_628"}, {"class_name": "BatchNormalization", "config": {"beta_constraint": null, "gamma_initializer": {"class_name": "Ones", "config": {}}, "moving_mean_initializer": {"class_name": "Zeros", "config": {}}, "name": "batch_normalization_630", "epsilon": 0.001, "trainable": false, "moving_variance_initializer": {"class_name": "Ones", "config": {}}, "beta_initializer": {"class_name": "Zeros", "config": {}}, "scale": false, "axis": 3, "gamma_constraint": null, "gamma_regularizer": null, "beta_regularizer": null, "momentum": 0.99, "center": true}, "inbound_nodes": [[["conv2d_630", 0, 0, {}]]], "name": "batch_normalization_630"}, {"class_name": "BatchNormalization", "config": {"beta_constraint": null, "gamma_initializer": {"class_name": "Ones", "config": {}}, "moving_mean_initializer": {"class_name": "Zeros", "config": {}}, "name": "batch_normalization_633", "epsilon": 0.001, "trainable": false, "moving_variance_initializer": {"class_name": "Ones", "config": {}}, "beta_initializer": {"class_name": "Zeros", "config": {}}, "scale": false, "axis": 3, "gamma_constraint": null, "gamma_regularizer": null, "beta_regularizer": null, "momentum": 0.99, "center": true}, "inbound_nodes": [[["conv2d_633", 0, 0, {}]]], "name": "batch_normalization_633"}, {"class_name": "Activation", "config": {"activation": "relu", "trainable": false, "name": "activation_628"}, "inbound_nodes": [[["batch_normalization_628", 0, 0, {}]]], "name": "activation_628"}, {"class_name": "Activation", "config": {"activation": "relu", "trainable": false, "name": "activation_630"}, "inbound_nodes": [[["batch_normalization_630", 0, 0, {}]]], "name": "activation_630"}, {"class_name": "Activation", "config": {"activation": "relu", "trainable": false, "name": "activation_633"}, "inbound_nodes": [[["batch_normalization_633", 0, 0, {}]]], "name": "activation_633"}, {"class_name": "Concatenate", "config": {"trainable": false, "name": "block35_2_mixed", "axis": 3}, "inbound_nodes": [[["activation_628", 0, 0, {}], ["activation_630", 0, 0, {}], ["activation_633", 0, 0, {}]]], "name": "block35_2_mixed"}, {"class_name": "Conv2D", "config": {"kernel_constraint": null, "kernel_initializer": {"class_name": "VarianceScaling", "config": {"distribution": "uniform", "scale": 1.0, "seed": null, "mode": "fan_avg"}}, "name": "block35_2_conv", "bias_regularizer": null, "bias_constraint": null, "activation": "linear", "trainable": false, "data_format": "channels_last", "padding": "same", "strides": [1, 1], "dilation_rate": [1, 1], "kernel_regularizer": null, "filters": 320, "bias_initializer": {"class_name": "Zeros", "config": {}}, "use_bias": true, "activity_regularizer": null, "kernel_size": [1, 1]}, "inbound_nodes": [[["block35_2_mixed", 0, 0, {}]]], "name": "block35_2_conv"}, {"class_name": "Lambda", "config": {"function": ["YwIAAAACAAAAAwAAAFNgAQBzFAAAAHwAAGQBABl8AABkAgAZfAEAFBdTKAMAAABOaQAAAABpAQAA\nACgAAAAAKAIAAAB0BgAAAGlucHV0c3QFAAAAc2NhbGUoAAAAACgAAAAAc1AAAAAvdXNyL2xvY2Fs\nL2xpYi9weXRob24yLjcvZGlzdC1wYWNrYWdlcy9rZXJhc19hcHBsaWNhdGlvbnMvaW5jZXB0aW9u\nX3Jlc25ldF92Mi5weXQIAAAAPGxhbWJkYT6qAAAAdAAAAAA=\n", null, null], "name": "block35_2", "trainable": false, "function_type": "lambda", "arguments": {"scale": 0.17}, "output_shape": [15, 15, 320], "output_shape_type": "raw"}, "inbound_nodes": [[["block35_1_ac", 0, 0, {}], ["block35_2_conv", 0, 0, {}]]], "name": "block35_2"}, {"class_name": "Activation", "config": {"activation": "relu", "trainable": false, "name": "block35_2_ac"}, "inbound_nodes": [[["block35_2", 0, 0, {}]]], "name": "block35_2_ac"}, {"class_name": "Conv2D", "config": {"kernel_constraint": null, "kernel_initializer": {"class_name": "VarianceScaling", "config": {"distribution": "uniform", "scale": 1.0, "seed": null, "mode": "fan_avg"}}, "name": "conv2d_637", "bias_regularizer": null, "bias_constraint": null, "activation": "linear", "trainable": false, "data_format": "channels_last", "padding": "same", "strides": [1, 1], "dilation_rate": [1, 1], "kernel_regularizer": null, "filters": 32, "bias_initializer": {"class_name": "Zeros", "config": {}}, "use_bias": false, "activity_regularizer": null, "kernel_size": [1, 1]}, "inbound_nodes": [[["block35_2_ac", 0, 0, {}]]], "name": "conv2d_637"}, {"class_name": "BatchNormalization", "config": {"beta_constraint": null, "gamma_initializer": {"class_name": "Ones", "config": {}}, "moving_mean_initializer": {"class_name": "Zeros", "config": {}}, "name": "batch_normalization_637", "epsilon": 0.001, "trainable": false, "moving_variance_initializer": {"class_name": "Ones", "config": {}}, "beta_initializer": {"class_name": "Zeros", "config": {}}, "scale": false, "axis": 3, "gamma_constraint": null, "gamma_regularizer": null, "beta_regularizer": null, "momentum": 0.99, "center": true}, "inbound_nodes": [[["conv2d_637", 0, 0, {}]]], "name": "batch_normalization_637"}, {"class_name": "Activation", "config": {"activation": "relu", "trainable": false, "name": "activation_637"}, "inbound_nodes": [[["batch_normalization_637", 0, 0, {}]]], "name": "activation_637"}, {"class_name": "Conv2D", "config": {"kernel_constraint": null, "kernel_initializer": {"class_name": "VarianceScaling", "config": {"distribution": "uniform", "scale": 1.0, "seed": null, "mode": "fan_avg"}}, "name": "conv2d_635", "bias_regularizer": null, "bias_constraint": null, "activation": "linear", "trainable": false, "data_format": "channels_last", "padding": "same", "strides": [1, 1], "dilation_rate": [1, 1], "kernel_regularizer": null, "filters": 32, "bias_initializer": {"class_name": "Zeros", "config": {}}, "use_bias": false, "activity_regularizer": null, "kernel_size": [1, 1]}, "inbound_nodes": [[["block35_2_ac", 0, 0, {}]]], "name": "conv2d_635"}, {"class_name": "Conv2D", "config": {"kernel_constraint": null, "kernel_initializer": {"class_name": "VarianceScaling", "config": {"distribution": "uniform", "scale": 1.0, "seed": null, "mode": "fan_avg"}}, "name": "conv2d_638", "bias_regularizer": null, "bias_constraint": null, "activation": "linear", "trainable": false, "data_format": "channels_last", "padding": "same", "strides": [1, 1], "dilation_rate": [1, 1], "kernel_regularizer": null, "filters": 48, "bias_initializer": {"class_name": "Zeros", "config": {}}, "use_bias": false, "activity_regularizer": null, "kernel_size": [3, 3]}, "inbound_nodes": [[["activation_637", 0, 0, {}]]], "name": "conv2d_638"}, {"class_name": "BatchNormalization", "config": {"beta_constraint": null, "gamma_initializer": {"class_name": "Ones", "config": {}}, "moving_mean_initializer": {"class_name": "Zeros", "config": {}}, "name": "batch_normalization_635", "epsilon": 0.001, "trainable": false, "moving_variance_initializer": {"class_name": "Ones", "config": {}}, "beta_initializer": {"class_name": "Zeros", "config": {}}, "scale": false, "axis": 3, "gamma_constraint": null, "gamma_regularizer": null, "beta_regularizer": null, "momentum": 0.99, "center": true}, "inbound_nodes": [[["conv2d_635", 0, 0, {}]]], "name": "batch_normalization_635"}, {"class_name": "BatchNormalization", "config": {"beta_constraint": null, "gamma_initializer": {"class_name": "Ones", "config": {}}, "moving_mean_initializer": {"class_name": "Zeros", "config": {}}, "name": "batch_normalization_638", "epsilon": 0.001, "trainable": false, "moving_variance_initializer": {"class_name": "Ones", "config": {}}, "beta_initializer": {"class_name": "Zeros", "config": {}}, "scale": false, "axis": 3, "gamma_constraint": null, "gamma_regularizer": null, "beta_regularizer": null, "momentum": 0.99, "center": true}, "inbound_nodes": [[["conv2d_638", 0, 0, {}]]], "name": "batch_normalization_638"}, {"class_name": "Activation", "config": {"activation": "relu", "trainable": false, "name": "activation_635"}, "inbound_nodes": [[["batch_normalization_635", 0, 0, {}]]], "name": "activation_635"}, {"class_name": "Activation", "config": {"activation": "relu", "trainable": false, "name": "activation_638"}, "inbound_nodes": [[["batch_normalization_638", 0, 0, {}]]], "name": "activation_638"}, {"class_name": "Conv2D", "config": {"kernel_constraint": null, "kernel_initializer": {"class_name": "VarianceScaling", "config": {"distribution": "uniform", "scale": 1.0, "seed": null, "mode": "fan_avg"}}, "name": "conv2d_634", "bias_regularizer": null, "bias_constraint": null, "activation": "linear", "trainable": false, "data_format": "channels_last", "padding": "same", "strides": [1, 1], "dilation_rate": [1, 1], "kernel_regularizer": null, "filters": 32, "bias_initializer": {"class_name": "Zeros", "config": {}}, "use_bias": false, "activity_regularizer": null, "kernel_size": [1, 1]}, "inbound_nodes": [[["block35_2_ac", 0, 0, {}]]], "name": "conv2d_634"}, {"class_name": "Conv2D", "config": {"kernel_constraint": null, "kernel_initializer": {"class_name": "VarianceScaling", "config": {"distribution": "uniform", "scale": 1.0, "seed": null, "mode": "fan_avg"}}, "name": "conv2d_636", "bias_regularizer": null, "bias_constraint": null, "activation": "linear", "trainable": false, "data_format": "channels_last", "padding": "same", "strides": [1, 1], "dilation_rate": [1, 1], "kernel_regularizer": null, "filters": 32, "bias_initializer": {"class_name": "Zeros", "config": {}}, "use_bias": false, "activity_regularizer": null, "kernel_size": [3, 3]}, "inbound_nodes": [[["activation_635", 0, 0, {}]]], "name": "conv2d_636"}, {"class_name": "Conv2D", "config": {"kernel_constraint": null, "kernel_initializer": {"class_name": "VarianceScaling", "config": {"distribution": "uniform", "scale": 1.0, "seed": null, "mode": "fan_avg"}}, "name": "conv2d_639", "bias_regularizer": null, "bias_constraint": null, "activation": "linear", "trainable": false, "data_format": "channels_last", "padding": "same", "strides": [1, 1], "dilation_rate": [1, 1], "kernel_regularizer": null, "filters": 64, "bias_initializer": {"class_name": "Zeros", "config": {}}, "use_bias": false, "activity_regularizer": null, "kernel_size": [3, 3]}, "inbound_nodes": [[["activation_638", 0, 0, {}]]], "name": "conv2d_639"}, {"class_name": "BatchNormalization", "config": {"beta_constraint": null, "gamma_initializer": {"class_name": "Ones", "config": {}}, "moving_mean_initializer": {"class_name": "Zeros", "config": {}}, "name": "batch_normalization_634", "epsilon": 0.001, "trainable": false, "moving_variance_initializer": {"class_name": "Ones", "config": {}}, "beta_initializer": {"class_name": "Zeros", "config": {}}, "scale": false, "axis": 3, "gamma_constraint": null, "gamma_regularizer": null, "beta_regularizer": null, "momentum": 0.99, "center": true}, "inbound_nodes": [[["conv2d_634", 0, 0, {}]]], "name": "batch_normalization_634"}, {"class_name": "BatchNormalization", "config": {"beta_constraint": null, "gamma_initializer": {"class_name": "Ones", "config": {}}, "moving_mean_initializer": {"class_name": "Zeros", "config": {}}, "name": "batch_normalization_636", "epsilon": 0.001, "trainable": false, "moving_variance_initializer": {"class_name": "Ones", "config": {}}, "beta_initializer": {"class_name": "Zeros", "config": {}}, "scale": false, "axis": 3, "gamma_constraint": null, "gamma_regularizer": null, "beta_regularizer": null, "momentum": 0.99, "center": true}, "inbound_nodes": [[["conv2d_636", 0, 0, {}]]], "name": "batch_normalization_636"}, {"class_name": "BatchNormalization", "config": {"beta_constraint": null, "gamma_initializer": {"class_name": "Ones", "config": {}}, "moving_mean_initializer": {"class_name": "Zeros", "config": {}}, "name": "batch_normalization_639", "epsilon": 0.001, "trainable": false, "moving_variance_initializer": {"class_name": "Ones", "config": {}}, "beta_initializer": {"class_name": "Zeros", "config": {}}, "scale": false, "axis": 3, "gamma_constraint": null, "gamma_regularizer": null, "beta_regularizer": null, "momentum": 0.99, "center": true}, "inbound_nodes": [[["conv2d_639", 0, 0, {}]]], "name": "batch_normalization_639"}, {"class_name": "Activation", "config": {"activation": "relu", "trainable": false, "name": "activation_634"}, "inbound_nodes": [[["batch_normalization_634", 0, 0, {}]]], "name": "activation_634"}, {"class_name": "Activation", "config": {"activation": "relu", "trainable": false, "name": "activation_636"}, "inbound_nodes": [[["batch_normalization_636", 0, 0, {}]]], "name": "activation_636"}, {"class_name": "Activation", "config": {"activation": "relu", "trainable": false, "name": "activation_639"}, "inbound_nodes": [[["batch_normalization_639", 0, 0, {}]]], "name": "activation_639"}, {"class_name": "Concatenate", "config": {"trainable": false, "name": "block35_3_mixed", "axis": 3}, "inbound_nodes": [[["activation_634", 0, 0, {}], ["activation_636", 0, 0, {}], ["activation_639", 0, 0, {}]]], "name": "block35_3_mixed"}, {"class_name": "Conv2D", "config": {"kernel_constraint": null, "kernel_initializer": {"class_name": "VarianceScaling", "config": {"distribution": "uniform", "scale": 1.0, "seed": null, "mode": "fan_avg"}}, "name": "block35_3_conv", "bias_regularizer": null, "bias_constraint": null, "activation": "linear", "trainable": false, "data_format": "channels_last", "padding": "same", "strides": [1, 1], "dilation_rate": [1, 1], "kernel_regularizer": null, "filters": 320, "bias_initializer": {"class_name": "Zeros", "config": {}}, "use_bias": true, "activity_regularizer": null, "kernel_size": [1, 1]}, "inbound_nodes": [[["block35_3_mixed", 0, 0, {}]]], "name": "block35_3_conv"}, {"class_name": "Lambda", "config": {"function": ["YwIAAAACAAAAAwAAAFNgAQBzFAAAAHwAAGQBABl8AABkAgAZfAEAFBdTKAMAAABOaQAAAABpAQAA\nACgAAAAAKAIAAAB0BgAAAGlucHV0c3QFAAAAc2NhbGUoAAAAACgAAAAAc1AAAAAvdXNyL2xvY2Fs\nL2xpYi9weXRob24yLjcvZGlzdC1wYWNrYWdlcy9rZXJhc19hcHBsaWNhdGlvbnMvaW5jZXB0aW9u\nX3Jlc25ldF92Mi5weXQIAAAAPGxhbWJkYT6qAAAAdAAAAAA=\n", null, null], "name": "block35_3", "trainable": false, "function_type": "lambda", "arguments": {"scale": 0.17}, "output_shape": [15, 15, 320], "output_shape_type": "raw"}, "inbound_nodes": [[["block35_2_ac", 0, 0, {}], ["block35_3_conv", 0, 0, {}]]], "name": "block35_3"}, {"class_name": "Activation", "config": {"activation": "relu", "trainable": false, "name": "block35_3_ac"}, "inbound_nodes": [[["block35_3", 0, 0, {}]]], "name": "block35_3_ac"}, {"class_name": "Conv2D", "config": {"kernel_constraint": null, "kernel_initializer": {"class_name": "VarianceScaling", "config": {"distribution": "uniform", "scale": 1.0, "seed": null, "mode": "fan_avg"}}, "name": "conv2d_643", "bias_regularizer": null, "bias_constraint": null, "activation": "linear", "trainable": false, "data_format": "channels_last", "padding": "same", "strides": [1, 1], "dilation_rate": [1, 1], "kernel_regularizer": null, "filters": 32, "bias_initializer": {"class_name": "Zeros", "config": {}}, "use_bias": false, "activity_regularizer": null, "kernel_size": [1, 1]}, "inbound_nodes": [[["block35_3_ac", 0, 0, {}]]], "name": "conv2d_643"}, {"class_name": "BatchNormalization", "config": {"beta_constraint": null, "gamma_initializer": {"class_name": "Ones", "config": {}}, "moving_mean_initializer": {"class_name": "Zeros", "config": {}}, "name": "batch_normalization_643", "epsilon": 0.001, "trainable": false, "moving_variance_initializer": {"class_name": "Ones", "config": {}}, "beta_initializer": {"class_name": "Zeros", "config": {}}, "scale": false, "axis": 3, "gamma_constraint": null, "gamma_regularizer": null, "beta_regularizer": null, "momentum": 0.99, "center": true}, "inbound_nodes": [[["conv2d_643", 0, 0, {}]]], "name": "batch_normalization_643"}, {"class_name": "Activation", "config": {"activation": "relu", "trainable": false, "name": "activation_643"}, "inbound_nodes": [[["batch_normalization_643", 0, 0, {}]]], "name": "activation_643"}, {"class_name": "Conv2D", "config": {"kernel_constraint": null, "kernel_initializer": {"class_name": "VarianceScaling", "config": {"distribution": "uniform", "scale": 1.0, "seed": null, "mode": "fan_avg"}}, "name": "conv2d_641", "bias_regularizer": null, "bias_constraint": null, "activation": "linear", "trainable": false, "data_format": "channels_last", "padding": "same", "strides": [1, 1], "dilation_rate": [1, 1], "kernel_regularizer": null, "filters": 32, "bias_initializer": {"class_name": "Zeros", "config": {}}, "use_bias": false, "activity_regularizer": null, "kernel_size": [1, 1]}, "inbound_nodes": [[["block35_3_ac", 0, 0, {}]]], "name": "conv2d_641"}, {"class_name": "Conv2D", "config": {"kernel_constraint": null, "kernel_initializer": {"class_name": "VarianceScaling", "config": {"distribution": "uniform", "scale": 1.0, "seed": null, "mode": "fan_avg"}}, "name": "conv2d_644", "bias_regularizer": null, "bias_constraint": null, "activation": "linear", "trainable": false, "data_format": "channels_last", "padding": "same", "strides": [1, 1], "dilation_rate": [1, 1], "kernel_regularizer": null, "filters": 48, "bias_initializer": {"class_name": "Zeros", "config": {}}, "use_bias": false, "activity_regularizer": null, "kernel_size": [3, 3]}, "inbound_nodes": [[["activation_643", 0, 0, {}]]], "name": "conv2d_644"}, {"class_name": "BatchNormalization", "config": {"beta_constraint": null, "gamma_initializer": {"class_name": "Ones", "config": {}}, "moving_mean_initializer": {"class_name": "Zeros", "config": {}}, "name": "batch_normalization_641", "epsilon": 0.001, "trainable": false, "moving_variance_initializer": {"class_name": "Ones", "config": {}}, "beta_initializer": {"class_name": "Zeros", "config": {}}, "scale": false, "axis": 3, "gamma_constraint": null, "gamma_regularizer": null, "beta_regularizer": null, "momentum": 0.99, "center": true}, "inbound_nodes": [[["conv2d_641", 0, 0, {}]]], "name": "batch_normalization_641"}, {"class_name": "BatchNormalization", "config": {"beta_constraint": null, "gamma_initializer": {"class_name": "Ones", "config": {}}, "moving_mean_initializer": {"class_name": "Zeros", "config": {}}, "name": "batch_normalization_644", "epsilon": 0.001, "trainable": false, "moving_variance_initializer": {"class_name": "Ones", "config": {}}, "beta_initializer": {"class_name": "Zeros", "config": {}}, "scale": false, "axis": 3, "gamma_constraint": null, "gamma_regularizer": null, "beta_regularizer": null, "momentum": 0.99, "center": true}, "inbound_nodes": [[["conv2d_644", 0, 0, {}]]], "name": "batch_normalization_644"}, {"class_name": "Activation", "config": {"activation": "relu", "trainable": false, "name": "activation_641"}, "inbound_nodes": [[["batch_normalization_641", 0, 0, {}]]], "name": "activation_641"}, {"class_name": "Activation", "config": {"activation": "relu", "trainable": false, "name": "activation_644"}, "inbound_nodes": [[["batch_normalization_644", 0, 0, {}]]], "name": "activation_644"}, {"class_name": "Conv2D", "config": {"kernel_constraint": null, "kernel_initializer": {"class_name": "VarianceScaling", "config": {"distribution": "uniform", "scale": 1.0, "seed": null, "mode": "fan_avg"}}, "name": "conv2d_640", "bias_regularizer": null, "bias_constraint": null, "activation": "linear", "trainable": false, "data_format": "channels_last", "padding": "same", "strides": [1, 1], "dilation_rate": [1, 1], "kernel_regularizer": null, "filters": 32, "bias_initializer": {"class_name": "Zeros", "config": {}}, "use_bias": false, "activity_regularizer": null, "kernel_size": [1, 1]}, "inbound_nodes": [[["block35_3_ac", 0, 0, {}]]], "name": "conv2d_640"}, {"class_name": "Conv2D", "config": {"kernel_constraint": null, "kernel_initializer": {"class_name": "VarianceScaling", "config": {"distribution": "uniform", "scale": 1.0, "seed": null, "mode": "fan_avg"}}, "name": "conv2d_642", "bias_regularizer": null, "bias_constraint": null, "activation": "linear", "trainable": false, "data_format": "channels_last", "padding": "same", "strides": [1, 1], "dilation_rate": [1, 1], "kernel_regularizer": null, "filters": 32, "bias_initializer": {"class_name": "Zeros", "config": {}}, "use_bias": false, "activity_regularizer": null, "kernel_size": [3, 3]}, "inbound_nodes": [[["activation_641", 0, 0, {}]]], "name": "conv2d_642"}, {"class_name": "Conv2D", "config": {"kernel_constraint": null, "kernel_initializer": {"class_name": "VarianceScaling", "config": {"distribution": "uniform", "scale": 1.0, "seed": null, "mode": "fan_avg"}}, "name": "conv2d_645", "bias_regularizer": null, "bias_constraint": null, "activation": "linear", "trainable": false, "data_format": "channels_last", "padding": "same", "strides": [1, 1], "dilation_rate": [1, 1], "kernel_regularizer": null, "filters": 64, "bias_initializer": {"class_name": "Zeros", "config": {}}, "use_bias": false, "activity_regularizer": null, "kernel_size": [3, 3]}, "inbound_nodes": [[["activation_644", 0, 0, {}]]], "name": "conv2d_645"}, {"class_name": "BatchNormalization", "config": {"beta_constraint": null, "gamma_initializer": {"class_name": "Ones", "config": {}}, "moving_mean_initializer": {"class_name": "Zeros", "config": {}}, "name": "batch_normalization_640", "epsilon": 0.001, "trainable": false, "moving_variance_initializer": {"class_name": "Ones", "config": {}}, "beta_initializer": {"class_name": "Zeros", "config": {}}, "scale": false, "axis": 3, "gamma_constraint": null, "gamma_regularizer": null, "beta_regularizer": null, "momentum": 0.99, "center": true}, "inbound_nodes": [[["conv2d_640", 0, 0, {}]]], "name": "batch_normalization_640"}, {"class_name": "BatchNormalization", "config": {"beta_constraint": null, "gamma_initializer": {"class_name": "Ones", "config": {}}, "moving_mean_initializer": {"class_name": "Zeros", "config": {}}, "name": "batch_normalization_642", "epsilon": 0.001, "trainable": false, "moving_variance_initializer": {"class_name": "Ones", "config": {}}, "beta_initializer": {"class_name": "Zeros", "config": {}}, "scale": false, "axis": 3, "gamma_constraint": null, "gamma_regularizer": null, "beta_regularizer": null, "momentum": 0.99, "center": true}, "inbound_nodes": [[["conv2d_642", 0, 0, {}]]], "name": "batch_normalization_642"}, {"class_name": "BatchNormalization", "config": {"beta_constraint": null, "gamma_initializer": {"class_name": "Ones", "config": {}}, "moving_mean_initializer": {"class_name": "Zeros", "config": {}}, "name": "batch_normalization_645", "epsilon": 0.001, "trainable": false, "moving_variance_initializer": {"class_name": "Ones", "config": {}}, "beta_initializer": {"class_name": "Zeros", "config": {}}, "scale": false, "axis": 3, "gamma_constraint": null, "gamma_regularizer": null, "beta_regularizer": null, "momentum": 0.99, "center": true}, "inbound_nodes": [[["conv2d_645", 0, 0, {}]]], "name": "batch_normalization_645"}, {"class_name": "Activation", "config": {"activation": "relu", "trainable": false, "name": "activation_640"}, "inbound_nodes": [[["batch_normalization_640", 0, 0, {}]]], "name": "activation_640"}, {"class_name": "Activation", "config": {"activation": "relu", "trainable": false, "name": "activation_642"}, "inbound_nodes": [[["batch_normalization_642", 0, 0, {}]]], "name": "activation_642"}, {"class_name": "Activation", "config": {"activation": "relu", "trainable": false, "name": "activation_645"}, "inbound_nodes": [[["batch_normalization_645", 0, 0, {}]]], "name": "activation_645"}, {"class_name": "Concatenate", "config": {"trainable": false, "name": "block35_4_mixed", "axis": 3}, "inbound_nodes": [[["activation_640", 0, 0, {}], ["activation_642", 0, 0, {}], ["activation_645", 0, 0, {}]]], "name": "block35_4_mixed"}, {"class_name": "Conv2D", "config": {"kernel_constraint": null, "kernel_initializer": {"class_name": "VarianceScaling", "config": {"distribution": "uniform", "scale": 1.0, "seed": null, "mode": "fan_avg"}}, "name": "block35_4_conv", "bias_regularizer": null, "bias_constraint": null, "activation": "linear", "trainable": false, "data_format": "channels_last", "padding": "same", "strides": [1, 1], "dilation_rate": [1, 1], "kernel_regularizer": null, "filters": 320, "bias_initializer": {"class_name": "Zeros", "config": {}}, "use_bias": true, "activity_regularizer": null, "kernel_size": [1, 1]}, "inbound_nodes": [[["block35_4_mixed", 0, 0, {}]]], "name": "block35_4_conv"}, {"class_name": "Lambda", "config": {"function": ["YwIAAAACAAAAAwAAAFNgAQBzFAAAAHwAAGQBABl8AABkAgAZfAEAFBdTKAMAAABOaQAAAABpAQAA\nACgAAAAAKAIAAAB0BgAAAGlucHV0c3QFAAAAc2NhbGUoAAAAACgAAAAAc1AAAAAvdXNyL2xvY2Fs\nL2xpYi9weXRob24yLjcvZGlzdC1wYWNrYWdlcy9rZXJhc19hcHBsaWNhdGlvbnMvaW5jZXB0aW9u\nX3Jlc25ldF92Mi5weXQIAAAAPGxhbWJkYT6qAAAAdAAAAAA=\n", null, null], "name": "block35_4", "trainable": false, "function_type": "lambda", "arguments": {"scale": 0.17}, "output_shape": [15, 15, 320], "output_shape_type": "raw"}, "inbound_nodes": [[["block35_3_ac", 0, 0, {}], ["block35_4_conv", 0, 0, {}]]], "name": "block35_4"}, {"class_name": "Activation", "config": {"activation": "relu", "trainable": false, "name": "block35_4_ac"}, "inbound_nodes": [[["block35_4", 0, 0, {}]]], "name": "block35_4_ac"}, {"class_name": "Conv2D", "config": {"kernel_constraint": null, "kernel_initializer": {"class_name": "VarianceScaling", "config": {"distribution": "uniform", "scale": 1.0, "seed": null, "mode": "fan_avg"}}, "name": "conv2d_649", "bias_regularizer": null, "bias_constraint": null, "activation": "linear", "trainable": false, "data_format": "channels_last", "padding": "same", "strides": [1, 1], "dilation_rate": [1, 1], "kernel_regularizer": null, "filters": 32, "bias_initializer": {"class_name": "Zeros", "config": {}}, "use_bias": false, "activity_regularizer": null, "kernel_size": [1, 1]}, "inbound_nodes": [[["block35_4_ac", 0, 0, {}]]], "name": "conv2d_649"}, {"class_name": "BatchNormalization", "config": {"beta_constraint": null, "gamma_initializer": {"class_name": "Ones", "config": {}}, "moving_mean_initializer": {"class_name": "Zeros", "config": {}}, "name": "batch_normalization_649", "epsilon": 0.001, "trainable": false, "moving_variance_initializer": {"class_name": "Ones", "config": {}}, "beta_initializer": {"class_name": "Zeros", "config": {}}, "scale": false, "axis": 3, "gamma_constraint": null, "gamma_regularizer": null, "beta_regularizer": null, "momentum": 0.99, "center": true}, "inbound_nodes": [[["conv2d_649", 0, 0, {}]]], "name": "batch_normalization_649"}, {"class_name": "Activation", "config": {"activation": "relu", "trainable": false, "name": "activation_649"}, "inbound_nodes": [[["batch_normalization_649", 0, 0, {}]]], "name": "activation_649"}, {"class_name": "Conv2D", "config": {"kernel_constraint": null, "kernel_initializer": {"class_name": "VarianceScaling", "config": {"distribution": "uniform", "scale": 1.0, "seed": null, "mode": "fan_avg"}}, "name": "conv2d_647", "bias_regularizer": null, "bias_constraint": null, "activation": "linear", "trainable": false, "data_format": "channels_last", "padding": "same", "strides": [1, 1], "dilation_rate": [1, 1], "kernel_regularizer": null, "filters": 32, "bias_initializer": {"class_name": "Zeros", "config": {}}, "use_bias": false, "activity_regularizer": null, "kernel_size": [1, 1]}, "inbound_nodes": [[["block35_4_ac", 0, 0, {}]]], "name": "conv2d_647"}, {"class_name": "Conv2D", "config": {"kernel_constraint": null, "kernel_initializer": {"class_name": "VarianceScaling", "config": {"distribution": "uniform", "scale": 1.0, "seed": null, "mode": "fan_avg"}}, "name": "conv2d_650", "bias_regularizer": null, "bias_constraint": null, "activation": "linear", "trainable": false, "data_format": "channels_last", "padding": "same", "strides": [1, 1], "dilation_rate": [1, 1], "kernel_regularizer": null, "filters": 48, "bias_initializer": {"class_name": "Zeros", "config": {}}, "use_bias": false, "activity_regularizer": null, "kernel_size": [3, 3]}, "inbound_nodes": [[["activation_649", 0, 0, {}]]], "name": "conv2d_650"}, {"class_name": "BatchNormalization", "config": {"beta_constraint": null, "gamma_initializer": {"class_name": "Ones", "config": {}}, "moving_mean_initializer": {"class_name": "Zeros", "config": {}}, "name": "batch_normalization_647", "epsilon": 0.001, "trainable": false, "moving_variance_initializer": {"class_name": "Ones", "config": {}}, "beta_initializer": {"class_name": "Zeros", "config": {}}, "scale": false, "axis": 3, "gamma_constraint": null, "gamma_regularizer": null, "beta_regularizer": null, "momentum": 0.99, "center": true}, "inbound_nodes": [[["conv2d_647", 0, 0, {}]]], "name": "batch_normalization_647"}, {"class_name": "BatchNormalization", "config": {"beta_constraint": null, "gamma_initializer": {"class_name": "Ones", "config": {}}, "moving_mean_initializer": {"class_name": "Zeros", "config": {}}, "name": "batch_normalization_650", "epsilon": 0.001, "trainable": false, "moving_variance_initializer": {"class_name": "Ones", "config": {}}, "beta_initializer": {"class_name": "Zeros", "config": {}}, "scale": false, "axis": 3, "gamma_constraint": null, "gamma_regularizer": null, "beta_regularizer": null, "momentum": 0.99, "center": true}, "inbound_nodes": [[["conv2d_650", 0, 0, {}]]], "name": "batch_normalization_650"}, {"class_name": "Activation", "config": {"activation": "relu", "trainable": false, "name": "activation_647"}, "inbound_nodes": [[["batch_normalization_647", 0, 0, {}]]], "name": "activation_647"}, {"class_name": "Activation", "config": {"activation": "relu", "trainable": false, "name": "activation_650"}, "inbound_nodes": [[["batch_normalization_650", 0, 0, {}]]], "name": "activation_650"}, {"class_name": "Conv2D", "config": {"kernel_constraint": null, "kernel_initializer": {"class_name": "VarianceScaling", "config": {"distribution": "uniform", "scale": 1.0, "seed": null, "mode": "fan_avg"}}, "name": "conv2d_646", "bias_regularizer": null, "bias_constraint": null, "activation": "linear", "trainable": false, "data_format": "channels_last", "padding": "same", "strides": [1, 1], "dilation_rate": [1, 1], "kernel_regularizer": null, "filters": 32, "bias_initializer": {"class_name": "Zeros", "config": {}}, "use_bias": false, "activity_regularizer": null, "kernel_size": [1, 1]}, "inbound_nodes": [[["block35_4_ac", 0, 0, {}]]], "name": "conv2d_646"}, {"class_name": "Conv2D", "config": {"kernel_constraint": null, "kernel_initializer": {"class_name": "VarianceScaling", "config": {"distribution": "uniform", "scale": 1.0, "seed": null, "mode": "fan_avg"}}, "name": "conv2d_648", "bias_regularizer": null, "bias_constraint": null, "activation": "linear", "trainable": false, "data_format": "channels_last", "padding": "same", "strides": [1, 1], "dilation_rate": [1, 1], "kernel_regularizer": null, "filters": 32, "bias_initializer": {"class_name": "Zeros", "config": {}}, "use_bias": false, "activity_regularizer": null, "kernel_size": [3, 3]}, "inbound_nodes": [[["activation_647", 0, 0, {}]]], "name": "conv2d_648"}, {"class_name": "Conv2D", "config": {"kernel_constraint": null, "kernel_initializer": {"class_name": "VarianceScaling", "config": {"distribution": "uniform", "scale": 1.0, "seed": null, "mode": "fan_avg"}}, "name": "conv2d_651", "bias_regularizer": null, "bias_constraint": null, "activation": "linear", "trainable": false, "data_format": "channels_last", "padding": "same", "strides": [1, 1], "dilation_rate": [1, 1], "kernel_regularizer": null, "filters": 64, "bias_initializer": {"class_name": "Zeros", "config": {}}, "use_bias": false, "activity_regularizer": null, "kernel_size": [3, 3]}, "inbound_nodes": [[["activation_650", 0, 0, {}]]], "name": "conv2d_651"}, {"class_name": "BatchNormalization", "config": {"beta_constraint": null, "gamma_initializer": {"class_name": "Ones", "config": {}}, "moving_mean_initializer": {"class_name": "Zeros", "config": {}}, "name": "batch_normalization_646", "epsilon": 0.001, "trainable": false, "moving_variance_initializer": {"class_name": "Ones", "config": {}}, "beta_initializer": {"class_name": "Zeros", "config": {}}, "scale": false, "axis": 3, "gamma_constraint": null, "gamma_regularizer": null, "beta_regularizer": null, "momentum": 0.99, "center": true}, "inbound_nodes": [[["conv2d_646", 0, 0, {}]]], "name": "batch_normalization_646"}, {"class_name": "BatchNormalization", "config": {"beta_constraint": null, "gamma_initializer": {"class_name": "Ones", "config": {}}, "moving_mean_initializer": {"class_name": "Zeros", "config": {}}, "name": "batch_normalization_648", "epsilon": 0.001, "trainable": false, "moving_variance_initializer": {"class_name": "Ones", "config": {}}, "beta_initializer": {"class_name": "Zeros", "config": {}}, "scale": false, "axis": 3, "gamma_constraint": null, "gamma_regularizer": null, "beta_regularizer": null, "momentum": 0.99, "center": true}, "inbound_nodes": [[["conv2d_648", 0, 0, {}]]], "name": "batch_normalization_648"}, {"class_name": "BatchNormalization", "config": {"beta_constraint": null, "gamma_initializer": {"class_name": "Ones", "config": {}}, "moving_mean_initializer": {"class_name": "Zeros", "config": {}}, "name": "batch_normalization_651", "epsilon": 0.001, "trainable": false, "moving_variance_initializer": {"class_name": "Ones", "config": {}}, "beta_initializer": {"class_name": "Zeros", "config": {}}, "scale": false, "axis": 3, "gamma_constraint": null, "gamma_regularizer": null, "beta_regularizer": null, "momentum": 0.99, "center": true}, "inbound_nodes": [[["conv2d_651", 0, 0, {}]]], "name": "batch_normalization_651"}, {"class_name": "Activation", "config": {"activation": "relu", "trainable": false, "name": "activation_646"}, "inbound_nodes": [[["batch_normalization_646", 0, 0, {}]]], "name": "activation_646"}, {"class_name": "Activation", "config": {"activation": "relu", "trainable": false, "name": "activation_648"}, "inbound_nodes": [[["batch_normalization_648", 0, 0, {}]]], "name": "activation_648"}, {"class_name": "Activation", "config": {"activation": "relu", "trainable": false, "name": "activation_651"}, "inbound_nodes": [[["batch_normalization_651", 0, 0, {}]]], "name": "activation_651"}, {"class_name": "Concatenate", "config": {"trainable": false, "name": "block35_5_mixed", "axis": 3}, "inbound_nodes": [[["activation_646", 0, 0, {}], ["activation_648", 0, 0, {}], ["activation_651", 0, 0, {}]]], "name": "block35_5_mixed"}, {"class_name": "Conv2D", "config": {"kernel_constraint": null, "kernel_initializer": {"class_name": "VarianceScaling", "config": {"distribution": "uniform", "scale": 1.0, "seed": null, "mode": "fan_avg"}}, "name": "block35_5_conv", "bias_regularizer": null, "bias_constraint": null, "activation": "linear", "trainable": false, "data_format": "channels_last", "padding": "same", "strides": [1, 1], "dilation_rate": [1, 1], "kernel_regularizer": null, "filters": 320, "bias_initializer": {"class_name": "Zeros", "config": {}}, "use_bias": true, "activity_regularizer": null, "kernel_size": [1, 1]}, "inbound_nodes": [[["block35_5_mixed", 0, 0, {}]]], "name": "block35_5_conv"}, {"class_name": "Lambda", "config": {"function": ["YwIAAAACAAAAAwAAAFNgAQBzFAAAAHwAAGQBABl8AABkAgAZfAEAFBdTKAMAAABOaQAAAABpAQAA\nACgAAAAAKAIAAAB0BgAAAGlucHV0c3QFAAAAc2NhbGUoAAAAACgAAAAAc1AAAAAvdXNyL2xvY2Fs\nL2xpYi9weXRob24yLjcvZGlzdC1wYWNrYWdlcy9rZXJhc19hcHBsaWNhdGlvbnMvaW5jZXB0aW9u\nX3Jlc25ldF92Mi5weXQIAAAAPGxhbWJkYT6qAAAAdAAAAAA=\n", null, null], "name": "block35_5", "trainable": false, "function_type": "lambda", "arguments": {"scale": 0.17}, "output_shape": [15, 15, 320], "output_shape_type": "raw"}, "inbound_nodes": [[["block35_4_ac", 0, 0, {}], ["block35_5_conv", 0, 0, {}]]], "name": "block35_5"}, {"class_name": "Activation", "config": {"activation": "relu", "trainable": false, "name": "block35_5_ac"}, "inbound_nodes": [[["block35_5", 0, 0, {}]]], "name": "block35_5_ac"}, {"class_name": "Conv2D", "config": {"kernel_constraint": null, "kernel_initializer": {"class_name": "VarianceScaling", "config": {"distribution": "uniform", "scale": 1.0, "seed": null, "mode": "fan_avg"}}, "name": "conv2d_655", "bias_regularizer": null, "bias_constraint": null, "activation": "linear", "trainable": false, "data_format": "channels_last", "padding": "same", "strides": [1, 1], "dilation_rate": [1, 1], "kernel_regularizer": null, "filters": 32, "bias_initializer": {"class_name": "Zeros", "config": {}}, "use_bias": false, "activity_regularizer": null, "kernel_size": [1, 1]}, "inbound_nodes": [[["block35_5_ac", 0, 0, {}]]], "name": "conv2d_655"}, {"class_name": "BatchNormalization", "config": {"beta_constraint": null, "gamma_initializer": {"class_name": "Ones", "config": {}}, "moving_mean_initializer": {"class_name": "Zeros", "config": {}}, "name": "batch_normalization_655", "epsilon": 0.001, "trainable": false, "moving_variance_initializer": {"class_name": "Ones", "config": {}}, "beta_initializer": {"class_name": "Zeros", "config": {}}, "scale": false, "axis": 3, "gamma_constraint": null, "gamma_regularizer": null, "beta_regularizer": null, "momentum": 0.99, "center": true}, "inbound_nodes": [[["conv2d_655", 0, 0, {}]]], "name": "batch_normalization_655"}, {"class_name": "Activation", "config": {"activation": "relu", "trainable": false, "name": "activation_655"}, "inbound_nodes": [[["batch_normalization_655", 0, 0, {}]]], "name": "activation_655"}, {"class_name": "Conv2D", "config": {"kernel_constraint": null, "kernel_initializer": {"class_name": "VarianceScaling", "config": {"distribution": "uniform", "scale": 1.0, "seed": null, "mode": "fan_avg"}}, "name": "conv2d_653", "bias_regularizer": null, "bias_constraint": null, "activation": "linear", "trainable": false, "data_format": "channels_last", "padding": "same", "strides": [1, 1], "dilation_rate": [1, 1], "kernel_regularizer": null, "filters": 32, "bias_initializer": {"class_name": "Zeros", "config": {}}, "use_bias": false, "activity_regularizer": null, "kernel_size": [1, 1]}, "inbound_nodes": [[["block35_5_ac", 0, 0, {}]]], "name": "conv2d_653"}, {"class_name": "Conv2D", "config": {"kernel_constraint": null, "kernel_initializer": {"class_name": "VarianceScaling", "config": {"distribution": "uniform", "scale": 1.0, "seed": null, "mode": "fan_avg"}}, "name": "conv2d_656", "bias_regularizer": null, "bias_constraint": null, "activation": "linear", "trainable": false, "data_format": "channels_last", "padding": "same", "strides": [1, 1], "dilation_rate": [1, 1], "kernel_regularizer": null, "filters": 48, "bias_initializer": {"class_name": "Zeros", "config": {}}, "use_bias": false, "activity_regularizer": null, "kernel_size": [3, 3]}, "inbound_nodes": [[["activation_655", 0, 0, {}]]], "name": "conv2d_656"}, {"class_name": "BatchNormalization", "config": {"beta_constraint": null, "gamma_initializer": {"class_name": "Ones", "config": {}}, "moving_mean_initializer": {"class_name": "Zeros", "config": {}}, "name": "batch_normalization_653", "epsilon": 0.001, "trainable": false, "moving_variance_initializer": {"class_name": "Ones", "config": {}}, "beta_initializer": {"class_name": "Zeros", "config": {}}, "scale": false, "axis": 3, "gamma_constraint": null, "gamma_regularizer": null, "beta_regularizer": null, "momentum": 0.99, "center": true}, "inbound_nodes": [[["conv2d_653", 0, 0, {}]]], "name": "batch_normalization_653"}, {"class_name": "BatchNormalization", "config": {"beta_constraint": null, "gamma_initializer": {"class_name": "Ones", "config": {}}, "moving_mean_initializer": {"class_name": "Zeros", "config": {}}, "name": "batch_normalization_656", "epsilon": 0.001, "trainable": false, "moving_variance_initializer": {"class_name": "Ones", "config": {}}, "beta_initializer": {"class_name": "Zeros", "config": {}}, "scale": false, "axis": 3, "gamma_constraint": null, "gamma_regularizer": null, "beta_regularizer": null, "momentum": 0.99, "center": true}, "inbound_nodes": [[["conv2d_656", 0, 0, {}]]], "name": "batch_normalization_656"}, {"class_name": "Activation", "config": {"activation": "relu", "trainable": false, "name": "activation_653"}, "inbound_nodes": [[["batch_normalization_653", 0, 0, {}]]], "name": "activation_653"}, {"class_name": "Activation", "config": {"activation": "relu", "trainable": false, "name": "activation_656"}, "inbound_nodes": [[["batch_normalization_656", 0, 0, {}]]], "name": "activation_656"}, {"class_name": "Conv2D", "config": {"kernel_constraint": null, "kernel_initializer": {"class_name": "VarianceScaling", "config": {"distribution": "uniform", "scale": 1.0, "seed": null, "mode": "fan_avg"}}, "name": "conv2d_652", "bias_regularizer": null, "bias_constraint": null, "activation": "linear", "trainable": false, "data_format": "channels_last", "padding": "same", "strides": [1, 1], "dilation_rate": [1, 1], "kernel_regularizer": null, "filters": 32, "bias_initializer": {"class_name": "Zeros", "config": {}}, "use_bias": false, "activity_regularizer": null, "kernel_size": [1, 1]}, "inbound_nodes": [[["block35_5_ac", 0, 0, {}]]], "name": "conv2d_652"}, {"class_name": "Conv2D", "config": {"kernel_constraint": null, "kernel_initializer": {"class_name": "VarianceScaling", "config": {"distribution": "uniform", "scale": 1.0, "seed": null, "mode": "fan_avg"}}, "name": "conv2d_654", "bias_regularizer": null, "bias_constraint": null, "activation": "linear", "trainable": false, "data_format": "channels_last", "padding": "same", "strides": [1, 1], "dilation_rate": [1, 1], "kernel_regularizer": null, "filters": 32, "bias_initializer": {"class_name": "Zeros", "config": {}}, "use_bias": false, "activity_regularizer": null, "kernel_size": [3, 3]}, "inbound_nodes": [[["activation_653", 0, 0, {}]]], "name": "conv2d_654"}, {"class_name": "Conv2D", "config": {"kernel_constraint": null, "kernel_initializer": {"class_name": "VarianceScaling", "config": {"distribution": "uniform", "scale": 1.0, "seed": null, "mode": "fan_avg"}}, "name": "conv2d_657", "bias_regularizer": null, "bias_constraint": null, "activation": "linear", "trainable": false, "data_format": "channels_last", "padding": "same", "strides": [1, 1], "dilation_rate": [1, 1], "kernel_regularizer": null, "filters": 64, "bias_initializer": {"class_name": "Zeros", "config": {}}, "use_bias": false, "activity_regularizer": null, "kernel_size": [3, 3]}, "inbound_nodes": [[["activation_656", 0, 0, {}]]], "name": "conv2d_657"}, {"class_name": "BatchNormalization", "config": {"beta_constraint": null, "gamma_initializer": {"class_name": "Ones", "config": {}}, "moving_mean_initializer": {"class_name": "Zeros", "config": {}}, "name": "batch_normalization_652", "epsilon": 0.001, "trainable": false, "moving_variance_initializer": {"class_name": "Ones", "config": {}}, "beta_initializer": {"class_name": "Zeros", "config": {}}, "scale": false, "axis": 3, "gamma_constraint": null, "gamma_regularizer": null, "beta_regularizer": null, "momentum": 0.99, "center": true}, "inbound_nodes": [[["conv2d_652", 0, 0, {}]]], "name": "batch_normalization_652"}, {"class_name": "BatchNormalization", "config": {"beta_constraint": null, "gamma_initializer": {"class_name": "Ones", "config": {}}, "moving_mean_initializer": {"class_name": "Zeros", "config": {}}, "name": "batch_normalization_654", "epsilon": 0.001, "trainable": false, "moving_variance_initializer": {"class_name": "Ones", "config": {}}, "beta_initializer": {"class_name": "Zeros", "config": {}}, "scale": false, "axis": 3, "gamma_constraint": null, "gamma_regularizer": null, "beta_regularizer": null, "momentum": 0.99, "center": true}, "inbound_nodes": [[["conv2d_654", 0, 0, {}]]], "name": "batch_normalization_654"}, {"class_name": "BatchNormalization", "config": {"beta_constraint": null, "gamma_initializer": {"class_name": "Ones", "config": {}}, "moving_mean_initializer": {"class_name": "Zeros", "config": {}}, "name": "batch_normalization_657", "epsilon": 0.001, "trainable": false, "moving_variance_initializer": {"class_name": "Ones", "config": {}}, "beta_initializer": {"class_name": "Zeros", "config": {}}, "scale": false, "axis": 3, "gamma_constraint": null, "gamma_regularizer": null, "beta_regularizer": null, "momentum": 0.99, "center": true}, "inbound_nodes": [[["conv2d_657", 0, 0, {}]]], "name": "batch_normalization_657"}, {"class_name": "Activation", "config": {"activation": "relu", "trainable": false, "name": "activation_652"}, "inbound_nodes": [[["batch_normalization_652", 0, 0, {}]]], "name": "activation_652"}, {"class_name": "Activation", "config": {"activation": "relu", "trainable": false, "name": "activation_654"}, "inbound_nodes": [[["batch_normalization_654", 0, 0, {}]]], "name": "activation_654"}, {"class_name": "Activation", "config": {"activation": "relu", "trainable": false, "name": "activation_657"}, "inbound_nodes": [[["batch_normalization_657", 0, 0, {}]]], "name": "activation_657"}, {"class_name": "Concatenate", "config": {"trainable": false, "name": "block35_6_mixed", "axis": 3}, "inbound_nodes": [[["activation_652", 0, 0, {}], ["activation_654", 0, 0, {}], ["activation_657", 0, 0, {}]]], "name": "block35_6_mixed"}, {"class_name": "Conv2D", "config": {"kernel_constraint": null, "kernel_initializer": {"class_name": "VarianceScaling", "config": {"distribution": "uniform", "scale": 1.0, "seed": null, "mode": "fan_avg"}}, "name": "block35_6_conv", "bias_regularizer": null, "bias_constraint": null, "activation": "linear", "trainable": false, "data_format": "channels_last", "padding": "same", "strides": [1, 1], "dilation_rate": [1, 1], "kernel_regularizer": null, "filters": 320, "bias_initializer": {"class_name": "Zeros", "config": {}}, "use_bias": true, "activity_regularizer": null, "kernel_size": [1, 1]}, "inbound_nodes": [[["block35_6_mixed", 0, 0, {}]]], "name": "block35_6_conv"}, {"class_name": "Lambda", "config": {"function": ["YwIAAAACAAAAAwAAAFNgAQBzFAAAAHwAAGQBABl8AABkAgAZfAEAFBdTKAMAAABOaQAAAABpAQAA\nACgAAAAAKAIAAAB0BgAAAGlucHV0c3QFAAAAc2NhbGUoAAAAACgAAAAAc1AAAAAvdXNyL2xvY2Fs\nL2xpYi9weXRob24yLjcvZGlzdC1wYWNrYWdlcy9rZXJhc19hcHBsaWNhdGlvbnMvaW5jZXB0aW9u\nX3Jlc25ldF92Mi5weXQIAAAAPGxhbWJkYT6qAAAAdAAAAAA=\n", null, null], "name": "block35_6", "trainable": false, "function_type": "lambda", "arguments": {"scale": 0.17}, "output_shape": [15, 15, 320], "output_shape_type": "raw"}, "inbound_nodes": [[["block35_5_ac", 0, 0, {}], ["block35_6_conv", 0, 0, {}]]], "name": "block35_6"}, {"class_name": "Activation", "config": {"activation": "relu", "trainable": false, "name": "block35_6_ac"}, "inbound_nodes": [[["block35_6", 0, 0, {}]]], "name": "block35_6_ac"}, {"class_name": "Conv2D", "config": {"kernel_constraint": null, "kernel_initializer": {"class_name": "VarianceScaling", "config": {"distribution": "uniform", "scale": 1.0, "seed": null, "mode": "fan_avg"}}, "name": "conv2d_661", "bias_regularizer": null, "bias_constraint": null, "activation": "linear", "trainable": false, "data_format": "channels_last", "padding": "same", "strides": [1, 1], "dilation_rate": [1, 1], "kernel_regularizer": null, "filters": 32, "bias_initializer": {"class_name": "Zeros", "config": {}}, "use_bias": false, "activity_regularizer": null, "kernel_size": [1, 1]}, "inbound_nodes": [[["block35_6_ac", 0, 0, {}]]], "name": "conv2d_661"}, {"class_name": "BatchNormalization", "config": {"beta_constraint": null, "gamma_initializer": {"class_name": "Ones", "config": {}}, "moving_mean_initializer": {"class_name": "Zeros", "config": {}}, "name": "batch_normalization_661", "epsilon": 0.001, "trainable": false, "moving_variance_initializer": {"class_name": "Ones", "config": {}}, "beta_initializer": {"class_name": "Zeros", "config": {}}, "scale": false, "axis": 3, "gamma_constraint": null, "gamma_regularizer": null, "beta_regularizer": null, "momentum": 0.99, "center": true}, "inbound_nodes": [[["conv2d_661", 0, 0, {}]]], "name": "batch_normalization_661"}, {"class_name": "Activation", "config": {"activation": "relu", "trainable": false, "name": "activation_661"}, "inbound_nodes": [[["batch_normalization_661", 0, 0, {}]]], "name": "activation_661"}, {"class_name": "Conv2D", "config": {"kernel_constraint": null, "kernel_initializer": {"class_name": "VarianceScaling", "config": {"distribution": "uniform", "scale": 1.0, "seed": null, "mode": "fan_avg"}}, "name": "conv2d_659", "bias_regularizer": null, "bias_constraint": null, "activation": "linear", "trainable": false, "data_format": "channels_last", "padding": "same", "strides": [1, 1], "dilation_rate": [1, 1], "kernel_regularizer": null, "filters": 32, "bias_initializer": {"class_name": "Zeros", "config": {}}, "use_bias": false, "activity_regularizer": null, "kernel_size": [1, 1]}, "inbound_nodes": [[["block35_6_ac", 0, 0, {}]]], "name": "conv2d_659"}, {"class_name": "Conv2D", "config": {"kernel_constraint": null, "kernel_initializer": {"class_name": "VarianceScaling", "config": {"distribution": "uniform", "scale": 1.0, "seed": null, "mode": "fan_avg"}}, "name": "conv2d_662", "bias_regularizer": null, "bias_constraint": null, "activation": "linear", "trainable": false, "data_format": "channels_last", "padding": "same", "strides": [1, 1], "dilation_rate": [1, 1], "kernel_regularizer": null, "filters": 48, "bias_initializer": {"class_name": "Zeros", "config": {}}, "use_bias": false, "activity_regularizer": null, "kernel_size": [3, 3]}, "inbound_nodes": [[["activation_661", 0, 0, {}]]], "name": "conv2d_662"}, {"class_name": "BatchNormalization", "config": {"beta_constraint": null, "gamma_initializer": {"class_name": "Ones", "config": {}}, "moving_mean_initializer": {"class_name": "Zeros", "config": {}}, "name": "batch_normalization_659", "epsilon": 0.001, "trainable": false, "moving_variance_initializer": {"class_name": "Ones", "config": {}}, "beta_initializer": {"class_name": "Zeros", "config": {}}, "scale": false, "axis": 3, "gamma_constraint": null, "gamma_regularizer": null, "beta_regularizer": null, "momentum": 0.99, "center": true}, "inbound_nodes": [[["conv2d_659", 0, 0, {}]]], "name": "batch_normalization_659"}, {"class_name": "BatchNormalization", "config": {"beta_constraint": null, "gamma_initializer": {"class_name": "Ones", "config": {}}, "moving_mean_initializer": {"class_name": "Zeros", "config": {}}, "name": "batch_normalization_662", "epsilon": 0.001, "trainable": false, "moving_variance_initializer": {"class_name": "Ones", "config": {}}, "beta_initializer": {"class_name": "Zeros", "config": {}}, "scale": false, "axis": 3, "gamma_constraint": null, "gamma_regularizer": null, "beta_regularizer": null, "momentum": 0.99, "center": true}, "inbound_nodes": [[["conv2d_662", 0, 0, {}]]], "name": "batch_normalization_662"}, {"class_name": "Activation", "config": {"activation": "relu", "trainable": false, "name": "activation_659"}, "inbound_nodes": [[["batch_normalization_659", 0, 0, {}]]], "name": "activation_659"}, {"class_name": "Activation", "config": {"activation": "relu", "trainable": false, "name": "activation_662"}, "inbound_nodes": [[["batch_normalization_662", 0, 0, {}]]], "name": "activation_662"}, {"class_name": "Conv2D", "config": {"kernel_constraint": null, "kernel_initializer": {"class_name": "VarianceScaling", "config": {"distribution": "uniform", "scale": 1.0, "seed": null, "mode": "fan_avg"}}, "name": "conv2d_658", "bias_regularizer": null, "bias_constraint": null, "activation": "linear", "trainable": false, "data_format": "channels_last", "padding": "same", "strides": [1, 1], "dilation_rate": [1, 1], "kernel_regularizer": null, "filters": 32, "bias_initializer": {"class_name": "Zeros", "config": {}}, "use_bias": false, "activity_regularizer": null, "kernel_size": [1, 1]}, "inbound_nodes": [[["block35_6_ac", 0, 0, {}]]], "name": "conv2d_658"}, {"class_name": "Conv2D", "config": {"kernel_constraint": null, "kernel_initializer": {"class_name": "VarianceScaling", "config": {"distribution": "uniform", "scale": 1.0, "seed": null, "mode": "fan_avg"}}, "name": "conv2d_660", "bias_regularizer": null, "bias_constraint": null, "activation": "linear", "trainable": false, "data_format": "channels_last", "padding": "same", "strides": [1, 1], "dilation_rate": [1, 1], "kernel_regularizer": null, "filters": 32, "bias_initializer": {"class_name": "Zeros", "config": {}}, "use_bias": false, "activity_regularizer": null, "kernel_size": [3, 3]}, "inbound_nodes": [[["activation_659", 0, 0, {}]]], "name": "conv2d_660"}, {"class_name": "Conv2D", "config": {"kernel_constraint": null, "kernel_initializer": {"class_name": "VarianceScaling", "config": {"distribution": "uniform", "scale": 1.0, "seed": null, "mode": "fan_avg"}}, "name": "conv2d_663", "bias_regularizer": null, "bias_constraint": null, "activation": "linear", "trainable": false, "data_format": "channels_last", "padding": "same", "strides": [1, 1], "dilation_rate": [1, 1], "kernel_regularizer": null, "filters": 64, "bias_initializer": {"class_name": "Zeros", "config": {}}, "use_bias": false, "activity_regularizer": null, "kernel_size": [3, 3]}, "inbound_nodes": [[["activation_662", 0, 0, {}]]], "name": "conv2d_663"}, {"class_name": "BatchNormalization", "config": {"beta_constraint": null, "gamma_initializer": {"class_name": "Ones", "config": {}}, "moving_mean_initializer": {"class_name": "Zeros", "config": {}}, "name": "batch_normalization_658", "epsilon": 0.001, "trainable": false, "moving_variance_initializer": {"class_name": "Ones", "config": {}}, "beta_initializer": {"class_name": "Zeros", "config": {}}, "scale": false, "axis": 3, "gamma_constraint": null, "gamma_regularizer": null, "beta_regularizer": null, "momentum": 0.99, "center": true}, "inbound_nodes": [[["conv2d_658", 0, 0, {}]]], "name": "batch_normalization_658"}, {"class_name": "BatchNormalization", "config": {"beta_constraint": null, "gamma_initializer": {"class_name": "Ones", "config": {}}, "moving_mean_initializer": {"class_name": "Zeros", "config": {}}, "name": "batch_normalization_660", "epsilon": 0.001, "trainable": false, "moving_variance_initializer": {"class_name": "Ones", "config": {}}, "beta_initializer": {"class_name": "Zeros", "config": {}}, "scale": false, "axis": 3, "gamma_constraint": null, "gamma_regularizer": null, "beta_regularizer": null, "momentum": 0.99, "center": true}, "inbound_nodes": [[["conv2d_660", 0, 0, {}]]], "name": "batch_normalization_660"}, {"class_name": "BatchNormalization", "config": {"beta_constraint": null, "gamma_initializer": {"class_name": "Ones", "config": {}}, "moving_mean_initializer": {"class_name": "Zeros", "config": {}}, "name": "batch_normalization_663", "epsilon": 0.001, "trainable": false, "moving_variance_initializer": {"class_name": "Ones", "config": {}}, "beta_initializer": {"class_name": "Zeros", "config": {}}, "scale": false, "axis": 3, "gamma_constraint": null, "gamma_regularizer": null, "beta_regularizer": null, "momentum": 0.99, "center": true}, "inbound_nodes": [[["conv2d_663", 0, 0, {}]]], "name": "batch_normalization_663"}, {"class_name": "Activation", "config": {"activation": "relu", "trainable": false, "name": "activation_658"}, "inbound_nodes": [[["batch_normalization_658", 0, 0, {}]]], "name": "activation_658"}, {"class_name": "Activation", "config": {"activation": "relu", "trainable": false, "name": "activation_660"}, "inbound_nodes": [[["batch_normalization_660", 0, 0, {}]]], "name": "activation_660"}, {"class_name": "Activation", "config": {"activation": "relu", "trainable": false, "name": "activation_663"}, "inbound_nodes": [[["batch_normalization_663", 0, 0, {}]]], "name": "activation_663"}, {"class_name": "Concatenate", "config": {"trainable": false, "name": "block35_7_mixed", "axis": 3}, "inbound_nodes": [[["activation_658", 0, 0, {}], ["activation_660", 0, 0, {}], ["activation_663", 0, 0, {}]]], "name": "block35_7_mixed"}, {"class_name": "Conv2D", "config": {"kernel_constraint": null, "kernel_initializer": {"class_name": "VarianceScaling", "config": {"distribution": "uniform", "scale": 1.0, "seed": null, "mode": "fan_avg"}}, "name": "block35_7_conv", "bias_regularizer": null, "bias_constraint": null, "activation": "linear", "trainable": false, "data_format": "channels_last", "padding": "same", "strides": [1, 1], "dilation_rate": [1, 1], "kernel_regularizer": null, "filters": 320, "bias_initializer": {"class_name": "Zeros", "config": {}}, "use_bias": true, "activity_regularizer": null, "kernel_size": [1, 1]}, "inbound_nodes": [[["block35_7_mixed", 0, 0, {}]]], "name": "block35_7_conv"}, {"class_name": "Lambda", "config": {"function": ["YwIAAAACAAAAAwAAAFNgAQBzFAAAAHwAAGQBABl8AABkAgAZfAEAFBdTKAMAAABOaQAAAABpAQAA\nACgAAAAAKAIAAAB0BgAAAGlucHV0c3QFAAAAc2NhbGUoAAAAACgAAAAAc1AAAAAvdXNyL2xvY2Fs\nL2xpYi9weXRob24yLjcvZGlzdC1wYWNrYWdlcy9rZXJhc19hcHBsaWNhdGlvbnMvaW5jZXB0aW9u\nX3Jlc25ldF92Mi5weXQIAAAAPGxhbWJkYT6qAAAAdAAAAAA=\n", null, null], "name": "block35_7", "trainable": false, "function_type": "lambda", "arguments": {"scale": 0.17}, "output_shape": [15, 15, 320], "output_shape_type": "raw"}, "inbound_nodes": [[["block35_6_ac", 0, 0, {}], ["block35_7_conv", 0, 0, {}]]], "name": "block35_7"}, {"class_name": "Activation", "config": {"activation": "relu", "trainable": false, "name": "block35_7_ac"}, "inbound_nodes": [[["block35_7", 0, 0, {}]]], "name": "block35_7_ac"}, {"class_name": "Conv2D", "config": {"kernel_constraint": null, "kernel_initializer": {"class_name": "VarianceScaling", "config": {"distribution": "uniform", "scale": 1.0, "seed": null, "mode": "fan_avg"}}, "name": "conv2d_667", "bias_regularizer": null, "bias_constraint": null, "activation": "linear", "trainable": false, "data_format": "channels_last", "padding": "same", "strides": [1, 1], "dilation_rate": [1, 1], "kernel_regularizer": null, "filters": 32, "bias_initializer": {"class_name": "Zeros", "config": {}}, "use_bias": false, "activity_regularizer": null, "kernel_size": [1, 1]}, "inbound_nodes": [[["block35_7_ac", 0, 0, {}]]], "name": "conv2d_667"}, {"class_name": "BatchNormalization", "config": {"beta_constraint": null, "gamma_initializer": {"class_name": "Ones", "config": {}}, "moving_mean_initializer": {"class_name": "Zeros", "config": {}}, "name": "batch_normalization_667", "epsilon": 0.001, "trainable": false, "moving_variance_initializer": {"class_name": "Ones", "config": {}}, "beta_initializer": {"class_name": "Zeros", "config": {}}, "scale": false, "axis": 3, "gamma_constraint": null, "gamma_regularizer": null, "beta_regularizer": null, "momentum": 0.99, "center": true}, "inbound_nodes": [[["conv2d_667", 0, 0, {}]]], "name": "batch_normalization_667"}, {"class_name": "Activation", "config": {"activation": "relu", "trainable": false, "name": "activation_667"}, "inbound_nodes": [[["batch_normalization_667", 0, 0, {}]]], "name": "activation_667"}, {"class_name": "Conv2D", "config": {"kernel_constraint": null, "kernel_initializer": {"class_name": "VarianceScaling", "config": {"distribution": "uniform", "scale": 1.0, "seed": null, "mode": "fan_avg"}}, "name": "conv2d_665", "bias_regularizer": null, "bias_constraint": null, "activation": "linear", "trainable": false, "data_format": "channels_last", "padding": "same", "strides": [1, 1], "dilation_rate": [1, 1], "kernel_regularizer": null, "filters": 32, "bias_initializer": {"class_name": "Zeros", "config": {}}, "use_bias": false, "activity_regularizer": null, "kernel_size": [1, 1]}, "inbound_nodes": [[["block35_7_ac", 0, 0, {}]]], "name": "conv2d_665"}, {"class_name": "Conv2D", "config": {"kernel_constraint": null, "kernel_initializer": {"class_name": "VarianceScaling", "config": {"distribution": "uniform", "scale": 1.0, "seed": null, "mode": "fan_avg"}}, "name": "conv2d_668", "bias_regularizer": null, "bias_constraint": null, "activation": "linear", "trainable": false, "data_format": "channels_last", "padding": "same", "strides": [1, 1], "dilation_rate": [1, 1], "kernel_regularizer": null, "filters": 48, "bias_initializer": {"class_name": "Zeros", "config": {}}, "use_bias": false, "activity_regularizer": null, "kernel_size": [3, 3]}, "inbound_nodes": [[["activation_667", 0, 0, {}]]], "name": "conv2d_668"}, {"class_name": "BatchNormalization", "config": {"beta_constraint": null, "gamma_initializer": {"class_name": "Ones", "config": {}}, "moving_mean_initializer": {"class_name": "Zeros", "config": {}}, "name": "batch_normalization_665", "epsilon": 0.001, "trainable": false, "moving_variance_initializer": {"class_name": "Ones", "config": {}}, "beta_initializer": {"class_name": "Zeros", "config": {}}, "scale": false, "axis": 3, "gamma_constraint": null, "gamma_regularizer": null, "beta_regularizer": null, "momentum": 0.99, "center": true}, "inbound_nodes": [[["conv2d_665", 0, 0, {}]]], "name": "batch_normalization_665"}, {"class_name": "BatchNormalization", "config": {"beta_constraint": null, "gamma_initializer": {"class_name": "Ones", "config": {}}, "moving_mean_initializer": {"class_name": "Zeros", "config": {}}, "name": "batch_normalization_668", "epsilon": 0.001, "trainable": false, "moving_variance_initializer": {"class_name": "Ones", "config": {}}, "beta_initializer": {"class_name": "Zeros", "config": {}}, "scale": false, "axis": 3, "gamma_constraint": null, "gamma_regularizer": null, "beta_regularizer": null, "momentum": 0.99, "center": true}, "inbound_nodes": [[["conv2d_668", 0, 0, {}]]], "name": "batch_normalization_668"}, {"class_name": "Activation", "config": {"activation": "relu", "trainable": false, "name": "activation_665"}, "inbound_nodes": [[["batch_normalization_665", 0, 0, {}]]], "name": "activation_665"}, {"class_name": "Activation", "config": {"activation": "relu", "trainable": false, "name": "activation_668"}, "inbound_nodes": [[["batch_normalization_668", 0, 0, {}]]], "name": "activation_668"}, {"class_name": "Conv2D", "config": {"kernel_constraint": null, "kernel_initializer": {"class_name": "VarianceScaling", "config": {"distribution": "uniform", "scale": 1.0, "seed": null, "mode": "fan_avg"}}, "name": "conv2d_664", "bias_regularizer": null, "bias_constraint": null, "activation": "linear", "trainable": false, "data_format": "channels_last", "padding": "same", "strides": [1, 1], "dilation_rate": [1, 1], "kernel_regularizer": null, "filters": 32, "bias_initializer": {"class_name": "Zeros", "config": {}}, "use_bias": false, "activity_regularizer": null, "kernel_size": [1, 1]}, "inbound_nodes": [[["block35_7_ac", 0, 0, {}]]], "name": "conv2d_664"}, {"class_name": "Conv2D", "config": {"kernel_constraint": null, "kernel_initializer": {"class_name": "VarianceScaling", "config": {"distribution": "uniform", "scale": 1.0, "seed": null, "mode": "fan_avg"}}, "name": "conv2d_666", "bias_regularizer": null, "bias_constraint": null, "activation": "linear", "trainable": false, "data_format": "channels_last", "padding": "same", "strides": [1, 1], "dilation_rate": [1, 1], "kernel_regularizer": null, "filters": 32, "bias_initializer": {"class_name": "Zeros", "config": {}}, "use_bias": false, "activity_regularizer": null, "kernel_size": [3, 3]}, "inbound_nodes": [[["activation_665", 0, 0, {}]]], "name": "conv2d_666"}, {"class_name": "Conv2D", "config": {"kernel_constraint": null, "kernel_initializer": {"class_name": "VarianceScaling", "config": {"distribution": "uniform", "scale": 1.0, "seed": null, "mode": "fan_avg"}}, "name": "conv2d_669", "bias_regularizer": null, "bias_constraint": null, "activation": "linear", "trainable": false, "data_format": "channels_last", "padding": "same", "strides": [1, 1], "dilation_rate": [1, 1], "kernel_regularizer": null, "filters": 64, "bias_initializer": {"class_name": "Zeros", "config": {}}, "use_bias": false, "activity_regularizer": null, "kernel_size": [3, 3]}, "inbound_nodes": [[["activation_668", 0, 0, {}]]], "name": "conv2d_669"}, {"class_name": "BatchNormalization", "config": {"beta_constraint": null, "gamma_initializer": {"class_name": "Ones", "config": {}}, "moving_mean_initializer": {"class_name": "Zeros", "config": {}}, "name": "batch_normalization_664", "epsilon": 0.001, "trainable": false, "moving_variance_initializer": {"class_name": "Ones", "config": {}}, "beta_initializer": {"class_name": "Zeros", "config": {}}, "scale": false, "axis": 3, "gamma_constraint": null, "gamma_regularizer": null, "beta_regularizer": null, "momentum": 0.99, "center": true}, "inbound_nodes": [[["conv2d_664", 0, 0, {}]]], "name": "batch_normalization_664"}, {"class_name": "BatchNormalization", "config": {"beta_constraint": null, "gamma_initializer": {"class_name": "Ones", "config": {}}, "moving_mean_initializer": {"class_name": "Zeros", "config": {}}, "name": "batch_normalization_666", "epsilon": 0.001, "trainable": false, "moving_variance_initializer": {"class_name": "Ones", "config": {}}, "beta_initializer": {"class_name": "Zeros", "config": {}}, "scale": false, "axis": 3, "gamma_constraint": null, "gamma_regularizer": null, "beta_regularizer": null, "momentum": 0.99, "center": true}, "inbound_nodes": [[["conv2d_666", 0, 0, {}]]], "name": "batch_normalization_666"}, {"class_name": "BatchNormalization", "config": {"beta_constraint": null, "gamma_initializer": {"class_name": "Ones", "config": {}}, "moving_mean_initializer": {"class_name": "Zeros", "config": {}}, "name": "batch_normalization_669", "epsilon": 0.001, "trainable": false, "moving_variance_initializer": {"class_name": "Ones", "config": {}}, "beta_initializer": {"class_name": "Zeros", "config": {}}, "scale": false, "axis": 3, "gamma_constraint": null, "gamma_regularizer": null, "beta_regularizer": null, "momentum": 0.99, "center": true}, "inbound_nodes": [[["conv2d_669", 0, 0, {}]]], "name": "batch_normalization_669"}, {"class_name": "Activation", "config": {"activation": "relu", "trainable": false, "name": "activation_664"}, "inbound_nodes": [[["batch_normalization_664", 0, 0, {}]]], "name": "activation_664"}, {"class_name": "Activation", "config": {"activation": "relu", "trainable": false, "name": "activation_666"}, "inbound_nodes": [[["batch_normalization_666", 0, 0, {}]]], "name": "activation_666"}, {"class_name": "Activation", "config": {"activation": "relu", "trainable": false, "name": "activation_669"}, "inbound_nodes": [[["batch_normalization_669", 0, 0, {}]]], "name": "activation_669"}, {"class_name": "Concatenate", "config": {"trainable": false, "name": "block35_8_mixed", "axis": 3}, "inbound_nodes": [[["activation_664", 0, 0, {}], ["activation_666", 0, 0, {}], ["activation_669", 0, 0, {}]]], "name": "block35_8_mixed"}, {"class_name": "Conv2D", "config": {"kernel_constraint": null, "kernel_initializer": {"class_name": "VarianceScaling", "config": {"distribution": "uniform", "scale": 1.0, "seed": null, "mode": "fan_avg"}}, "name": "block35_8_conv", "bias_regularizer": null, "bias_constraint": null, "activation": "linear", "trainable": false, "data_format": "channels_last", "padding": "same", "strides": [1, 1], "dilation_rate": [1, 1], "kernel_regularizer": null, "filters": 320, "bias_initializer": {"class_name": "Zeros", "config": {}}, "use_bias": true, "activity_regularizer": null, "kernel_size": [1, 1]}, "inbound_nodes": [[["block35_8_mixed", 0, 0, {}]]], "name": "block35_8_conv"}, {"class_name": "Lambda", "config": {"function": ["YwIAAAACAAAAAwAAAFNgAQBzFAAAAHwAAGQBABl8AABkAgAZfAEAFBdTKAMAAABOaQAAAABpAQAA\nACgAAAAAKAIAAAB0BgAAAGlucHV0c3QFAAAAc2NhbGUoAAAAACgAAAAAc1AAAAAvdXNyL2xvY2Fs\nL2xpYi9weXRob24yLjcvZGlzdC1wYWNrYWdlcy9rZXJhc19hcHBsaWNhdGlvbnMvaW5jZXB0aW9u\nX3Jlc25ldF92Mi5weXQIAAAAPGxhbWJkYT6qAAAAdAAAAAA=\n", null, null], "name": "block35_8", "trainable": false, "function_type": "lambda", "arguments": {"scale": 0.17}, "output_shape": [15, 15, 320], "output_shape_type": "raw"}, "inbound_nodes": [[["block35_7_ac", 0, 0, {}], ["block35_8_conv", 0, 0, {}]]], "name": "block35_8"}, {"class_name": "Activation", "config": {"activation": "relu", "trainable": false, "name": "block35_8_ac"}, "inbound_nodes": [[["block35_8", 0, 0, {}]]], "name": "block35_8_ac"}, {"class_name": "Conv2D", "config": {"kernel_constraint": null, "kernel_initializer": {"class_name": "VarianceScaling", "config": {"distribution": "uniform", "scale": 1.0, "seed": null, "mode": "fan_avg"}}, "name": "conv2d_673", "bias_regularizer": null, "bias_constraint": null, "activation": "linear", "trainable": false, "data_format": "channels_last", "padding": "same", "strides": [1, 1], "dilation_rate": [1, 1], "kernel_regularizer": null, "filters": 32, "bias_initializer": {"class_name": "Zeros", "config": {}}, "use_bias": false, "activity_regularizer": null, "kernel_size": [1, 1]}, "inbound_nodes": [[["block35_8_ac", 0, 0, {}]]], "name": "conv2d_673"}, {"class_name": "BatchNormalization", "config": {"beta_constraint": null, "gamma_initializer": {"class_name": "Ones", "config": {}}, "moving_mean_initializer": {"class_name": "Zeros", "config": {}}, "name": "batch_normalization_673", "epsilon": 0.001, "trainable": false, "moving_variance_initializer": {"class_name": "Ones", "config": {}}, "beta_initializer": {"class_name": "Zeros", "config": {}}, "scale": false, "axis": 3, "gamma_constraint": null, "gamma_regularizer": null, "beta_regularizer": null, "momentum": 0.99, "center": true}, "inbound_nodes": [[["conv2d_673", 0, 0, {}]]], "name": "batch_normalization_673"}, {"class_name": "Activation", "config": {"activation": "relu", "trainable": false, "name": "activation_673"}, "inbound_nodes": [[["batch_normalization_673", 0, 0, {}]]], "name": "activation_673"}, {"class_name": "Conv2D", "config": {"kernel_constraint": null, "kernel_initializer": {"class_name": "VarianceScaling", "config": {"distribution": "uniform", "scale": 1.0, "seed": null, "mode": "fan_avg"}}, "name": "conv2d_671", "bias_regularizer": null, "bias_constraint": null, "activation": "linear", "trainable": false, "data_format": "channels_last", "padding": "same", "strides": [1, 1], "dilation_rate": [1, 1], "kernel_regularizer": null, "filters": 32, "bias_initializer": {"class_name": "Zeros", "config": {}}, "use_bias": false, "activity_regularizer": null, "kernel_size": [1, 1]}, "inbound_nodes": [[["block35_8_ac", 0, 0, {}]]], "name": "conv2d_671"}, {"class_name": "Conv2D", "config": {"kernel_constraint": null, "kernel_initializer": {"class_name": "VarianceScaling", "config": {"distribution": "uniform", "scale": 1.0, "seed": null, "mode": "fan_avg"}}, "name": "conv2d_674", "bias_regularizer": null, "bias_constraint": null, "activation": "linear", "trainable": false, "data_format": "channels_last", "padding": "same", "strides": [1, 1], "dilation_rate": [1, 1], "kernel_regularizer": null, "filters": 48, "bias_initializer": {"class_name": "Zeros", "config": {}}, "use_bias": false, "activity_regularizer": null, "kernel_size": [3, 3]}, "inbound_nodes": [[["activation_673", 0, 0, {}]]], "name": "conv2d_674"}, {"class_name": "BatchNormalization", "config": {"beta_constraint": null, "gamma_initializer": {"class_name": "Ones", "config": {}}, "moving_mean_initializer": {"class_name": "Zeros", "config": {}}, "name": "batch_normalization_671", "epsilon": 0.001, "trainable": false, "moving_variance_initializer": {"class_name": "Ones", "config": {}}, "beta_initializer": {"class_name": "Zeros", "config": {}}, "scale": false, "axis": 3, "gamma_constraint": null, "gamma_regularizer": null, "beta_regularizer": null, "momentum": 0.99, "center": true}, "inbound_nodes": [[["conv2d_671", 0, 0, {}]]], "name": "batch_normalization_671"}, {"class_name": "BatchNormalization", "config": {"beta_constraint": null, "gamma_initializer": {"class_name": "Ones", "config": {}}, "moving_mean_initializer": {"class_name": "Zeros", "config": {}}, "name": "batch_normalization_674", "epsilon": 0.001, "trainable": false, "moving_variance_initializer": {"class_name": "Ones", "config": {}}, "beta_initializer": {"class_name": "Zeros", "config": {}}, "scale": false, "axis": 3, "gamma_constraint": null, "gamma_regularizer": null, "beta_regularizer": null, "momentum": 0.99, "center": true}, "inbound_nodes": [[["conv2d_674", 0, 0, {}]]], "name": "batch_normalization_674"}, {"class_name": "Activation", "config": {"activation": "relu", "trainable": false, "name": "activation_671"}, "inbound_nodes": [[["batch_normalization_671", 0, 0, {}]]], "name": "activation_671"}, {"class_name": "Activation", "config": {"activation": "relu", "trainable": false, "name": "activation_674"}, "inbound_nodes": [[["batch_normalization_674", 0, 0, {}]]], "name": "activation_674"}, {"class_name": "Conv2D", "config": {"kernel_constraint": null, "kernel_initializer": {"class_name": "VarianceScaling", "config": {"distribution": "uniform", "scale": 1.0, "seed": null, "mode": "fan_avg"}}, "name": "conv2d_670", "bias_regularizer": null, "bias_constraint": null, "activation": "linear", "trainable": false, "data_format": "channels_last", "padding": "same", "strides": [1, 1], "dilation_rate": [1, 1], "kernel_regularizer": null, "filters": 32, "bias_initializer": {"class_name": "Zeros", "config": {}}, "use_bias": false, "activity_regularizer": null, "kernel_size": [1, 1]}, "inbound_nodes": [[["block35_8_ac", 0, 0, {}]]], "name": "conv2d_670"}, {"class_name": "Conv2D", "config": {"kernel_constraint": null, "kernel_initializer": {"class_name": "VarianceScaling", "config": {"distribution": "uniform", "scale": 1.0, "seed": null, "mode": "fan_avg"}}, "name": "conv2d_672", "bias_regularizer": null, "bias_constraint": null, "activation": "linear", "trainable": false, "data_format": "channels_last", "padding": "same", "strides": [1, 1], "dilation_rate": [1, 1], "kernel_regularizer": null, "filters": 32, "bias_initializer": {"class_name": "Zeros", "config": {}}, "use_bias": false, "activity_regularizer": null, "kernel_size": [3, 3]}, "inbound_nodes": [[["activation_671", 0, 0, {}]]], "name": "conv2d_672"}, {"class_name": "Conv2D", "config": {"kernel_constraint": null, "kernel_initializer": {"class_name": "VarianceScaling", "config": {"distribution": "uniform", "scale": 1.0, "seed": null, "mode": "fan_avg"}}, "name": "conv2d_675", "bias_regularizer": null, "bias_constraint": null, "activation": "linear", "trainable": false, "data_format": "channels_last", "padding": "same", "strides": [1, 1], "dilation_rate": [1, 1], "kernel_regularizer": null, "filters": 64, "bias_initializer": {"class_name": "Zeros", "config": {}}, "use_bias": false, "activity_regularizer": null, "kernel_size": [3, 3]}, "inbound_nodes": [[["activation_674", 0, 0, {}]]], "name": "conv2d_675"}, {"class_name": "BatchNormalization", "config": {"beta_constraint": null, "gamma_initializer": {"class_name": "Ones", "config": {}}, "moving_mean_initializer": {"class_name": "Zeros", "config": {}}, "name": "batch_normalization_670", "epsilon": 0.001, "trainable": false, "moving_variance_initializer": {"class_name": "Ones", "config": {}}, "beta_initializer": {"class_name": "Zeros", "config": {}}, "scale": false, "axis": 3, "gamma_constraint": null, "gamma_regularizer": null, "beta_regularizer": null, "momentum": 0.99, "center": true}, "inbound_nodes": [[["conv2d_670", 0, 0, {}]]], "name": "batch_normalization_670"}, {"class_name": "BatchNormalization", "config": {"beta_constraint": null, "gamma_initializer": {"class_name": "Ones", "config": {}}, "moving_mean_initializer": {"class_name": "Zeros", "config": {}}, "name": "batch_normalization_672", "epsilon": 0.001, "trainable": false, "moving_variance_initializer": {"class_name": "Ones", "config": {}}, "beta_initializer": {"class_name": "Zeros", "config": {}}, "scale": false, "axis": 3, "gamma_constraint": null, "gamma_regularizer": null, "beta_regularizer": null, "momentum": 0.99, "center": true}, "inbound_nodes": [[["conv2d_672", 0, 0, {}]]], "name": "batch_normalization_672"}, {"class_name": "BatchNormalization", "config": {"beta_constraint": null, "gamma_initializer": {"class_name": "Ones", "config": {}}, "moving_mean_initializer": {"class_name": "Zeros", "config": {}}, "name": "batch_normalization_675", "epsilon": 0.001, "trainable": false, "moving_variance_initializer": {"class_name": "Ones", "config": {}}, "beta_initializer": {"class_name": "Zeros", "config": {}}, "scale": false, "axis": 3, "gamma_constraint": null, "gamma_regularizer": null, "beta_regularizer": null, "momentum": 0.99, "center": true}, "inbound_nodes": [[["conv2d_675", 0, 0, {}]]], "name": "batch_normalization_675"}, {"class_name": "Activation", "config": {"activation": "relu", "trainable": false, "name": "activation_670"}, "inbound_nodes": [[["batch_normalization_670", 0, 0, {}]]], "name": "activation_670"}, {"class_name": "Activation", "config": {"activation": "relu", "trainable": false, "name": "activation_672"}, "inbound_nodes": [[["batch_normalization_672", 0, 0, {}]]], "name": "activation_672"}, {"class_name": "Activation", "config": {"activation": "relu", "trainable": false, "name": "activation_675"}, "inbound_nodes": [[["batch_normalization_675", 0, 0, {}]]], "name": "activation_675"}, {"class_name": "Concatenate", "config": {"trainable": false, "name": "block35_9_mixed", "axis": 3}, "inbound_nodes": [[["activation_670", 0, 0, {}], ["activation_672", 0, 0, {}], ["activation_675", 0, 0, {}]]], "name": "block35_9_mixed"}, {"class_name": "Conv2D", "config": {"kernel_constraint": null, "kernel_initializer": {"class_name": "VarianceScaling", "config": {"distribution": "uniform", "scale": 1.0, "seed": null, "mode": "fan_avg"}}, "name": "block35_9_conv", "bias_regularizer": null, "bias_constraint": null, "activation": "linear", "trainable": false, "data_format": "channels_last", "padding": "same", "strides": [1, 1], "dilation_rate": [1, 1], "kernel_regularizer": null, "filters": 320, "bias_initializer": {"class_name": "Zeros", "config": {}}, "use_bias": true, "activity_regularizer": null, "kernel_size": [1, 1]}, "inbound_nodes": [[["block35_9_mixed", 0, 0, {}]]], "name": "block35_9_conv"}, {"class_name": "Lambda", "config": {"function": ["YwIAAAACAAAAAwAAAFNgAQBzFAAAAHwAAGQBABl8AABkAgAZfAEAFBdTKAMAAABOaQAAAABpAQAA\nACgAAAAAKAIAAAB0BgAAAGlucHV0c3QFAAAAc2NhbGUoAAAAACgAAAAAc1AAAAAvdXNyL2xvY2Fs\nL2xpYi9weXRob24yLjcvZGlzdC1wYWNrYWdlcy9rZXJhc19hcHBsaWNhdGlvbnMvaW5jZXB0aW9u\nX3Jlc25ldF92Mi5weXQIAAAAPGxhbWJkYT6qAAAAdAAAAAA=\n", null, null], "name": "block35_9", "trainable": false, "function_type": "lambda", "arguments": {"scale": 0.17}, "output_shape": [15, 15, 320], "output_shape_type": "raw"}, "inbound_nodes": [[["block35_8_ac", 0, 0, {}], ["block35_9_conv", 0, 0, {}]]], "name": "block35_9"}, {"class_name": "Activation", "config": {"activation": "relu", "trainable": false, "name": "block35_9_ac"}, "inbound_nodes": [[["block35_9", 0, 0, {}]]], "name": "block35_9_ac"}, {"class_name": "Conv2D", "config": {"kernel_constraint": null, "kernel_initializer": {"class_name": "VarianceScaling", "config": {"distribution": "uniform", "scale": 1.0, "seed": null, "mode": "fan_avg"}}, "name": "conv2d_679", "bias_regularizer": null, "bias_constraint": null, "activation": "linear", "trainable": false, "data_format": "channels_last", "padding": "same", "strides": [1, 1], "dilation_rate": [1, 1], "kernel_regularizer": null, "filters": 32, "bias_initializer": {"class_name": "Zeros", "config": {}}, "use_bias": false, "activity_regularizer": null, "kernel_size": [1, 1]}, "inbound_nodes": [[["block35_9_ac", 0, 0, {}]]], "name": "conv2d_679"}, {"class_name": "BatchNormalization", "config": {"beta_constraint": null, "gamma_initializer": {"class_name": "Ones", "config": {}}, "moving_mean_initializer": {"class_name": "Zeros", "config": {}}, "name": "batch_normalization_679", "epsilon": 0.001, "trainable": false, "moving_variance_initializer": {"class_name": "Ones", "config": {}}, "beta_initializer": {"class_name": "Zeros", "config": {}}, "scale": false, "axis": 3, "gamma_constraint": null, "gamma_regularizer": null, "beta_regularizer": null, "momentum": 0.99, "center": true}, "inbound_nodes": [[["conv2d_679", 0, 0, {}]]], "name": "batch_normalization_679"}, {"class_name": "Activation", "config": {"activation": "relu", "trainable": false, "name": "activation_679"}, "inbound_nodes": [[["batch_normalization_679", 0, 0, {}]]], "name": "activation_679"}, {"class_name": "Conv2D", "config": {"kernel_constraint": null, "kernel_initializer": {"class_name": "VarianceScaling", "config": {"distribution": "uniform", "scale": 1.0, "seed": null, "mode": "fan_avg"}}, "name": "conv2d_677", "bias_regularizer": null, "bias_constraint": null, "activation": "linear", "trainable": false, "data_format": "channels_last", "padding": "same", "strides": [1, 1], "dilation_rate": [1, 1], "kernel_regularizer": null, "filters": 32, "bias_initializer": {"class_name": "Zeros", "config": {}}, "use_bias": false, "activity_regularizer": null, "kernel_size": [1, 1]}, "inbound_nodes": [[["block35_9_ac", 0, 0, {}]]], "name": "conv2d_677"}, {"class_name": "Conv2D", "config": {"kernel_constraint": null, "kernel_initializer": {"class_name": "VarianceScaling", "config": {"distribution": "uniform", "scale": 1.0, "seed": null, "mode": "fan_avg"}}, "name": "conv2d_680", "bias_regularizer": null, "bias_constraint": null, "activation": "linear", "trainable": false, "data_format": "channels_last", "padding": "same", "strides": [1, 1], "dilation_rate": [1, 1], "kernel_regularizer": null, "filters": 48, "bias_initializer": {"class_name": "Zeros", "config": {}}, "use_bias": false, "activity_regularizer": null, "kernel_size": [3, 3]}, "inbound_nodes": [[["activation_679", 0, 0, {}]]], "name": "conv2d_680"}, {"class_name": "BatchNormalization", "config": {"beta_constraint": null, "gamma_initializer": {"class_name": "Ones", "config": {}}, "moving_mean_initializer": {"class_name": "Zeros", "config": {}}, "name": "batch_normalization_677", "epsilon": 0.001, "trainable": false, "moving_variance_initializer": {"class_name": "Ones", "config": {}}, "beta_initializer": {"class_name": "Zeros", "config": {}}, "scale": false, "axis": 3, "gamma_constraint": null, "gamma_regularizer": null, "beta_regularizer": null, "momentum": 0.99, "center": true}, "inbound_nodes": [[["conv2d_677", 0, 0, {}]]], "name": "batch_normalization_677"}, {"class_name": "BatchNormalization", "config": {"beta_constraint": null, "gamma_initializer": {"class_name": "Ones", "config": {}}, "moving_mean_initializer": {"class_name": "Zeros", "config": {}}, "name": "batch_normalization_680", "epsilon": 0.001, "trainable": false, "moving_variance_initializer": {"class_name": "Ones", "config": {}}, "beta_initializer": {"class_name": "Zeros", "config": {}}, "scale": false, "axis": 3, "gamma_constraint": null, "gamma_regularizer": null, "beta_regularizer": null, "momentum": 0.99, "center": true}, "inbound_nodes": [[["conv2d_680", 0, 0, {}]]], "name": "batch_normalization_680"}, {"class_name": "Activation", "config": {"activation": "relu", "trainable": false, "name": "activation_677"}, "inbound_nodes": [[["batch_normalization_677", 0, 0, {}]]], "name": "activation_677"}, {"class_name": "Activation", "config": {"activation": "relu", "trainable": false, "name": "activation_680"}, "inbound_nodes": [[["batch_normalization_680", 0, 0, {}]]], "name": "activation_680"}, {"class_name": "Conv2D", "config": {"kernel_constraint": null, "kernel_initializer": {"class_name": "VarianceScaling", "config": {"distribution": "uniform", "scale": 1.0, "seed": null, "mode": "fan_avg"}}, "name": "conv2d_676", "bias_regularizer": null, "bias_constraint": null, "activation": "linear", "trainable": false, "data_format": "channels_last", "padding": "same", "strides": [1, 1], "dilation_rate": [1, 1], "kernel_regularizer": null, "filters": 32, "bias_initializer": {"class_name": "Zeros", "config": {}}, "use_bias": false, "activity_regularizer": null, "kernel_size": [1, 1]}, "inbound_nodes": [[["block35_9_ac", 0, 0, {}]]], "name": "conv2d_676"}, {"class_name": "Conv2D", "config": {"kernel_constraint": null, "kernel_initializer": {"class_name": "VarianceScaling", "config": {"distribution": "uniform", "scale": 1.0, "seed": null, "mode": "fan_avg"}}, "name": "conv2d_678", "bias_regularizer": null, "bias_constraint": null, "activation": "linear", "trainable": false, "data_format": "channels_last", "padding": "same", "strides": [1, 1], "dilation_rate": [1, 1], "kernel_regularizer": null, "filters": 32, "bias_initializer": {"class_name": "Zeros", "config": {}}, "use_bias": false, "activity_regularizer": null, "kernel_size": [3, 3]}, "inbound_nodes": [[["activation_677", 0, 0, {}]]], "name": "conv2d_678"}, {"class_name": "Conv2D", "config": {"kernel_constraint": null, "kernel_initializer": {"class_name": "VarianceScaling", "config": {"distribution": "uniform", "scale": 1.0, "seed": null, "mode": "fan_avg"}}, "name": "conv2d_681", "bias_regularizer": null, "bias_constraint": null, "activation": "linear", "trainable": false, "data_format": "channels_last", "padding": "same", "strides": [1, 1], "dilation_rate": [1, 1], "kernel_regularizer": null, "filters": 64, "bias_initializer": {"class_name": "Zeros", "config": {}}, "use_bias": false, "activity_regularizer": null, "kernel_size": [3, 3]}, "inbound_nodes": [[["activation_680", 0, 0, {}]]], "name": "conv2d_681"}, {"class_name": "BatchNormalization", "config": {"beta_constraint": null, "gamma_initializer": {"class_name": "Ones", "config": {}}, "moving_mean_initializer": {"class_name": "Zeros", "config": {}}, "name": "batch_normalization_676", "epsilon": 0.001, "trainable": false, "moving_variance_initializer": {"class_name": "Ones", "config": {}}, "beta_initializer": {"class_name": "Zeros", "config": {}}, "scale": false, "axis": 3, "gamma_constraint": null, "gamma_regularizer": null, "beta_regularizer": null, "momentum": 0.99, "center": true}, "inbound_nodes": [[["conv2d_676", 0, 0, {}]]], "name": "batch_normalization_676"}, {"class_name": "BatchNormalization", "config": {"beta_constraint": null, "gamma_initializer": {"class_name": "Ones", "config": {}}, "moving_mean_initializer": {"class_name": "Zeros", "config": {}}, "name": "batch_normalization_678", "epsilon": 0.001, "trainable": false, "moving_variance_initializer": {"class_name": "Ones", "config": {}}, "beta_initializer": {"class_name": "Zeros", "config": {}}, "scale": false, "axis": 3, "gamma_constraint": null, "gamma_regularizer": null, "beta_regularizer": null, "momentum": 0.99, "center": true}, "inbound_nodes": [[["conv2d_678", 0, 0, {}]]], "name": "batch_normalization_678"}, {"class_name": "BatchNormalization", "config": {"beta_constraint": null, "gamma_initializer": {"class_name": "Ones", "config": {}}, "moving_mean_initializer": {"class_name": "Zeros", "config": {}}, "name": "batch_normalization_681", "epsilon": 0.001, "trainable": false, "moving_variance_initializer": {"class_name": "Ones", "config": {}}, "beta_initializer": {"class_name": "Zeros", "config": {}}, "scale": false, "axis": 3, "gamma_constraint": null, "gamma_regularizer": null, "beta_regularizer": null, "momentum": 0.99, "center": true}, "inbound_nodes": [[["conv2d_681", 0, 0, {}]]], "name": "batch_normalization_681"}, {"class_name": "Activation", "config": {"activation": "relu", "trainable": false, "name": "activation_676"}, "inbound_nodes": [[["batch_normalization_676", 0, 0, {}]]], "name": "activation_676"}, {"class_name": "Activation", "config": {"activation": "relu", "trainable": false, "name": "activation_678"}, "inbound_nodes": [[["batch_normalization_678", 0, 0, {}]]], "name": "activation_678"}, {"class_name": "Activation", "config": {"activation": "relu", "trainable": false, "name": "activation_681"}, "inbound_nodes": [[["batch_normalization_681", 0, 0, {}]]], "name": "activation_681"}, {"class_name": "Concatenate", "config": {"trainable": false, "name": "block35_10_mixed", "axis": 3}, "inbound_nodes": [[["activation_676", 0, 0, {}], ["activation_678", 0, 0, {}], ["activation_681", 0, 0, {}]]], "name": "block35_10_mixed"}, {"class_name": "Conv2D", "config": {"kernel_constraint": null, "kernel_initializer": {"class_name": "VarianceScaling", "config": {"distribution": "uniform", "scale": 1.0, "seed": null, "mode": "fan_avg"}}, "name": "block35_10_conv", "bias_regularizer": null, "bias_constraint": null, "activation": "linear", "trainable": false, "data_format": "channels_last", "padding": "same", "strides": [1, 1], "dilation_rate": [1, 1], "kernel_regularizer": null, "filters": 320, "bias_initializer": {"class_name": "Zeros", "config": {}}, "use_bias": true, "activity_regularizer": null, "kernel_size": [1, 1]}, "inbound_nodes": [[["block35_10_mixed", 0, 0, {}]]], "name": "block35_10_conv"}, {"class_name": "Lambda", "config": {"function": ["YwIAAAACAAAAAwAAAFNgAQBzFAAAAHwAAGQBABl8AABkAgAZfAEAFBdTKAMAAABOaQAAAABpAQAA\nACgAAAAAKAIAAAB0BgAAAGlucHV0c3QFAAAAc2NhbGUoAAAAACgAAAAAc1AAAAAvdXNyL2xvY2Fs\nL2xpYi9weXRob24yLjcvZGlzdC1wYWNrYWdlcy9rZXJhc19hcHBsaWNhdGlvbnMvaW5jZXB0aW9u\nX3Jlc25ldF92Mi5weXQIAAAAPGxhbWJkYT6qAAAAdAAAAAA=\n", null, null], "name": "block35_10", "trainable": false, "function_type": "lambda", "arguments": {"scale": 0.17}, "output_shape": [15, 15, 320], "output_shape_type": "raw"}, "inbound_nodes": [[["block35_9_ac", 0, 0, {}], ["block35_10_conv", 0, 0, {}]]], "name": "block35_10"}, {"class_name": "Activation", "config": {"activation": "relu", "trainable": false, "name": "block35_10_ac"}, "inbound_nodes": [[["block35_10", 0, 0, {}]]], "name": "block35_10_ac"}, {"class_name": "Conv2D", "config": {"kernel_constraint": null, "kernel_initializer": {"class_name": "VarianceScaling", "config": {"distribution": "uniform", "scale": 1.0, "seed": null, "mode": "fan_avg"}}, "name": "conv2d_683", "bias_regularizer": null, "bias_constraint": null, "activation": "linear", "trainable": false, "data_format": "channels_last", "padding": "same", "strides": [1, 1], "dilation_rate": [1, 1], "kernel_regularizer": null, "filters": 256, "bias_initializer": {"class_name": "Zeros", "config": {}}, "use_bias": false, "activity_regularizer": null, "kernel_size": [1, 1]}, "inbound_nodes": [[["block35_10_ac", 0, 0, {}]]], "name": "conv2d_683"}, {"class_name": "BatchNormalization", "config": {"beta_constraint": null, "gamma_initializer": {"class_name": "Ones", "config": {}}, "moving_mean_initializer": {"class_name": "Zeros", "config": {}}, "name": "batch_normalization_683", "epsilon": 0.001, "trainable": false, "moving_variance_initializer": {"class_name": "Ones", "config": {}}, "beta_initializer": {"class_name": "Zeros", "config": {}}, "scale": false, "axis": 3, "gamma_constraint": null, "gamma_regularizer": null, "beta_regularizer": null, "momentum": 0.99, "center": true}, "inbound_nodes": [[["conv2d_683", 0, 0, {}]]], "name": "batch_normalization_683"}, {"class_name": "Activation", "config": {"activation": "relu", "trainable": false, "name": "activation_683"}, "inbound_nodes": [[["batch_normalization_683", 0, 0, {}]]], "name": "activation_683"}, {"class_name": "Conv2D", "config": {"kernel_constraint": null, "kernel_initializer": {"class_name": "VarianceScaling", "config": {"distribution": "uniform", "scale": 1.0, "seed": null, "mode": "fan_avg"}}, "name": "conv2d_684", "bias_regularizer": null, "bias_constraint": null, "activation": "linear", "trainable": false, "data_format": "channels_last", "padding": "same", "strides": [1, 1], "dilation_rate": [1, 1], "kernel_regularizer": null, "filters": 256, "bias_initializer": {"class_name": "Zeros", "config": {}}, "use_bias": false, "activity_regularizer": null, "kernel_size": [3, 3]}, "inbound_nodes": [[["activation_683", 0, 0, {}]]], "name": "conv2d_684"}, {"class_name": "BatchNormalization", "config": {"beta_constraint": null, "gamma_initializer": {"class_name": "Ones", "config": {}}, "moving_mean_initializer": {"class_name": "Zeros", "config": {}}, "name": "batch_normalization_684", "epsilon": 0.001, "trainable": false, "moving_variance_initializer": {"class_name": "Ones", "config": {}}, "beta_initializer": {"class_name": "Zeros", "config": {}}, "scale": false, "axis": 3, "gamma_constraint": null, "gamma_regularizer": null, "beta_regularizer": null, "momentum": 0.99, "center": true}, "inbound_nodes": [[["conv2d_684", 0, 0, {}]]], "name": "batch_normalization_684"}, {"class_name": "Activation", "config": {"activation": "relu", "trainable": false, "name": "activation_684"}, "inbound_nodes": [[["batch_normalization_684", 0, 0, {}]]], "name": "activation_684"}, {"class_name": "Conv2D", "config": {"kernel_constraint": null, "kernel_initializer": {"class_name": "VarianceScaling", "config": {"distribution": "uniform", "scale": 1.0, "seed": null, "mode": "fan_avg"}}, "name": "conv2d_682", "bias_regularizer": null, "bias_constraint": null, "activation": "linear", "trainable": false, "data_format": "channels_last", "padding": "valid", "strides": [2, 2], "dilation_rate": [1, 1], "kernel_regularizer": null, "filters": 384, "bias_initializer": {"class_name": "Zeros", "config": {}}, "use_bias": false, "activity_regularizer": null, "kernel_size": [3, 3]}, "inbound_nodes": [[["block35_10_ac", 0, 0, {}]]], "name": "conv2d_682"}, {"class_name": "Conv2D", "config": {"kernel_constraint": null, "kernel_initializer": {"class_name": "VarianceScaling", "config": {"distribution": "uniform", "scale": 1.0, "seed": null, "mode": "fan_avg"}}, "name": "conv2d_685", "bias_regularizer": null, "bias_constraint": null, "activation": "linear", "trainable": false, "data_format": "channels_last", "padding": "valid", "strides": [2, 2], "dilation_rate": [1, 1], "kernel_regularizer": null, "filters": 384, "bias_initializer": {"class_name": "Zeros", "config": {}}, "use_bias": false, "activity_regularizer": null, "kernel_size": [3, 3]}, "inbound_nodes": [[["activation_684", 0, 0, {}]]], "name": "conv2d_685"}, {"class_name": "BatchNormalization", "config": {"beta_constraint": null, "gamma_initializer": {"class_name": "Ones", "config": {}}, "moving_mean_initializer": {"class_name": "Zeros", "config": {}}, "name": "batch_normalization_682", "epsilon": 0.001, "trainable": false, "moving_variance_initializer": {"class_name": "Ones", "config": {}}, "beta_initializer": {"class_name": "Zeros", "config": {}}, "scale": false, "axis": 3, "gamma_constraint": null, "gamma_regularizer": null, "beta_regularizer": null, "momentum": 0.99, "center": true}, "inbound_nodes": [[["conv2d_682", 0, 0, {}]]], "name": "batch_normalization_682"}, {"class_name": "BatchNormalization", "config": {"beta_constraint": null, "gamma_initializer": {"class_name": "Ones", "config": {}}, "moving_mean_initializer": {"class_name": "Zeros", "config": {}}, "name": "batch_normalization_685", "epsilon": 0.001, "trainable": false, "moving_variance_initializer": {"class_name": "Ones", "config": {}}, "beta_initializer": {"class_name": "Zeros", "config": {}}, "scale": false, "axis": 3, "gamma_constraint": null, "gamma_regularizer": null, "beta_regularizer": null, "momentum": 0.99, "center": true}, "inbound_nodes": [[["conv2d_685", 0, 0, {}]]], "name": "batch_normalization_685"}, {"class_name": "Activation", "config": {"activation": "relu", "trainable": false, "name": "activation_682"}, "inbound_nodes": [[["batch_normalization_682", 0, 0, {}]]], "name": "activation_682"}, {"class_name": "Activation", "config": {"activation": "relu", "trainable": false, "name": "activation_685"}, "inbound_nodes": [[["batch_normalization_685", 0, 0, {}]]], "name": "activation_685"}, {"class_name": "MaxPooling2D", "config": {"name": "max_pooling2d_15", "trainable": false, "data_format": "channels_last", "pool_size": [3, 3], "padding": "valid", "strides": [2, 2]}, "inbound_nodes": [[["block35_10_ac", 0, 0, {}]]], "name": "max_pooling2d_15"}, {"class_name": "Concatenate", "config": {"trainable": false, "name": "mixed_6a", "axis": 3}, "inbound_nodes": [[["activation_682", 0, 0, {}], ["activation_685", 0, 0, {}], ["max_pooling2d_15", 0, 0, {}]]], "name": "mixed_6a"}, {"class_name": "Conv2D", "config": {"kernel_constraint": null, "kernel_initializer": {"class_name": "VarianceScaling", "config": {"distribution": "uniform", "scale": 1.0, "seed": null, "mode": "fan_avg"}}, "name": "conv2d_687", "bias_regularizer": null, "bias_constraint": null, "activation": "linear", "trainable": false, "data_format": "channels_last", "padding": "same", "strides": [1, 1], "dilation_rate": [1, 1], "kernel_regularizer": null, "filters": 128, "bias_initializer": {"class_name": "Zeros", "config": {}}, "use_bias": false, "activity_regularizer": null, "kernel_size": [1, 1]}, "inbound_nodes": [[["mixed_6a", 0, 0, {}]]], "name": "conv2d_687"}, {"class_name": "BatchNormalization", "config": {"beta_constraint": null, "gamma_initializer": {"class_name": "Ones", "config": {}}, "moving_mean_initializer": {"class_name": "Zeros", "config": {}}, "name": "batch_normalization_687", "epsilon": 0.001, "trainable": false, "moving_variance_initializer": {"class_name": "Ones", "config": {}}, "beta_initializer": {"class_name": "Zeros", "config": {}}, "scale": false, "axis": 3, "gamma_constraint": null, "gamma_regularizer": null, "beta_regularizer": null, "momentum": 0.99, "center": true}, "inbound_nodes": [[["conv2d_687", 0, 0, {}]]], "name": "batch_normalization_687"}, {"class_name": "Activation", "config": {"activation": "relu", "trainable": false, "name": "activation_687"}, "inbound_nodes": [[["batch_normalization_687", 0, 0, {}]]], "name": "activation_687"}, {"class_name": "Conv2D", "config": {"kernel_constraint": null, "kernel_initializer": {"class_name": "VarianceScaling", "config": {"distribution": "uniform", "scale": 1.0, "seed": null, "mode": "fan_avg"}}, "name": "conv2d_688", "bias_regularizer": null, "bias_constraint": null, "activation": "linear", "trainable": false, "data_format": "channels_last", "padding": "same", "strides": [1, 1], "dilation_rate": [1, 1], "kernel_regularizer": null, "filters": 160, "bias_initializer": {"class_name": "Zeros", "config": {}}, "use_bias": false, "activity_regularizer": null, "kernel_size": [1, 7]}, "inbound_nodes": [[["activation_687", 0, 0, {}]]], "name": "conv2d_688"}, {"class_name": "BatchNormalization", "config": {"beta_constraint": null, "gamma_initializer": {"class_name": "Ones", "config": {}}, "moving_mean_initializer": {"class_name": "Zeros", "config": {}}, "name": "batch_normalization_688", "epsilon": 0.001, "trainable": false, "moving_variance_initializer": {"class_name": "Ones", "config": {}}, "beta_initializer": {"class_name": "Zeros", "config": {}}, "scale": false, "axis": 3, "gamma_constraint": null, "gamma_regularizer": null, "beta_regularizer": null, "momentum": 0.99, "center": true}, "inbound_nodes": [[["conv2d_688", 0, 0, {}]]], "name": "batch_normalization_688"}, {"class_name": "Activation", "config": {"activation": "relu", "trainable": false, "name": "activation_688"}, "inbound_nodes": [[["batch_normalization_688", 0, 0, {}]]], "name": "activation_688"}, {"class_name": "Conv2D", "config": {"kernel_constraint": null, "kernel_initializer": {"class_name": "VarianceScaling", "config": {"distribution": "uniform", "scale": 1.0, "seed": null, "mode": "fan_avg"}}, "name": "conv2d_686", "bias_regularizer": null, "bias_constraint": null, "activation": "linear", "trainable": false, "data_format": "channels_last", "padding": "same", "strides": [1, 1], "dilation_rate": [1, 1], "kernel_regularizer": null, "filters": 192, "bias_initializer": {"class_name": "Zeros", "config": {}}, "use_bias": false, "activity_regularizer": null, "kernel_size": [1, 1]}, "inbound_nodes": [[["mixed_6a", 0, 0, {}]]], "name": "conv2d_686"}, {"class_name": "Conv2D", "config": {"kernel_constraint": null, "kernel_initializer": {"class_name": "VarianceScaling", "config": {"distribution": "uniform", "scale": 1.0, "seed": null, "mode": "fan_avg"}}, "name": "conv2d_689", "bias_regularizer": null, "bias_constraint": null, "activation": "linear", "trainable": false, "data_format": "channels_last", "padding": "same", "strides": [1, 1], "dilation_rate": [1, 1], "kernel_regularizer": null, "filters": 192, "bias_initializer": {"class_name": "Zeros", "config": {}}, "use_bias": false, "activity_regularizer": null, "kernel_size": [7, 1]}, "inbound_nodes": [[["activation_688", 0, 0, {}]]], "name": "conv2d_689"}, {"class_name": "BatchNormalization", "config": {"beta_constraint": null, "gamma_initializer": {"class_name": "Ones", "config": {}}, "moving_mean_initializer": {"class_name": "Zeros", "config": {}}, "name": "batch_normalization_686", "epsilon": 0.001, "trainable": false, "moving_variance_initializer": {"class_name": "Ones", "config": {}}, "beta_initializer": {"class_name": "Zeros", "config": {}}, "scale": false, "axis": 3, "gamma_constraint": null, "gamma_regularizer": null, "beta_regularizer": null, "momentum": 0.99, "center": true}, "inbound_nodes": [[["conv2d_686", 0, 0, {}]]], "name": "batch_normalization_686"}, {"class_name": "BatchNormalization", "config": {"beta_constraint": null, "gamma_initializer": {"class_name": "Ones", "config": {}}, "moving_mean_initializer": {"class_name": "Zeros", "config": {}}, "name": "batch_normalization_689", "epsilon": 0.001, "trainable": false, "moving_variance_initializer": {"class_name": "Ones", "config": {}}, "beta_initializer": {"class_name": "Zeros", "config": {}}, "scale": false, "axis": 3, "gamma_constraint": null, "gamma_regularizer": null, "beta_regularizer": null, "momentum": 0.99, "center": true}, "inbound_nodes": [[["conv2d_689", 0, 0, {}]]], "name": "batch_normalization_689"}, {"class_name": "Activation", "config": {"activation": "relu", "trainable": false, "name": "activation_686"}, "inbound_nodes": [[["batch_normalization_686", 0, 0, {}]]], "name": "activation_686"}, {"class_name": "Activation", "config": {"activation": "relu", "trainable": false, "name": "activation_689"}, "inbound_nodes": [[["batch_normalization_689", 0, 0, {}]]], "name": "activation_689"}, {"class_name": "Concatenate", "config": {"trainable": false, "name": "block17_1_mixed", "axis": 3}, "inbound_nodes": [[["activation_686", 0, 0, {}], ["activation_689", 0, 0, {}]]], "name": "block17_1_mixed"}, {"class_name": "Conv2D", "config": {"kernel_constraint": null, "kernel_initializer": {"class_name": "VarianceScaling", "config": {"distribution": "uniform", "scale": 1.0, "seed": null, "mode": "fan_avg"}}, "name": "block17_1_conv", "bias_regularizer": null, "bias_constraint": null, "activation": "linear", "trainable": false, "data_format": "channels_last", "padding": "same", "strides": [1, 1], "dilation_rate": [1, 1], "kernel_regularizer": null, "filters": 1088, "bias_initializer": {"class_name": "Zeros", "config": {}}, "use_bias": true, "activity_regularizer": null, "kernel_size": [1, 1]}, "inbound_nodes": [[["block17_1_mixed", 0, 0, {}]]], "name": "block17_1_conv"}, {"class_name": "Lambda", "config": {"function": ["YwIAAAACAAAAAwAAAFNgAQBzFAAAAHwAAGQBABl8AABkAgAZfAEAFBdTKAMAAABOaQAAAABpAQAA\nACgAAAAAKAIAAAB0BgAAAGlucHV0c3QFAAAAc2NhbGUoAAAAACgAAAAAc1AAAAAvdXNyL2xvY2Fs\nL2xpYi9weXRob24yLjcvZGlzdC1wYWNrYWdlcy9rZXJhc19hcHBsaWNhdGlvbnMvaW5jZXB0aW9u\nX3Jlc25ldF92Mi5weXQIAAAAPGxhbWJkYT6qAAAAdAAAAAA=\n", null, null], "name": "block17_1", "trainable": false, "function_type": "lambda", "arguments": {"scale": 0.1}, "output_shape": [7, 7, 1088], "output_shape_type": "raw"}, "inbound_nodes": [[["mixed_6a", 0, 0, {}], ["block17_1_conv", 0, 0, {}]]], "name": "block17_1"}, {"class_name": "Activation", "config": {"activation": "relu", "trainable": false, "name": "block17_1_ac"}, "inbound_nodes": [[["block17_1", 0, 0, {}]]], "name": "block17_1_ac"}, {"class_name": "Conv2D", "config": {"kernel_constraint": null, "kernel_initializer": {"class_name": "VarianceScaling", "config": {"distribution": "uniform", "scale": 1.0, "seed": null, "mode": "fan_avg"}}, "name": "conv2d_691", "bias_regularizer": null, "bias_constraint": null, "activation": "linear", "trainable": false, "data_format": "channels_last", "padding": "same", "strides": [1, 1], "dilation_rate": [1, 1], "kernel_regularizer": null, "filters": 128, "bias_initializer": {"class_name": "Zeros", "config": {}}, "use_bias": false, "activity_regularizer": null, "kernel_size": [1, 1]}, "inbound_nodes": [[["block17_1_ac", 0, 0, {}]]], "name": "conv2d_691"}, {"class_name": "BatchNormalization", "config": {"beta_constraint": null, "gamma_initializer": {"class_name": "Ones", "config": {}}, "moving_mean_initializer": {"class_name": "Zeros", "config": {}}, "name": "batch_normalization_691", "epsilon": 0.001, "trainable": false, "moving_variance_initializer": {"class_name": "Ones", "config": {}}, "beta_initializer": {"class_name": "Zeros", "config": {}}, "scale": false, "axis": 3, "gamma_constraint": null, "gamma_regularizer": null, "beta_regularizer": null, "momentum": 0.99, "center": true}, "inbound_nodes": [[["conv2d_691", 0, 0, {}]]], "name": "batch_normalization_691"}, {"class_name": "Activation", "config": {"activation": "relu", "trainable": false, "name": "activation_691"}, "inbound_nodes": [[["batch_normalization_691", 0, 0, {}]]], "name": "activation_691"}, {"class_name": "Conv2D", "config": {"kernel_constraint": null, "kernel_initializer": {"class_name": "VarianceScaling", "config": {"distribution": "uniform", "scale": 1.0, "seed": null, "mode": "fan_avg"}}, "name": "conv2d_692", "bias_regularizer": null, "bias_constraint": null, "activation": "linear", "trainable": false, "data_format": "channels_last", "padding": "same", "strides": [1, 1], "dilation_rate": [1, 1], "kernel_regularizer": null, "filters": 160, "bias_initializer": {"class_name": "Zeros", "config": {}}, "use_bias": false, "activity_regularizer": null, "kernel_size": [1, 7]}, "inbound_nodes": [[["activation_691", 0, 0, {}]]], "name": "conv2d_692"}, {"class_name": "BatchNormalization", "config": {"beta_constraint": null, "gamma_initializer": {"class_name": "Ones", "config": {}}, "moving_mean_initializer": {"class_name": "Zeros", "config": {}}, "name": "batch_normalization_692", "epsilon": 0.001, "trainable": false, "moving_variance_initializer": {"class_name": "Ones", "config": {}}, "beta_initializer": {"class_name": "Zeros", "config": {}}, "scale": false, "axis": 3, "gamma_constraint": null, "gamma_regularizer": null, "beta_regularizer": null, "momentum": 0.99, "center": true}, "inbound_nodes": [[["conv2d_692", 0, 0, {}]]], "name": "batch_normalization_692"}, {"class_name": "Activation", "config": {"activation": "relu", "trainable": false, "name": "activation_692"}, "inbound_nodes": [[["batch_normalization_692", 0, 0, {}]]], "name": "activation_692"}, {"class_name": "Conv2D", "config": {"kernel_constraint": null, "kernel_initializer": {"class_name": "VarianceScaling", "config": {"distribution": "uniform", "scale": 1.0, "seed": null, "mode": "fan_avg"}}, "name": "conv2d_690", "bias_regularizer": null, "bias_constraint": null, "activation": "linear", "trainable": false, "data_format": "channels_last", "padding": "same", "strides": [1, 1], "dilation_rate": [1, 1], "kernel_regularizer": null, "filters": 192, "bias_initializer": {"class_name": "Zeros", "config": {}}, "use_bias": false, "activity_regularizer": null, "kernel_size": [1, 1]}, "inbound_nodes": [[["block17_1_ac", 0, 0, {}]]], "name": "conv2d_690"}, {"class_name": "Conv2D", "config": {"kernel_constraint": null, "kernel_initializer": {"class_name": "VarianceScaling", "config": {"distribution": "uniform", "scale": 1.0, "seed": null, "mode": "fan_avg"}}, "name": "conv2d_693", "bias_regularizer": null, "bias_constraint": null, "activation": "linear", "trainable": false, "data_format": "channels_last", "padding": "same", "strides": [1, 1], "dilation_rate": [1, 1], "kernel_regularizer": null, "filters": 192, "bias_initializer": {"class_name": "Zeros", "config": {}}, "use_bias": false, "activity_regularizer": null, "kernel_size": [7, 1]}, "inbound_nodes": [[["activation_692", 0, 0, {}]]], "name": "conv2d_693"}, {"class_name": "BatchNormalization", "config": {"beta_constraint": null, "gamma_initializer": {"class_name": "Ones", "config": {}}, "moving_mean_initializer": {"class_name": "Zeros", "config": {}}, "name": "batch_normalization_690", "epsilon": 0.001, "trainable": false, "moving_variance_initializer": {"class_name": "Ones", "config": {}}, "beta_initializer": {"class_name": "Zeros", "config": {}}, "scale": false, "axis": 3, "gamma_constraint": null, "gamma_regularizer": null, "beta_regularizer": null, "momentum": 0.99, "center": true}, "inbound_nodes": [[["conv2d_690", 0, 0, {}]]], "name": "batch_normalization_690"}, {"class_name": "BatchNormalization", "config": {"beta_constraint": null, "gamma_initializer": {"class_name": "Ones", "config": {}}, "moving_mean_initializer": {"class_name": "Zeros", "config": {}}, "name": "batch_normalization_693", "epsilon": 0.001, "trainable": false, "moving_variance_initializer": {"class_name": "Ones", "config": {}}, "beta_initializer": {"class_name": "Zeros", "config": {}}, "scale": false, "axis": 3, "gamma_constraint": null, "gamma_regularizer": null, "beta_regularizer": null, "momentum": 0.99, "center": true}, "inbound_nodes": [[["conv2d_693", 0, 0, {}]]], "name": "batch_normalization_693"}, {"class_name": "Activation", "config": {"activation": "relu", "trainable": false, "name": "activation_690"}, "inbound_nodes": [[["batch_normalization_690", 0, 0, {}]]], "name": "activation_690"}, {"class_name": "Activation", "config": {"activation": "relu", "trainable": false, "name": "activation_693"}, "inbound_nodes": [[["batch_normalization_693", 0, 0, {}]]], "name": "activation_693"}, {"class_name": "Concatenate", "config": {"trainable": false, "name": "block17_2_mixed", "axis": 3}, "inbound_nodes": [[["activation_690", 0, 0, {}], ["activation_693", 0, 0, {}]]], "name": "block17_2_mixed"}, {"class_name": "Conv2D", "config": {"kernel_constraint": null, "kernel_initializer": {"class_name": "VarianceScaling", "config": {"distribution": "uniform", "scale": 1.0, "seed": null, "mode": "fan_avg"}}, "name": "block17_2_conv", "bias_regularizer": null, "bias_constraint": null, "activation": "linear", "trainable": false, "data_format": "channels_last", "padding": "same", "strides": [1, 1], "dilation_rate": [1, 1], "kernel_regularizer": null, "filters": 1088, "bias_initializer": {"class_name": "Zeros", "config": {}}, "use_bias": true, "activity_regularizer": null, "kernel_size": [1, 1]}, "inbound_nodes": [[["block17_2_mixed", 0, 0, {}]]], "name": "block17_2_conv"}, {"class_name": "Lambda", "config": {"function": ["YwIAAAACAAAAAwAAAFNgAQBzFAAAAHwAAGQBABl8AABkAgAZfAEAFBdTKAMAAABOaQAAAABpAQAA\nACgAAAAAKAIAAAB0BgAAAGlucHV0c3QFAAAAc2NhbGUoAAAAACgAAAAAc1AAAAAvdXNyL2xvY2Fs\nL2xpYi9weXRob24yLjcvZGlzdC1wYWNrYWdlcy9rZXJhc19hcHBsaWNhdGlvbnMvaW5jZXB0aW9u\nX3Jlc25ldF92Mi5weXQIAAAAPGxhbWJkYT6qAAAAdAAAAAA=\n", null, null], "name": "block17_2", "trainable": false, "function_type": "lambda", "arguments": {"scale": 0.1}, "output_shape": [7, 7, 1088], "output_shape_type": "raw"}, "inbound_nodes": [[["block17_1_ac", 0, 0, {}], ["block17_2_conv", 0, 0, {}]]], "name": "block17_2"}, {"class_name": "Activation", "config": {"activation": "relu", "trainable": false, "name": "block17_2_ac"}, "inbound_nodes": [[["block17_2", 0, 0, {}]]], "name": "block17_2_ac"}, {"class_name": "Conv2D", "config": {"kernel_constraint": null, "kernel_initializer": {"class_name": "VarianceScaling", "config": {"distribution": "uniform", "scale": 1.0, "seed": null, "mode": "fan_avg"}}, "name": "conv2d_695", "bias_regularizer": null, "bias_constraint": null, "activation": "linear", "trainable": false, "data_format": "channels_last", "padding": "same", "strides": [1, 1], "dilation_rate": [1, 1], "kernel_regularizer": null, "filters": 128, "bias_initializer": {"class_name": "Zeros", "config": {}}, "use_bias": false, "activity_regularizer": null, "kernel_size": [1, 1]}, "inbound_nodes": [[["block17_2_ac", 0, 0, {}]]], "name": "conv2d_695"}, {"class_name": "BatchNormalization", "config": {"beta_constraint": null, "gamma_initializer": {"class_name": "Ones", "config": {}}, "moving_mean_initializer": {"class_name": "Zeros", "config": {}}, "name": "batch_normalization_695", "epsilon": 0.001, "trainable": false, "moving_variance_initializer": {"class_name": "Ones", "config": {}}, "beta_initializer": {"class_name": "Zeros", "config": {}}, "scale": false, "axis": 3, "gamma_constraint": null, "gamma_regularizer": null, "beta_regularizer": null, "momentum": 0.99, "center": true}, "inbound_nodes": [[["conv2d_695", 0, 0, {}]]], "name": "batch_normalization_695"}, {"class_name": "Activation", "config": {"activation": "relu", "trainable": false, "name": "activation_695"}, "inbound_nodes": [[["batch_normalization_695", 0, 0, {}]]], "name": "activation_695"}, {"class_name": "Conv2D", "config": {"kernel_constraint": null, "kernel_initializer": {"class_name": "VarianceScaling", "config": {"distribution": "uniform", "scale": 1.0, "seed": null, "mode": "fan_avg"}}, "name": "conv2d_696", "bias_regularizer": null, "bias_constraint": null, "activation": "linear", "trainable": false, "data_format": "channels_last", "padding": "same", "strides": [1, 1], "dilation_rate": [1, 1], "kernel_regularizer": null, "filters": 160, "bias_initializer": {"class_name": "Zeros", "config": {}}, "use_bias": false, "activity_regularizer": null, "kernel_size": [1, 7]}, "inbound_nodes": [[["activation_695", 0, 0, {}]]], "name": "conv2d_696"}, {"class_name": "BatchNormalization", "config": {"beta_constraint": null, "gamma_initializer": {"class_name": "Ones", "config": {}}, "moving_mean_initializer": {"class_name": "Zeros", "config": {}}, "name": "batch_normalization_696", "epsilon": 0.001, "trainable": false, "moving_variance_initializer": {"class_name": "Ones", "config": {}}, "beta_initializer": {"class_name": "Zeros", "config": {}}, "scale": false, "axis": 3, "gamma_constraint": null, "gamma_regularizer": null, "beta_regularizer": null, "momentum": 0.99, "center": true}, "inbound_nodes": [[["conv2d_696", 0, 0, {}]]], "name": "batch_normalization_696"}, {"class_name": "Activation", "config": {"activation": "relu", "trainable": false, "name": "activation_696"}, "inbound_nodes": [[["batch_normalization_696", 0, 0, {}]]], "name": "activation_696"}, {"class_name": "Conv2D", "config": {"kernel_constraint": null, "kernel_initializer": {"…
bution": "uniform", "scale": 1.0, "seed": null, "mode": "fan_avg"}}, "name": "block8_4_conv", "bias_regularizer": null, "bias_constraint": null, "activation": "linear", "trainable": false, "data_format": "channels_last", "padding": "same", "strides": [1, 1], "dilation_rate": [1, 1], "kernel_regularizer": null, "filters": 2080, "bias_initializer": {"class_name": "Zeros", "config": {}}, "use_bias": true, "activity_regularizer": null, "kernel_size": [1, 1]}, "inbound_nodes": [[["block8_4_mixed", 0, 0, {}]]], "name": "block8_4_conv"}, {"class_name": "Lambda", "config": {"function": ["YwIAAAACAAAAAwAAAFNgAQBzFAAAAHwAAGQBABl8AABkAgAZfAEAFBdTKAMAAABOaQAAAABpAQAA\nACgAAAAAKAIAAAB0BgAAAGlucHV0c3QFAAAAc2NhbGUoAAAAACgAAAAAc1AAAAAvdXNyL2xvY2Fs\nL2xpYi9weXRob24yLjcvZGlzdC1wYWNrYWdlcy9rZXJhc19hcHBsaWNhdGlvbnMvaW5jZXB0aW9u\nX3Jlc25ldF92Mi5weXQIAAAAPGxhbWJkYT6qAAAAdAAAAAA=\n", null, null], "name": "block8_4", "trainable": false, "function_type": "lambda", "arguments": {"scale": 0.2}, "output_shape": [3, 3, 2080], "output_shape_type": "raw"}, "inbound_nodes": [[["block8_3_ac", 0, 0, {}], ["block8_4_conv", 0, 0, {}]]], "name": "block8_4"}, {"class_name": "Activation", "config": {"activation": "relu", "trainable": false, "name": "block8_4_ac"}, "inbound_nodes": [[["block8_4", 0, 0, {}]]], "name": "block8_4_ac"}, {"class_name": "Conv2D", "config": {"kernel_constraint": null, "kernel_initializer": {"class_name": "VarianceScaling", "config": {"distribution": "uniform", "scale": 1.0, "seed": null, "mode": "fan_avg"}}, "name": "conv2d_790", "bias_regularizer": null, "bias_constraint": null, "activation": "linear", "trainable": false, "data_format": "channels_last", "padding": "same", "strides": [1, 1], "dilation_rate": [1, 1], "kernel_regularizer": null, "filters": 192, "bias_initializer": {"class_name": "Zeros", "config": {}}, "use_bias": false, "activity_regularizer": null, "kernel_size": [1, 1]}, "inbound_nodes": [[["block8_4_ac", 0, 0, {}]]], "name": "conv2d_790"}, {"class_name": "BatchNormalization", "config": {"beta_constraint": null, "gamma_initializer": {"class_name": "Ones", "config": {}}, "moving_mean_initializer": {"class_name": "Zeros", "config": {}}, "name": "batch_normalization_790", "epsilon": 0.001, "trainable": false, "moving_variance_initializer": {"class_name": "Ones", "config": {}}, "beta_initializer": {"class_name": "Zeros", "config": {}}, "scale": false, "axis": 3, "gamma_constraint": null, "gamma_regularizer": null, "beta_regularizer": null, "momentum": 0.99, "center": true}, "inbound_nodes": [[["conv2d_790", 0, 0, {}]]], "name": "batch_normalization_790"}, {"class_name": "Activation", "config": {"activation": "relu", "trainable": false, "name": "activation_790"}, "inbound_nodes": [[["batch_normalization_790", 0, 0, {}]]], "name": "activation_790"}, {"class_name": "Conv2D", "config": {"kernel_constraint": null, "kernel_initializer": {"class_name": "VarianceScaling", "config": {"distribution": "uniform", "scale": 1.0, "seed": null, "mode": "fan_avg"}}, "name": "conv2d_791", "bias_regularizer": null, "bias_constraint": null, "activation": "linear", "trainable": false, "data_format": "channels_last", "padding": "same", "strides": [1, 1], "dilation_rate": [1, 1], "kernel_regularizer": null, "filters": 224, "bias_initializer": {"class_name": "Zeros", "config": {}}, "use_bias": false, "activity_regularizer": null, "kernel_size": [1, 3]}, "inbound_nodes": [[["activation_790", 0, 0, {}]]], "name": "conv2d_791"}, {"class_name": "BatchNormalization", "config": {"beta_constraint": null, "gamma_initializer": {"class_name": "Ones", "config": {}}, "moving_mean_initializer": {"class_name": "Zeros", "config": {}}, "name": "batch_normalization_791", "epsilon": 0.001, "trainable": false, "moving_variance_initializer": {"class_name": "Ones", "config": {}}, "beta_initializer": {"class_name": "Zeros", "config": {}}, "scale": false, "axis": 3, "gamma_constraint": null, "gamma_regularizer": null, "beta_regularizer": null, "momentum": 0.99, "center": true}, "inbound_nodes": [[["conv2d_791", 0, 0, {}]]], "name": "batch_normalization_791"}, {"class_name": "Activation", "config": {"activation": "relu", "trainable": false, "name": "activation_791"}, "inbound_nodes": [[["batch_normalization_791", 0, 0, {}]]], "name": "activation_791"}, {"class_name": "Conv2D", "config": {"kernel_constraint": null, "kernel_initializer": {"class_name": "VarianceScaling", "config": {"distribution": "uniform", "scale": 1.0, "seed": null, "mode": "fan_avg"}}, "name": "conv2d_789", "bias_regularizer": null, "bias_constraint": null, "activation": "linear", "trainable": false, "data_format": "channels_last", "padding": "same", "strides": [1, 1], "dilation_rate": [1, 1], "kernel_regularizer": null, "filters": 192, "bias_initializer": {"class_name": "Zeros", "config": {}}, "use_bias": false, "activity_regularizer": null, "kernel_size": [1, 1]}, "inbound_nodes": [[["block8_4_ac", 0, 0, {}]]], "name": "conv2d_789"}, {"class_name": "Conv2D", "config": {"kernel_constraint": null, "kernel_initializer": {"class_name": "VarianceScaling", "config": {"distribution": "uniform", "scale": 1.0, "seed": null, "mode": "fan_avg"}}, "name": "conv2d_792", "bias_regularizer": null, "bias_constraint": null, "activation": "linear", "trainable": false, "data_format": "channels_last", "padding": "same", "strides": [1, 1], "dilation_rate": [1, 1], "kernel_regularizer": null, "filters": 256, "bias_initializer": {"class_name": "Zeros", "config": {}}, "use_bias": false, "activity_regularizer": null, "kernel_size": [3, 1]}, "inbound_nodes": [[["activation_791", 0, 0, {}]]], "name": "conv2d_792"}, {"class_name": "BatchNormalization", "config": {"beta_constraint": null, "gamma_initializer": {"class_name": "Ones", "config": {}}, "moving_mean_initializer": {"class_name": "Zeros", "config": {}}, "name": "batch_normalization_789", "epsilon": 0.001, "trainable": false, "moving_variance_initializer": {"class_name": "Ones", "config": {}}, "beta_initializer": {"class_name": "Zeros", "config": {}}, "scale": false, "axis": 3, "gamma_constraint": null, "gamma_regularizer": null, "beta_regularizer": null, "momentum": 0.99, "center": true}, "inbound_nodes": [[["conv2d_789", 0, 0, {}]]], "name": "batch_normalization_789"}, {"class_name": "BatchNormalization", "config": {"beta_constraint": null, "gamma_initializer": {"class_name": "Ones", "config": {}}, "moving_mean_initializer": {"class_name": "Zeros", "config": {}}, "name": "batch_normalization_792", "epsilon": 0.001, "trainable": false, "moving_variance_initializer": {"class_name": "Ones", "config": {}}, "beta_initializer": {"class_name": "Zeros", "config": {}}, "scale": false, "axis": 3, "gamma_constraint": null, "gamma_regularizer": null, "beta_regularizer": null, "momentum": 0.99, "center": true}, "inbound_nodes": [[["conv2d_792", 0, 0, {}]]], "name": "batch_normalization_792"}, {"class_name": "Activation", "config": {"activation": "relu", "trainable": false, "name": "activation_789"}, "inbound_nodes": [[["batch_normalization_789", 0, 0, {}]]], "name": "activation_789"}, {"class_name": "Activation", "config": {"activation": "relu", "trainable": false, "name": "activation_792"}, "inbound_nodes": [[["batch_normalization_792", 0, 0, {}]]], "name": "activation_792"}, {"class_name": "Concatenate", "config": {"trainable": false, "name": "block8_5_mixed", "axis": 3}, "inbound_nodes": [[["activation_789", 0, 0, {}], ["activation_792", 0, 0, {}]]], "name": "block8_5_mixed"}, {"class_name": "Conv2D", "config": {"kernel_constraint": null, "kernel_initializer": {"class_name": "VarianceScaling", "config": {"distribution": "uniform", "scale": 1.0, "seed": null, "mode": "fan_avg"}}, "name": "block8_5_conv", "bias_regularizer": null, "bias_constraint": null, "activation": "linear", "trainable": false, "data_format": "channels_last", "padding": "same", "strides": [1, 1], "dilation_rate": [1, 1], "kernel_regularizer": null, "filters": 2080, "bias_initializer": {"class_name": "Zeros", "config": {}}, "use_bias": true, "activity_regularizer": null, "kernel_size": [1, 1]}, "inbound_nodes": [[["block8_5_mixed", 0, 0, {}]]], "name": "block8_5_conv"}, {"class_name": "Lambda", "config": {"function": ["YwIAAAACAAAAAwAAAFNgAQBzFAAAAHwAAGQBABl8AABkAgAZfAEAFBdTKAMAAABOaQAAAABpAQAA\nACgAAAAAKAIAAAB0BgAAAGlucHV0c3QFAAAAc2NhbGUoAAAAACgAAAAAc1AAAAAvdXNyL2xvY2Fs\nL2xpYi9weXRob24yLjcvZGlzdC1wYWNrYWdlcy9rZXJhc19hcHBsaWNhdGlvbnMvaW5jZXB0aW9u\nX3Jlc25ldF92Mi5weXQIAAAAPGxhbWJkYT6qAAAAdAAAAAA=\n", null, null], "name": "block8_5", "trainable": false, "function_type": "lambda", "arguments": {"scale": 0.2}, "output_shape": [3, 3, 2080], "output_shape_type": "raw"}, "inbound_nodes": [[["block8_4_ac", 0, 0, {}], ["block8_5_conv", 0, 0, {}]]], "name": "block8_5"}, {"class_name": "Activation", "config": {"activation": "relu", "trainable": false, "name": "block8_5_ac"}, "inbound_nodes": [[["block8_5", 0, 0, {}]]], "name": "block8_5_ac"}, {"class_name": "Conv2D", "config": {"kernel_constraint": null, "kernel_initializer": {"class_name": "VarianceScaling", "config": {"distribution": "uniform", "scale": 1.0, "seed": null, "mode": "fan_avg"}}, "name": "conv2d_794", "bias_regularizer": null, "bias_constraint": null, "activation": "linear", "trainable": false, "data_format": "channels_last", "padding": "same", "strides": [1, 1], "dilation_rate": [1, 1], "kernel_regularizer": null, "filters": 192, "bias_initializer": {"class_name": "Zeros", "config": {}}, "use_bias": false, "activity_regularizer": null, "kernel_size": [1, 1]}, "inbound_nodes": [[["block8_5_ac", 0, 0, {}]]], "name": "conv2d_794"}, {"class_name": "BatchNormalization", "config": {"beta_constraint": null, "gamma_initializer": {"class_name": "Ones", "config": {}}, "moving_mean_initializer": {"class_name": "Zeros", "config": {}}, "name": "batch_normalization_794", "epsilon": 0.001, "trainable": false, "moving_variance_initializer": {"class_name": "Ones", "config": {}}, "beta_initializer": {"class_name": "Zeros", "config": {}}, "scale": false, "axis": 3, "gamma_constraint": null, "gamma_regularizer": null, "beta_regularizer": null, "momentum": 0.99, "center": true}, "inbound_nodes": [[["conv2d_794", 0, 0, {}]]], "name": "batch_normalization_794"}, {"class_name": "Activation", "config": {"activation": "relu", "trainable": false, "name": "activation_794"}, "inbound_nodes": [[["batch_normalization_794", 0, 0, {}]]], "name": "activation_794"}, {"class_name": "Conv2D", "config": {"kernel_constraint": null, "kernel_initializer": {"class_name": "VarianceScaling", "config": {"distribution": "uniform", "scale": 1.0, "seed": null, "mode": "fan_avg"}}, "name": "conv2d_795", "bias_regularizer": null, "bias_constraint": null, "activation": "linear", "trainable": false, "data_format": "channels_last", "padding": "same", "strides": [1, 1], "dilation_rate": [1, 1], "kernel_regularizer": null, "filters": 224, "bias_initializer": {"class_name": "Zeros", "config": {}}, "use_bias": false, "activity_regularizer": null, "kernel_size": [1, 3]}, "inbound_nodes": [[["activation_794", 0, 0, {}]]], "name": "conv2d_795"}, {"class_name": "BatchNormalization", "config": {"beta_constraint": null, "gamma_initializer": {"class_name": "Ones", "config": {}}, "moving_mean_initializer": {"class_name": "Zeros", "config": {}}, "name": "batch_normalization_795", "epsilon": 0.001, "trainable": false, "moving_variance_initializer": {"class_name": "Ones", "config": {}}, "beta_initializer": {"class_name": "Zeros", "config": {}}, "scale": false, "axis": 3, "gamma_constraint": null, "gamma_regularizer": null, "beta_regularizer": null, "momentum": 0.99, "center": true}, "inbound_nodes": [[["conv2d_795", 0, 0, {}]]], "name": "batch_normalization_795"}, {"class_name": "Activation", "config": {"activation": "relu", "trainable": false, "name": "activation_795"}, "inbound_nodes": [[["batch_normalization_795", 0, 0, {}]]], "name": "activation_795"}, {"class_name": "Conv2D", "config": {"kernel_constraint": null, "kernel_initializer": {"class_name": "VarianceScaling", "config": {"distribution": "uniform", "scale": 1.0, "seed": null, "mode": "fan_avg"}}, "name": "conv2d_793", "bias_regularizer": null, "bias_constraint": null, "activation": "linear", "trainable": false, "data_format": "channels_last", "padding": "same", "strides": [1, 1], "dilation_rate": [1, 1], "kernel_regularizer": null, "filters": 192, "bias_initializer": {"class_name": "Zeros", "config": {}}, "use_bias": false, "activity_regularizer": null, "kernel_size": [1, 1]}, "inbound_nodes": [[["block8_5_ac", 0, 0, {}]]], "name": "conv2d_793"}, {"class_name": "Conv2D", "config": {"kernel_constraint": null, "kernel_initializer": {"class_name": "VarianceScaling", "config": {"distribution": "uniform", "scale": 1.0, "seed": null, "mode": "fan_avg"}}, "name": "conv2d_796", "bias_regularizer": null, "bias_constraint": null, "activation": "linear", "trainable": false, "data_format": "channels_last", "padding": "same", "strides": [1, 1], "dilation_rate": [1, 1], "kernel_regularizer": null, "filters": 256, "bias_initializer": {"class_name": "Zeros", "config": {}}, "use_bias": false, "activity_regularizer": null, "kernel_size": [3, 1]}, "inbound_nodes": [[["activation_795", 0, 0, {}]]], "name": "conv2d_796"}, {"class_name": "BatchNormalization", "config": {"beta_constraint": null, "gamma_initializer": {"class_name": "Ones", "config": {}}, "moving_mean_initializer": {"class_name": "Zeros", "config": {}}, "name": "batch_normalization_793", "epsilon": 0.001, "trainable": false, "moving_variance_initializer": {"class_name": "Ones", "config": {}}, "beta_initializer": {"class_name": "Zeros", "config": {}}, "scale": false, "axis": 3, "gamma_constraint": null, "gamma_regularizer": null, "beta_regularizer": null, "momentum": 0.99, "center": true}, "inbound_nodes": [[["conv2d_793", 0, 0, {}]]], "name": "batch_normalization_793"}, {"class_name": "BatchNormalization", "config": {"beta_constraint": null, "gamma_initializer": {"class_name": "Ones", "config": {}}, "moving_mean_initializer": {"class_name": "Zeros", "config": {}}, "name": "batch_normalization_796", "epsilon": 0.001, "trainable": false, "moving_variance_initializer": {"class_name": "Ones", "config": {}}, "beta_initializer": {"class_name": "Zeros", "config": {}}, "scale": false, "axis": 3, "gamma_constraint": null, "gamma_regularizer": null, "beta_regularizer": null, "momentum": 0.99, "center": true}, "inbound_nodes": [[["conv2d_796", 0, 0, {}]]], "name": "batch_normalization_796"}, {"class_name": "Activation", "config": {"activation": "relu", "trainable": false, "name": "activation_793"}, "inbound_nodes": [[["batch_normalization_793", 0, 0, {}]]], "name": "activation_793"}, {"class_name": "Activation", "config": {"activation": "relu", "trainable": false, "name": "activation_796"}, "inbound_nodes": [[["batch_normalization_796", 0, 0, {}]]], "name": "activation_796"}, {"class_name": "Concatenate", "config": {"trainable": false, "name": "block8_6_mixed", "axis": 3}, "inbound_nodes": [[["activation_793", 0, 0, {}], ["activation_796", 0, 0, {}]]], "name": "block8_6_mixed"}, {"class_name": "Conv2D", "config": {"kernel_constraint": null, "kernel_initializer": {"class_name": "VarianceScaling", "config": {"distribution": "uniform", "scale": 1.0, "seed": null, "mode": "fan_avg"}}, "name": "block8_6_conv", "bias_regularizer": null, "bias_constraint": null, "activation": "linear", "trainable": false, "data_format": "channels_last", "padding": "same", "strides": [1, 1], "dilation_rate": [1, 1], "kernel_regularizer": null, "filters": 2080, "bias_initializer": {"class_name": "Zeros", "config": {}}, "use_bias": true, "activity_regularizer": null, "kernel_size": [1, 1]}, "inbound_nodes": [[["block8_6_mixed", 0, 0, {}]]], "name": "block8_6_conv"}, {"class_name": "Lambda", "config": {"function": ["YwIAAAACAAAAAwAAAFNgAQBzFAAAAHwAAGQBABl8AABkAgAZfAEAFBdTKAMAAABOaQAAAABpAQAA\nACgAAAAAKAIAAAB0BgAAAGlucHV0c3QFAAAAc2NhbGUoAAAAACgAAAAAc1AAAAAvdXNyL2xvY2Fs\nL2xpYi9weXRob24yLjcvZGlzdC1wYWNrYWdlcy9rZXJhc19hcHBsaWNhdGlvbnMvaW5jZXB0aW9u\nX3Jlc25ldF92Mi5weXQIAAAAPGxhbWJkYT6qAAAAdAAAAAA=\n", null, null], "name": "block8_6", "trainable": false, "function_type": "lambda", "arguments": {"scale": 0.2}, "output_shape": [3, 3, 2080], "output_shape_type": "raw"}, "inbound_nodes": [[["block8_5_ac", 0, 0, {}], ["block8_6_conv", 0, 0, {}]]], "name": "block8_6"}, {"class_name": "Activation", "config": {"activation": "relu", "trainable": false, "name": "block8_6_ac"}, "inbound_nodes": [[["block8_6", 0, 0, {}]]], "name": "block8_6_ac"}, {"class_name": "Conv2D", "config": {"kernel_constraint": null, "kernel_initializer": {"class_name": "VarianceScaling", "config": {"distribution": "uniform", "scale": 1.0, "seed": null, "mode": "fan_avg"}}, "name": "conv2d_798", "bias_regularizer": null, "bias_constraint": null, "activation": "linear", "trainable": false, "data_format": "channels_last", "padding": "same", "strides": [1, 1], "dilation_rate": [1, 1], "kernel_regularizer": null, "filters": 192, "bias_initializer": {"class_name": "Zeros", "config": {}}, "use_bias": false, "activity_regularizer": null, "kernel_size": [1, 1]}, "inbound_nodes": [[["block8_6_ac", 0, 0, {}]]], "name": "conv2d_798"}, {"class_name": "BatchNormalization", "config": {"beta_constraint": null, "gamma_initializer": {"class_name": "Ones", "config": {}}, "moving_mean_initializer": {"class_name": "Zeros", "config": {}}, "name": "batch_normalization_798", "epsilon": 0.001, "trainable": false, "moving_variance_initializer": {"class_name": "Ones", "config": {}}, "beta_initializer": {"class_name": "Zeros", "config": {}}, "scale": false, "axis": 3, "gamma_constraint": null, "gamma_regularizer": null, "beta_regularizer": null, "momentum": 0.99, "center": true}, "inbound_nodes": [[["conv2d_798", 0, 0, {}]]], "name": "batch_normalization_798"}, {"class_name": "Activation", "config": {"activation": "relu", "trainable": false, "name": "activation_798"}, "inbound_nodes": [[["batch_normalization_798", 0, 0, {}]]], "name": "activation_798"}, {"class_name": "Conv2D", "config": {"kernel_constraint": null, "kernel_initializer": {"class_name": "VarianceScaling", "config": {"distribution": "uniform", "scale": 1.0, "seed": null, "mode": "fan_avg"}}, "name": "conv2d_799", "bias_regularizer": null, "bias_constraint": null, "activation": "linear", "trainable": false, "data_format": "channels_last", "padding": "same", "strides": [1, 1], "dilation_rate": [1, 1], "kernel_regularizer": null, "filters": 224, "bias_initializer": {"class_name": "Zeros", "config": {}}, "use_bias": false, "activity_regularizer": null, "kernel_size": [1, 3]}, "inbound_nodes": [[["activation_798", 0, 0, {}]]], "name": "conv2d_799"}, {"class_name": "BatchNormalization", "config": {"beta_constraint": null, "gamma_initializer": {"class_name": "Ones", "config": {}}, "moving_mean_initializer": {"class_name": "Zeros", "config": {}}, "name": "batch_normalization_799", "epsilon": 0.001, "trainable": false, "moving_variance_initializer": {"class_name": "Ones", "config": {}}, "beta_initializer": {"class_name": "Zeros", "config": {}}, "scale": false, "axis": 3, "gamma_constraint": null, "gamma_regularizer": null, "beta_regularizer": null, "momentum": 0.99, "center": true}, "inbound_nodes": [[["conv2d_799", 0, 0, {}]]], "name": "batch_normalization_799"}, {"class_name": "Activation", "config": {"activation": "relu", "trainable": false, "name": "activation_799"}, "inbound_nodes": [[["batch_normalization_799", 0, 0, {}]]], "name": "activation_799"}, {"class_name": "Conv2D", "config": {"kernel_constraint": null, "kernel_initializer": {"class_name": "VarianceScaling", "config": {"distribution": "uniform", "scale": 1.0, "seed": null, "mode": "fan_avg"}}, "name": "conv2d_797", "bias_regularizer": null, "bias_constraint": null, "activation": "linear", "trainable": false, "data_format": "channels_last", "padding": "same", "strides": [1, 1], "dilation_rate": [1, 1], "kernel_regularizer": null, "filters": 192, "bias_initializer": {"class_name": "Zeros", "config": {}}, "use_bias": false, "activity_regularizer": null, "kernel_size": [1, 1]}, "inbound_nodes": [[["block8_6_ac", 0, 0, {}]]], "name": "conv2d_797"}, {"class_name": "Conv2D", "config": {"kernel_constraint": null, "kernel_initializer": {"class_name": "VarianceScaling", "config": {"distribution": "uniform", "scale": 1.0, "seed": null, "mode": "fan_avg"}}, "name": "conv2d_800", "bias_regularizer": null, "bias_constraint": null, "activation": "linear", "trainable": false, "data_format": "channels_last", "padding": "same", "strides": [1, 1], "dilation_rate": [1, 1], "kernel_regularizer": null, "filters": 256, "bias_initializer": {"class_name": "Zeros", "config": {}}, "use_bias": false, "activity_regularizer": null, "kernel_size": [3, 1]}, "inbound_nodes": [[["activation_799", 0, 0, {}]]], "name": "conv2d_800"}, {"class_name": "BatchNormalization", "config": {"beta_constraint": null, "gamma_initializer": {"class_name": "Ones", "config": {}}, "moving_mean_initializer": {"class_name": "Zeros", "config": {}}, "name": "batch_normalization_797", "epsilon": 0.001, "trainable": false, "moving_variance_initializer": {"class_name": "Ones", "config": {}}, "beta_initializer": {"class_name": "Zeros", "config": {}}, "scale": false, "axis": 3, "gamma_constraint": null, "gamma_regularizer": null, "beta_regularizer": null, "momentum": 0.99, "center": true}, "inbound_nodes": [[["conv2d_797", 0, 0, {}]]], "name": "batch_normalization_797"}, {"class_name": "BatchNormalization", "config": {"beta_constraint": null, "gamma_initializer": {"class_name": "Ones", "config": {}}, "moving_mean_initializer": {"class_name": "Zeros", "config": {}}, "name": "batch_normalization_800", "epsilon": 0.001, "trainable": false, "moving_variance_initializer": {"class_name": "Ones", "config": {}}, "beta_initializer": {"class_name": "Zeros", "config": {}}, "scale": false, "axis": 3, "gamma_constraint": null, "gamma_regularizer": null, "beta_regularizer": null, "momentum": 0.99, "center": true}, "inbound_nodes": [[["conv2d_800", 0, 0, {}]]], "name": "batch_normalization_800"}, {"class_name": "Activation", "config": {"activation": "relu", "trainable": false, "name": "activation_797"}, "inbound_nodes": [[["batch_normalization_797", 0, 0, {}]]], "name": "activation_797"}, {"class_name": "Activation", "config": {"activation": "relu", "trainable": false, "name": "activation_800"}, "inbound_nodes": [[["batch_normalization_800", 0, 0, {}]]], "name": "activation_800"}, {"class_name": "Concatenate", "config": {"trainable": false, "name": "block8_7_mixed", "axis": 3}, "inbound_nodes": [[["activation_797", 0, 0, {}], ["activation_800", 0, 0, {}]]], "name": "block8_7_mixed"}, {"class_name": "Conv2D", "config": {"kernel_constraint": null, "kernel_initializer": {"class_name": "VarianceScaling", "config": {"distribution": "uniform", "scale": 1.0, "seed": null, "mode": "fan_avg"}}, "name": "block8_7_conv", "bias_regularizer": null, "bias_constraint": null, "activation": "linear", "trainable": false, "data_format": "channels_last", "padding": "same", "strides": [1, 1], "dilation_rate": [1, 1], "kernel_regularizer": null, "filters": 2080, "bias_initializer": {"class_name": "Zeros", "config": {}}, "use_bias": true, "activity_regularizer": null, "kernel_size": [1, 1]}, "inbound_nodes": [[["block8_7_mixed", 0, 0, {}]]], "name": "block8_7_conv"}, {"class_name": "Lambda", "config": {"function": ["YwIAAAACAAAAAwAAAFNgAQBzFAAAAHwAAGQBABl8AABkAgAZfAEAFBdTKAMAAABOaQAAAABpAQAA\nACgAAAAAKAIAAAB0BgAAAGlucHV0c3QFAAAAc2NhbGUoAAAAACgAAAAAc1AAAAAvdXNyL2xvY2Fs\nL2xpYi9weXRob24yLjcvZGlzdC1wYWNrYWdlcy9rZXJhc19hcHBsaWNhdGlvbnMvaW5jZXB0aW9u\nX3Jlc25ldF92Mi5weXQIAAAAPGxhbWJkYT6qAAAAdAAAAAA=\n", null, null], "name": "block8_7", "trainable": false, "function_type": "lambda", "arguments": {"scale": 0.2}, "output_shape": [3, 3, 2080], "output_shape_type": "raw"}, "inbound_nodes": [[["block8_6_ac", 0, 0, {}], ["block8_7_conv", 0, 0, {}]]], "name": "block8_7"}, {"class_name": "Activation", "config": {"activation": "relu", "trainable": false, "name": "block8_7_ac"}, "inbound_nodes": [[["block8_7", 0, 0, {}]]], "name": "block8_7_ac"}, {"class_name": "Conv2D", "config": {"kernel_constraint": null, "kernel_initializer": {"class_name": "VarianceScaling", "config": {"distribution": "uniform", "scale": 1.0, "seed": null, "mode": "fan_avg"}}, "name": "conv2d_802", "bias_regularizer": null, "bias_constraint": null, "activation": "linear", "trainable": false, "data_format": "channels_last", "padding": "same", "strides": [1, 1], "dilation_rate": [1, 1], "kernel_regularizer": null, "filters": 192, "bias_initializer": {"class_name": "Zeros", "config": {}}, "use_bias": false, "activity_regularizer": null, "kernel_size": [1, 1]}, "inbound_nodes": [[["block8_7_ac", 0, 0, {}]]], "name": "conv2d_802"}, {"class_name": "BatchNormalization", "config": {"beta_constraint": null, "gamma_initializer": {"class_name": "Ones", "config": {}}, "moving_mean_initializer": {"class_name": "Zeros", "config": {}}, "name": "batch_normalization_802", "epsilon": 0.001, "trainable": false, "moving_variance_initializer": {"class_name": "Ones", "config": {}}, "beta_initializer": {"class_name": "Zeros", "config": {}}, "scale": false, "axis": 3, "gamma_constraint": null, "gamma_regularizer": null, "beta_regularizer": null, "momentum": 0.99, "center": true}, "inbound_nodes": [[["conv2d_802", 0, 0, {}]]], "name": "batch_normalization_802"}, {"class_name": "Activation", "config": {"activation": "relu", "trainable": false, "name": "activation_802"}, "inbound_nodes": [[["batch_normalization_802", 0, 0, {}]]], "name": "activation_802"}, {"class_name": "Conv2D", "config": {"kernel_constraint": null, "kernel_initializer": {"class_name": "VarianceScaling", "config": {"distribution": "uniform", "scale": 1.0, "seed": null, "mode": "fan_avg"}}, "name": "conv2d_803", "bias_regularizer": null, "bias_constraint": null, "activation": "linear", "trainable": false, "data_format": "channels_last", "padding": "same", "strides": [1, 1], "dilation_rate": [1, 1], "kernel_regularizer": null, "filters": 224, "bias_initializer": {"class_name": "Zeros", "config": {}}, "use_bias": false, "activity_regularizer": null, "kernel_size": [1, 3]}, "inbound_nodes": [[["activation_802", 0, 0, {}]]], "name": "conv2d_803"}, {"class_name": "BatchNormalization", "config": {"beta_constraint": null, "gamma_initializer": {"class_name": "Ones", "config": {}}, "moving_mean_initializer": {"class_name": "Zeros", "config": {}}, "name": "batch_normalization_803", "epsilon": 0.001, "trainable": false, "moving_variance_initializer": {"class_name": "Ones", "config": {}}, "beta_initializer": {"class_name": "Zeros", "config": {}}, "scale": false, "axis": 3, "gamma_constraint": null, "gamma_regularizer": null, "beta_regularizer": null, "momentum": 0.99, "center": true}, "inbound_nodes": [[["conv2d_803", 0, 0, {}]]], "name": "batch_normalization_803"}, {"class_name": "Activation", "config": {"activation": "relu", "trainable": false, "name": "activation_803"}, "inbound_nodes": [[["batch_normalization_803", 0, 0, {}]]], "name": "activation_803"}, {"class_name": "Conv2D", "config": {"kernel_constraint": null, "kernel_initializer": {"class_name": "VarianceScaling", "config": {"distribution": "uniform", "scale": 1.0, "seed": null, "mode": "fan_avg"}}, "name": "conv2d_801", "bias_regularizer": null, "bias_constraint": null, "activation": "linear", "trainable": false, "data_format": "channels_last", "padding": "same", "strides": [1, 1], "dilation_rate": [1, 1], "kernel_regularizer": null, "filters": 192, "bias_initializer": {"class_name": "Zeros", "config": {}}, "use_bias": false, "activity_regularizer": null, "kernel_size": [1, 1]}, "inbound_nodes": [[["block8_7_ac", 0, 0, {}]]], "name": "conv2d_801"}, {"class_name": "Conv2D", "config": {"kernel_constraint": null, "kernel_initializer": {"class_name": "VarianceScaling", "config": {"distribution": "uniform", "scale": 1.0, "seed": null, "mode": "fan_avg"}}, "name": "conv2d_804", "bias_regularizer": null, "bias_constraint": null, "activation": "linear", "trainable": false, "data_format": "channels_last", "padding": "same", "strides": [1, 1], "dilation_rate": [1, 1], "kernel_regularizer": null, "filters": 256, "bias_initializer": {"class_name": "Zeros", "config": {}}, "use_bias": false, "activity_regularizer": null, "kernel_size": [3, 1]}, "inbound_nodes": [[["activation_803", 0, 0, {}]]], "name": "conv2d_804"}, {"class_name": "BatchNormalization", "config": {"beta_constraint": null, "gamma_initializer": {"class_name": "Ones", "config": {}}, "moving_mean_initializer": {"class_name": "Zeros", "config": {}}, "name": "batch_normalization_801", "epsilon": 0.001, "trainable": false, "moving_variance_initializer": {"class_name": "Ones", "config": {}}, "beta_initializer": {"class_name": "Zeros", "config": {}}, "scale": false, "axis": 3, "gamma_constraint": null, "gamma_regularizer": null, "beta_regularizer": null, "momentum": 0.99, "center": true}, "inbound_nodes": [[["conv2d_801", 0, 0, {}]]], "name": "batch_normalization_801"}, {"class_name": "BatchNormalization", "config": {"beta_constraint": null, "gamma_initializer": {"class_name": "Ones", "config": {}}, "moving_mean_initializer": {"class_name": "Zeros", "config": {}}, "name": "batch_normalization_804", "epsilon": 0.001, "trainable": false, "moving_variance_initializer": {"class_name": "Ones", "config": {}}, "beta_initializer": {"class_name": "Zeros", "config": {}}, "scale": false, "axis": 3, "gamma_constraint": null, "gamma_regularizer": null, "beta_regularizer": null, "momentum": 0.99, "center": true}, "inbound_nodes": [[["conv2d_804", 0, 0, {}]]], "name": "batch_normalization_804"}, {"class_name": "Activation", "config": {"activation": "relu", "trainable": false, "name": "activation_801"}, "inbound_nodes": [[["batch_normalization_801", 0, 0, {}]]], "name": "activation_801"}, {"class_name": "Activation", "config": {"activation": "relu", "trainable": false, "name": "activation_804"}, "inbound_nodes": [[["batch_normalization_804", 0, 0, {}]]], "name": "activation_804"}, {"class_name": "Concatenate", "config": {"trainable": false, "name": "block8_8_mixed", "axis": 3}, "inbound_nodes": [[["activation_801", 0, 0, {}], ["activation_804", 0, 0, {}]]], "name": "block8_8_mixed"}, {"class_name": "Conv2D", "config": {"kernel_constraint": null, "kernel_initializer": {"class_name": "VarianceScaling", "config": {"distribution": "uniform", "scale": 1.0, "seed": null, "mode": "fan_avg"}}, "name": "block8_8_conv", "bias_regularizer": null, "bias_constraint": null, "activation": "linear", "trainable": false, "data_format": "channels_last", "padding": "same", "strides": [1, 1], "dilation_rate": [1, 1], "kernel_regularizer": null, "filters": 2080, "bias_initializer": {"class_name": "Zeros", "config": {}}, "use_bias": true, "activity_regularizer": null, "kernel_size": [1, 1]}, "inbound_nodes": [[["block8_8_mixed", 0, 0, {}]]], "name": "block8_8_conv"}, {"class_name": "Lambda", "config": {"function": ["YwIAAAACAAAAAwAAAFNgAQBzFAAAAHwAAGQBABl8AABkAgAZfAEAFBdTKAMAAABOaQAAAABpAQAA\nACgAAAAAKAIAAAB0BgAAAGlucHV0c3QFAAAAc2NhbGUoAAAAACgAAAAAc1AAAAAvdXNyL2xvY2Fs\nL2xpYi9weXRob24yLjcvZGlzdC1wYWNrYWdlcy9rZXJhc19hcHBsaWNhdGlvbnMvaW5jZXB0aW9u\nX3Jlc25ldF92Mi5weXQIAAAAPGxhbWJkYT6qAAAAdAAAAAA=\n", null, null], "name": "block8_8", "trainable": false, "function_type": "lambda", "arguments": {"scale": 0.2}, "output_shape": [3, 3, 2080], "output_shape_type": "raw"}, "inbound_nodes": [[["block8_7_ac", 0, 0, {}], ["block8_8_conv", 0, 0, {}]]], "name": "block8_8"}, {"class_name": "Activation", "config": {"activation": "relu", "trainable": false, "name": "block8_8_ac"}, "inbound_nodes": [[["block8_8", 0, 0, {}]]], "name": "block8_8_ac"}, {"class_name": "Conv2D", "config": {"kernel_constraint": null, "kernel_initializer": {"class_name": "VarianceScaling", "config": {"distribution": "uniform", "scale": 1.0, "seed": null, "mode": "fan_avg"}}, "name": "conv2d_806", "bias_regularizer": null, "bias_constraint": null, "activation": "linear", "trainable": false, "data_format": "channels_last", "padding": "same", "strides": [1, 1], "dilation_rate": [1, 1], "kernel_regularizer": null, "filters": 192, "bias_initializer": {"class_name": "Zeros", "config": {}}, "use_bias": false, "activity_regularizer": null, "kernel_size": [1, 1]}, "inbound_nodes": [[["block8_8_ac", 0, 0, {}]]], "name": "conv2d_806"}, {"class_name": "BatchNormalization", "config": {"beta_constraint": null, "gamma_initializer": {"class_name": "Ones", "config": {}}, "moving_mean_initializer": {"class_name": "Zeros", "config": {}}, "name": "batch_normalization_806", "epsilon": 0.001, "trainable": false, "moving_variance_initializer": {"class_name": "Ones", "config": {}}, "beta_initializer": {"class_name": "Zeros", "config": {}}, "scale": false, "axis": 3, "gamma_constraint": null, "gamma_regularizer": null, "beta_regularizer": null, "momentum": 0.99, "center": true}, "inbound_nodes": [[["conv2d_806", 0, 0, {}]]], "name": "batch_normalization_806"}, {"class_name": "Activation", "config": {"activation": "relu", "trainable": false, "name": "activation_806"}, "inbound_nodes": [[["batch_normalization_806", 0, 0, {}]]], "name": "activation_806"}, {"class_name": "Conv2D", "config": {"kernel_constraint": null, "kernel_initializer": {"class_name": "VarianceScaling", "config": {"distribution": "uniform", "scale": 1.0, "seed": null, "mode": "fan_avg"}}, "name": "conv2d_807", "bias_regularizer": null, "bias_constraint": null, "activation": "linear", "trainable": false, "data_format": "channels_last", "padding": "same", "strides": [1, 1], "dilation_rate": [1, 1], "kernel_regularizer": null, "filters": 224, "bias_initializer": {"class_name": "Zeros", "config": {}}, "use_bias": false, "activity_regularizer": null, "kernel_size": [1, 3]}, "inbound_nodes": [[["activation_806", 0, 0, {}]]], "name": "conv2d_807"}, {"class_name": "BatchNormalization", "config": {"beta_constraint": null, "gamma_initializer": {"class_name": "Ones", "config": {}}, "moving_mean_initializer": {"class_name": "Zeros", "config": {}}, "name": "batch_normalization_807", "epsilon": 0.001, "trainable": false, "moving_variance_initializer": {"class_name": "Ones", "config": {}}, "beta_initializer": {"class_name": "Zeros", "config": {}}, "scale": false, "axis": 3, "gamma_constraint": null, "gamma_regularizer": null, "beta_regularizer": null, "momentum": 0.99, "center": true}, "inbound_nodes": [[["conv2d_807", 0, 0, {}]]], "name": "batch_normalization_807"}, {"class_name": "Activation", "config": {"activation": "relu", "trainable": false, "name": "activation_807"}, "inbound_nodes": [[["batch_normalization_807", 0, 0, {}]]], "name": "activation_807"}, {"class_name": "Conv2D", "config": {"kernel_constraint": null, "kernel_initializer": {"class_name": "VarianceScaling", "config": {"distribution": "uniform", "scale": 1.0, "seed": null, "mode": "fan_avg"}}, "name": "conv2d_805", "bias_regularizer": null, "bias_constraint": null, "activation": "linear", "trainable": false, "data_format": "channels_last", "padding": "same", "strides": [1, 1], "dilation_rate": [1, 1], "kernel_regularizer": null, "filters": 192, "bias_initializer": {"class_name": "Zeros", "config": {}}, "use_bias": false, "activity_regularizer": null, "kernel_size": [1, 1]}, "inbound_nodes": [[["block8_8_ac", 0, 0, {}]]], "name": "conv2d_805"}, {"class_name": "Conv2D", "config": {"kernel_constraint": null, "kernel_initializer": {"class_name": "VarianceScaling", "config": {"distribution": "uniform", "scale": 1.0, "seed": null, "mode": "fan_avg"}}, "name": "conv2d_808", "bias_regularizer": null, "bias_constraint": null, "activation": "linear", "trainable": false, "data_format": "channels_last", "padding": "same", "strides": [1, 1], "dilation_rate": [1, 1], "kernel_regularizer": null, "filters": 256, "bias_initializer": {"class_name": "Zeros", "config": {}}, "use_bias": false, "activity_regularizer": null, "kernel_size": [3, 1]}, "inbound_nodes": [[["activation_807", 0, 0, {}]]], "name": "conv2d_808"}, {"class_name": "BatchNormalization", "config": {"beta_constraint": null, "gamma_initializer": {"class_name": "Ones", "config": {}}, "moving_mean_initializer": {"class_name": "Zeros", "config": {}}, "name": "batch_normalization_805", "epsilon": 0.001, "trainable": false, "moving_variance_initializer": {"class_name": "Ones", "config": {}}, "beta_initializer": {"class_name": "Zeros", "config": {}}, "scale": false, "axis": 3, "gamma_constraint": null, "gamma_regularizer": null, "beta_regularizer": null, "momentum": 0.99, "center": true}, "inbound_nodes": [[["conv2d_805", 0, 0, {}]]], "name": "batch_normalization_805"}, {"class_name": "BatchNormalization", "config": {"beta_constraint": null, "gamma_initializer": {"class_name": "Ones", "config": {}}, "moving_mean_initializer": {"class_name": "Zeros", "config": {}}, "name": "batch_normalization_808", "epsilon": 0.001, "trainable": false, "moving_variance_initializer": {"class_name": "Ones", "config": {}}, "beta_initializer": {"class_name": "Zeros", "config": {}}, "scale": false, "axis": 3, "gamma_constraint": null, "gamma_regularizer": null, "beta_regularizer": null, "momentum": 0.99, "center": true}, "inbound_nodes": [[["conv2d_808", 0, 0, {}]]], "name": "batch_normalization_808"}, {"class_name": "Activation", "config": {"activation": "relu", "trainable": false, "name": "activation_805"}, "inbound_nodes": [[["batch_normalization_805", 0, 0, {}]]], "name": "activation_805"}, {"class_name": "Activation", "config": {"activation": "relu", "trainable": false, "name": "activation_808"}, "inbound_nodes": [[["batch_normalization_808", 0, 0, {}]]], "name": "activation_808"}, {"class_name": "Concatenate", "config": {"trainable": false, "name": "block8_9_mixed", "axis": 3}, "inbound_nodes": [[["activation_805", 0, 0, {}], ["activation_808", 0, 0, {}]]], "name": "block8_9_mixed"}, {"class_name": "Conv2D", "config": {"kernel_constraint": null, "kernel_initializer": {"class_name": "VarianceScaling", "config": {"distribution": "uniform", "scale": 1.0, "seed": null, "mode": "fan_avg"}}, "name": "block8_9_conv", "bias_regularizer": null, "bias_constraint": null, "activation": "linear", "trainable": false, "data_format": "channels_last", "padding": "same", "strides": [1, 1], "dilation_rate": [1, 1], "kernel_regularizer": null, "filters": 2080, "bias_initializer": {"class_name": "Zeros", "config": {}}, "use_bias": true, "activity_regularizer": null, "kernel_size": [1, 1]}, "inbound_nodes": [[["block8_9_mixed", 0, 0, {}]]], "name": "block8_9_conv"}, {"class_name": "Lambda", "config": {"function": ["YwIAAAACAAAAAwAAAFNgAQBzFAAAAHwAAGQBABl8AABkAgAZfAEAFBdTKAMAAABOaQAAAABpAQAA\nACgAAAAAKAIAAAB0BgAAAGlucHV0c3QFAAAAc2NhbGUoAAAAACgAAAAAc1AAAAAvdXNyL2xvY2Fs\nL2xpYi9weXRob24yLjcvZGlzdC1wYWNrYWdlcy9rZXJhc19hcHBsaWNhdGlvbnMvaW5jZXB0aW9u\nX3Jlc25ldF92Mi5weXQIAAAAPGxhbWJkYT6qAAAAdAAAAAA=\n", null, null], "name": "block8_9", "trainable": false, "function_type": "lambda", "arguments": {"scale": 0.2}, "output_shape": [3, 3, 2080], "output_shape_type": "raw"}, "inbound_nodes": [[["block8_8_ac", 0, 0, {}], ["block8_9_conv", 0, 0, {}]]], "name": "block8_9"}, {"class_name": "Activation", "config": {"activation": "relu", "trainable": false, "name": "block8_9_ac"}, "inbound_nodes": [[["block8_9", 0, 0, {}]]], "name": "block8_9_ac"}, {"class_name": "Conv2D", "config": {"kernel_constraint": null, "kernel_initializer": {"class_name": "VarianceScaling", "config": {"distribution": "uniform", "scale": 1.0, "seed": null, "mode": "fan_avg"}}, "name": "conv2d_810", "bias_regularizer": null, "bias_constraint": null, "activation": "linear", "trainable": false, "data_format": "channels_last", "padding": "same", "strides": [1, 1], "dilation_rate": [1, 1], "kernel_regularizer": null, "filters": 192, "bias_initializer": {"class_name": "Zeros", "config": {}}, "use_bias": false, "activity_regularizer": null, "kernel_size": [1, 1]}, "inbound_nodes": [[["block8_9_ac", 0, 0, {}]]], "name": "conv2d_810"}, {"class_name": "BatchNormalization", "config": {"beta_constraint": null, "gamma_initializer": {"class_name": "Ones", "config": {}}, "moving_mean_initializer": {"class_name": "Zeros", "config": {}}, "name": "batch_normalization_810", "epsilon": 0.001, "trainable": false, "moving_variance_initializer": {"class_name": "Ones", "config": {}}, "beta_initializer": {"class_name": "Zeros", "config": {}}, "scale": false, "axis": 3, "gamma_constraint": null, "gamma_regularizer": null, "beta_regularizer": null, "momentum": 0.99, "center": true}, "inbound_nodes": [[["conv2d_810", 0, 0, {}]]], "name": "batch_normalization_810"}, {"class_name": "Activation", "config": {"activation": "relu", "trainable": false, "name": "activation_810"}, "inbound_nodes": [[["batch_normalization_810", 0, 0, {}]]], "name": "activation_810"}, {"class_name": "Conv2D", "config": {"kernel_constraint": null, "kernel_initializer": {"class_name": "VarianceScaling", "config": {"distribution": "uniform", "scale": 1.0, "seed": null, "mode": "fan_avg"}}, "name": "conv2d_811", "bias_regularizer": null, "bias_constraint": null, "activation": "linear", "trainable": false, "data_format": "channels_last", "padding": "same", "strides": [1, 1], "dilation_rate": [1, 1], "kernel_regularizer": null, "filters": 224, "bias_initializer": {"class_name": "Zeros", "config": {}}, "use_bias": false, "activity_regularizer": null, "kernel_size": [1, 3]}, "inbound_nodes": [[["activation_810", 0, 0, {}]]], "name": "conv2d_811"}, {"class_name": "BatchNormalization", "config": {"beta_constraint": null, "gamma_initializer": {"class_name": "Ones", "config": {}}, "moving_mean_initializer": {"class_name": "Zeros", "config": {}}, "name": "batch_normalization_811", "epsilon": 0.001, "trainable": false, "moving_variance_initializer": {"class_name": "Ones", "config": {}}, "beta_initializer": {"class_name": "Zeros", "config": {}}, "scale": false, "axis": 3, "gamma_constraint": null, "gamma_regularizer": null, "beta_regularizer": null, "momentum": 0.99, "center": true}, "inbound_nodes": [[["conv2d_811", 0, 0, {}]]], "name": "batch_normalization_811"}, {"class_name": "Activation", "config": {"activation": "relu", "trainable": false, "name": "activation_811"}, "inbound_nodes": [[["batch_normalization_811", 0, 0, {}]]], "name": "activation_811"}, {"class_name": "Conv2D", "config": {"kernel_constraint": null, "kernel_initializer": {"class_name": "VarianceScaling", "config": {"distribution": "uniform", "scale": 1.0, "seed": null, "mode": "fan_avg"}}, "name": "conv2d_809", "bias_regularizer": null, "bias_constraint": null, "activation": "linear", "trainable": false, "data_format": "channels_last", "padding": "same", "strides": [1, 1], "dilation_rate": [1, 1], "kernel_regularizer": null, "filters": 192, "bias_initializer": {"class_name": "Zeros", "config": {}}, "use_bias": false, "activity_regularizer": null, "kernel_size": [1, 1]}, "inbound_nodes": [[["block8_9_ac", 0, 0, {}]]], "name": "conv2d_809"}, {"class_name": "Conv2D", "config": {"kernel_constraint": null, "kernel_initializer": {"class_name": "VarianceScaling", "config": {"distribution": "uniform", "scale": 1.0, "seed": null, "mode": "fan_avg"}}, "name": "conv2d_812", "bias_regularizer": null, "bias_constraint": null, "activation": "linear", "trainable": false, "data_format": "channels_last", "padding": "same", "strides": [1, 1], "dilation_rate": [1, 1], "kernel_regularizer": null, "filters": 256, "bias_initializer": {"class_name": "Zeros", "config": {}}, "use_bias": false, "activity_regularizer": null, "kernel_size": [3, 1]}, "inbound_nodes": [[["activation_811", 0, 0, {}]]], "name": "conv2d_812"}, {"class_name": "BatchNormalization", "config": {"beta_constraint": null, "gamma_initializer": {"class_name": "Ones", "config": {}}, "moving_mean_initializer": {"class_name": "Zeros", "config": {}}, "name": "batch_normalization_809", "epsilon": 0.001, "trainable": false, "moving_variance_initializer": {"class_name": "Ones", "config": {}}, "beta_initializer": {"class_name": "Zeros", "config": {}}, "scale": false, "axis": 3, "gamma_constraint": null, "gamma_regularizer": null, "beta_regularizer": null, "momentum": 0.99, "center": true}, "inbound_nodes": [[["conv2d_809", 0, 0, {}]]], "name": "batch_normalization_809"}, {"class_name": "BatchNormalization", "config": {"beta_constraint": null, "gamma_initializer": {"class_name": "Ones", "config": {}}, "moving_mean_initializer": {"class_name": "Zeros", "config": {}}, "name": "batch_normalization_812", "epsilon": 0.001, "trainable": false, "moving_variance_initializer": {"class_name": "Ones", "config": {}}, "beta_initializer": {"class_name": "Zeros", "config": {}}, "scale": false, "axis": 3, "gamma_constraint": null, "gamma_regularizer": null, "beta_regularizer": null, "momentum": 0.99, "center": true}, "inbound_nodes": [[["conv2d_812", 0, 0, {}]]], "name": "batch_normalization_812"}, {"class_name": "Activation", "config": {"activation": "relu", "trainable": false, "name": "activation_809"}, "inbound_nodes": [[["batch_normalization_809", 0, 0, {}]]], "name": "activation_809"}, {"class_name": "Activation", "config": {"activation": "relu", "trainable": false, "name": "activation_812"}, "inbound_nodes": [[["batch_normalization_812", 0, 0, {}]]], "name": "activation_812"}, {"class_name": "Concatenate", "config": {"trainable": false, "name": "block8_10_mixed", "axis": 3}, "inbound_nodes": [[["activation_809", 0, 0, {}], ["activation_812", 0, 0, {}]]], "name": "block8_10_mixed"}, {"class_name": "Conv2D", "config": {"kernel_constraint": null, "kernel_initializer": {"class_name": "VarianceScaling", "config": {"distribution": "uniform", "scale": 1.0, "seed": null, "mode": "fan_avg"}}, "name": "block8_10_conv", "bias_regularizer": null, "bias_constraint": null, "activation": "linear", "trainable": false, "data_format": "channels_last", "padding": "same", "strides": [1, 1], "dilation_rate": [1, 1], "kernel_regularizer": null, "filters": 2080, "bias_initializer": {"class_name": "Zeros", "config": {}}, "use_bias": true, "activity_regularizer": null, "kernel_size": [1, 1]}, "inbound_nodes": [[["block8_10_mixed", 0, 0, {}]]], "name": "block8_10_conv"}, {"class_name": "Lambda", "config": {"function": ["YwIAAAACAAAAAwAAAFNgAQBzFAAAAHwAAGQBABl8AABkAgAZfAEAFBdTKAMAAABOaQAAAABpAQAA\nACgAAAAAKAIAAAB0BgAAAGlucHV0c3QFAAAAc2NhbGUoAAAAACgAAAAAc1AAAAAvdXNyL2xvY2Fs\nL2xpYi9weXRob24yLjcvZGlzdC1wYWNrYWdlcy9rZXJhc19hcHBsaWNhdGlvbnMvaW5jZXB0aW9u\nX3Jlc25ldF92Mi5weXQIAAAAPGxhbWJkYT6qAAAAdAAAAAA=\n", null, null], "name": "block8_10", "trainable": false, "function_type": "lambda", "arguments": {"scale": 1.0}, "output_shape": [3, 3, 2080], "output_shape_type": "raw"}, "inbound_nodes": [[["block8_9_ac", 0, 0, {}], ["block8_10_conv", 0, 0, {}]]], "name": "block8_10"}, {"class_name": "Conv2D", "config": {"kernel_constraint": null, "kernel_initializer": {"class_name": "VarianceScaling", "config": {"distribution": "uniform", "scale": 1.0, "seed": null, "mode": "fan_avg"}}, "name": "conv_7b", "bias_regularizer": null, "bias_constraint": null, "activation": "linear", "trainable": false, "data_format": "channels_last", "padding": "same", "strides": [1, 1], "dilation_rate": [1, 1], "kernel_regularizer": null, "filters": 1536, "bias_initializer": {"class_name": "Zeros", "config": {}}, "use_bias": false, "activity_regularizer": null, "kernel_size": [1, 1]}, "inbound_nodes": [[["block8_10", 0, 0, {}]]], "name": "conv_7b"}, {"class_name": "BatchNormalization", "config": {"beta_constraint": null, "gamma_initializer": {"class_name": "Ones", "config": {}}, "moving_mean_initializer": {"class_name": "Zeros", "config": {}}, "name": "conv_7b_bn", "epsilon": 0.001, "trainable": false, "moving_variance_initializer": {"class_name": "Ones", "config": {}}, "beta_initializer": {"class_name": "Zeros", "config": {}}, "scale": false, "axis": 3, "gamma_constraint": null, "gamma_regularizer": null, "beta_regularizer": null, "momentum": 0.99, "center": true}, "inbound_nodes": [[["conv_7b", 0, 0, {}]]], "name": "conv_7b_bn"}, {"class_name": "Activation", "config": {"activation": "relu", "trainable": false, "name": "conv_7b_ac"}, "inbound_nodes": [[["conv_7b_bn", 0, 0, {}]]], "name": "conv_7b_ac"}, {"class_name": "GlobalAveragePooling2D", "config": {"trainable": true, "name": "global_average_pooling2d_4", "data_format": "channels_last"}, "inbound_nodes": [[["conv_7b_ac", 0, 0, {}]]], "name": "global_average_pooling2d_4"}, {"class_name": "Dense", "config": {"kernel_initializer": {"class_name": "VarianceScaling", "config": {"distribution": "uniform", "scale": 1.0, "seed": null, "mode": "fan_avg"}}, "name": "dense_4", "kernel_constraint": null, "bias_regularizer": null, "bias_constraint": null, "activation": "relu", "trainable": true, "kernel_regularizer": null, "bias_initializer": {"class_name": "Zeros", "config": {}}, "units": 1024, "use_bias": true, "activity_regularizer": null}, "inbound_nodes": [[["global_average_pooling2d_4", 0, 0, {}]]], "name": "dense_4"}, {"class_name": "Dropout", "config": {"rate": 0.5, "noise_shape": null, "trainable": true, "seed": null, "name": "dropout_4"}, "inbound_nodes": [[["dense_4", 0, 0, {}]]], "name": "dropout_4"}, {"class_name": "Dense", "config": {"kernel_initializer": {"class_name": "VarianceScaling", "config": {"distribution": "uniform", "scale": 1.0, "seed": null, "mode": "fan_avg"}}, "name": "logits", "kernel_constraint": null, "bias_regularizer": null, "bias_constraint": null, "activation": "linear", "trainable": true, "kernel_regularizer": null, "bias_initializer": {"class_name": "Zeros", "config": {}}, "units": 10, "use_bias": true, "activity_regularizer": null}, "inbound_nodes": [[["dropout_4", 0, 0, {}]]], "name": "logits"}, {"class_name": "Activation", "config": {"activation": "softmax", "trainable": true, "name": "absolute_output"}, "inbound_nodes": [[["logits", 0, 0, {}]]], "name": "absolute_output"}], "input_layers": [["absolute_input", 0, 0]], "output_layers": [["absolute_output", 0, 0]], "name": "model_4"}, "backend": "tensorflow"}