{"class_name": "Model", "keras_version": "2.2.2", "config": {"layers": [{"class_name": "InputLayer", "config": {"dtype": "float32", "batch_input_shape": [null, 200, 200, 3], "name": "absolute_input", "sparse": false}, "inbound_nodes": [], "name": "absolute_input"}, {"class_name": "Conv2D", "config": {"kernel_constraint": null, "kernel_initializer": {"class_name": "VarianceScaling", "config": {"distribution": "uniform", "scale": 1.0, "seed": null, "mode": "fan_avg"}}, "name": "conv2d_95", "bias_regularizer": null, "bias_constraint": null, "activation": "linear", "trainable": false, "data_format": "channels_last", "padding": "valid", "strides": [2, 2], "dilation_rate": [1, 1], "kernel_regularizer": null, "filters": 32, "bias_initializer": {"class_name": "Zeros", "config": {}}, "use_bias": false, "activity_regularizer": null, "kernel_size": [3, 3]}, "inbound_nodes": [[["absolute_input", 0, 0, {}]]], "name": "conv2d_95"}, {"class_name": "BatchNormalization", "config": {"beta_constraint": null, "gamma_initializer": {"class_name": "Ones", "config": {}}, "moving_mean_initializer": {"class_name": "Zeros", "config": {}}, "name": "batch_normalization_95", "epsilon": 0.001, "trainable": false, "moving_variance_initializer": {"class_name": "Ones", "config": {}}, "beta_initializer": {"class_name": "Zeros", "config": {}}, "scale": false, "axis": 3, "gamma_constraint": null, "gamma_regularizer": null, "beta_regularizer": null, "momentum": 0.99, "center": true}, "inbound_nodes": [[["conv2d_95", 0, 0, {}]]], "name": "batch_normalization_95"}, {"class_name": "Activation", "config": {"activation": "relu", "trainable": false, "name": "activation_95"}, "inbound_nodes": [[["batch_normalization_95", 0, 0, {}]]], "name": "activation_95"}, {"class_name": "Conv2D", "config": {"kernel_constraint": null, "kernel_initializer": {"class_name": "VarianceScaling", "config": {"distribution": "uniform", "scale": 1.0, "seed": null, "mode": "fan_avg"}}, "name": "conv2d_96", "bias_regularizer": null, "bias_constraint": null, "activation": "linear", "trainable": false, "data_format": "channels_last", "padding": "valid", "strides": [1, 1], "dilation_rate": [1, 1], "kernel_regularizer": null, "filters": 32, "bias_initializer": {"class_name": "Zeros", "config": {}}, "use_bias": false, "activity_regularizer": null, "kernel_size": [3, 3]}, "inbound_nodes": [[["activation_95", 0, 0, {}]]], "name": "conv2d_96"}, {"class_name": "BatchNormalization", "config": {"beta_constraint": null, "gamma_initializer": {"class_name": "Ones", "config": {}}, "moving_mean_initializer": {"class_name": "Zeros", "config": {}}, "name": "batch_normalization_96", "epsilon": 0.001, "trainable": false, "moving_variance_initializer": {"class_name": "Ones", "config": {}}, "beta_initializer": {"class_name": "Zeros", "config": {}}, "scale": false, "axis": 3, "gamma_constraint": null, "gamma_regularizer": null, "beta_regularizer": null, "momentum": 0.99, "center": true}, "inbound_nodes": [[["conv2d_96", 0, 0, {}]]], "name": "batch_normalization_96"}, {"class_name": "Activation", "config": {"activation": "relu", "trainable": false, "name": "activation_96"}, "inbound_nodes": [[["batch_normalization_96", 0, 0, {}]]], "name": "activation_96"}, {"class_name": "Conv2D", "config": {"kernel_constraint": null, "kernel_initializer": {"class_name": "VarianceScaling", "config": {"distribution": "uniform", "scale": 1.0, "seed": null, "mode": "fan_avg"}}, "name": "conv2d_97", "bias_regularizer": null, "bias_constraint": null, "activation": "linear", "trainable": false, "data_format": "channels_last", "padding": "same", "strides": [1, 1], "dilation_rate": [1, 1], "kernel_regularizer": null, "filters": 64, "bias_initializer": {"class_name": "Zeros", "config": {}}, "use_bias": false, "activity_regularizer": null, "kernel_size": [3, 3]}, "inbound_nodes": [[["activation_96", 0, 0, {}]]], "name": "conv2d_97"}, {"class_name": "BatchNormalization", "config": {"beta_constraint": null, "gamma_initializer": {"class_name": "Ones", "config": {}}, "moving_mean_initializer": {"class_name": "Zeros", "config": {}}, "name": "batch_normalization_97", "epsilon": 0.001, "trainable": false, "moving_variance_initializer": {"class_name": "Ones", "config": {}}, "beta_initializer": {"class_name": "Zeros", "config": {}}, "scale": false, "axis": 3, "gamma_constraint": null, "gamma_regularizer": null, "beta_regularizer": null, "momentum": 0.99, "center": true}, "inbound_nodes": [[["conv2d_97", 0, 0, {}]]], "name": "batch_normalization_97"}, {"class_name": "Activation", "config": {"activation": "relu", "trainable": false, "name": "activation_97"}, "inbound_nodes": [[["batch_normalization_97", 0, 0, {}]]], "name": "activation_97"}, {"class_name": "MaxPooling2D", "config": {"name": "max_pooling2d_5", "trainable": false, "data_format": "channels_last", "pool_size": [3, 3], "padding": "valid", "strides": [2, 2]}, "inbound_nodes": [[["activation_97", 0, 0, {}]]], "name": "max_pooling2d_5"}, {"class_name": "Conv2D", "config": {"kernel_constraint": null, "kernel_initializer": {"class_name": "VarianceScaling", "config": {"distribution": "uniform", "scale": 1.0, "seed": null, "mode": "fan_avg"}}, "name": "conv2d_98", "bias_regularizer": null, "bias_constraint": null, "activation": "linear", "trainable": false, "data_format": "channels_last", "padding": "valid", "strides": [1, 1], "dilation_rate": [1, 1], "kernel_regularizer": null, "filters": 80, "bias_initializer": {"class_name": "Zeros", "config": {}}, "use_bias": false, "activity_regularizer": null, "kernel_size": [1, 1]}, "inbound_nodes": [[["max_pooling2d_5", 0, 0, {}]]], "name": "conv2d_98"}, {"class_name": "BatchNormalization", "config": {"beta_constraint": null, "gamma_initializer": {"class_name": "Ones", "config": {}}, "moving_mean_initializer": {"class_name": "Zeros", "config": {}}, "name": "batch_normalization_98", "epsilon": 0.001, "trainable": false, "moving_variance_initializer": {"class_name": "Ones", "config": {}}, "beta_initializer": {"class_name": "Zeros", "config": {}}, "scale": false, "axis": 3, "gamma_constraint": null, "gamma_regularizer": null, "beta_regularizer": null, "momentum": 0.99, "center": true}, "inbound_nodes": [[["conv2d_98", 0, 0, {}]]], "name": "batch_normalization_98"}, {"class_name": "Activation", "config": {"activation": "relu", "trainable": false, "name": "activation_98"}, "inbound_nodes": [[["batch_normalization_98", 0, 0, {}]]], "name": "activation_98"}, {"class_name": "Conv2D", "config": {"kernel_constraint": null, "kernel_initializer": {"class_name": "VarianceScaling", "config": {"distribution": "uniform", "scale": 1.0, "seed": null, "mode": "fan_avg"}}, "name": "conv2d_99", "bias_regularizer": null, "bias_constraint": null, "activation": "linear", "trainable": false, "data_format": "channels_last", "padding": "valid", "strides": [1, 1], "dilation_rate": [1, 1], "kernel_regularizer": null, "filters": 192, "bias_initializer": {"class_name": "Zeros", "config": {}}, "use_bias": false, "activity_regularizer": null, "kernel_size": [3, 3]}, "inbound_nodes": [[["activation_98", 0, 0, {}]]], "name": "conv2d_99"}, {"class_name": "BatchNormalization", "config": {"beta_constraint": null, "gamma_initializer": {"class_name": "Ones", "config": {}}, "moving_mean_initializer": {"class_name": "Zeros", "config": {}}, "name": "batch_normalization_99", "epsilon": 0.001, "trainable": false, "moving_variance_initializer": {"class_name": "Ones", "config": {}}, "beta_initializer": {"class_name": "Zeros", "config": {}}, "scale": false, "axis": 3, "gamma_constraint": null, "gamma_regularizer": null, "beta_regularizer": null, "momentum": 0.99, "center": true}, "inbound_nodes": [[["conv2d_99", 0, 0, {}]]], "name": "batch_normalization_99"}, {"class_name": "Activation", "config": {"activation": "relu", "trainable": false, "name": "activation_99"}, "inbound_nodes": [[["batch_normalization_99", 0, 0, {}]]], "name": "activation_99"}, {"class_name": "MaxPooling2D", "config": {"name": "max_pooling2d_6", "trainable": false, "data_format": "channels_last", "pool_size": [3, 3], "padding": "valid", "strides": [2, 2]}, "inbound_nodes": [[["activation_99", 0, 0, {}]]], "name": "max_pooling2d_6"}, {"class_name": "Conv2D", "config": {"kernel_constraint": null, "kernel_initializer": {"class_name": "VarianceScaling", "config": {"distribution": "uniform", "scale": 1.0, "seed": null, "mode": "fan_avg"}}, "name": "conv2d_103", "bias_regularizer": null, "bias_constraint": null, "activation": "linear", "trainable": false, "data_format": "channels_last", "padding": "same", "strides": [1, 1], "dilation_rate": [1, 1], "kernel_regularizer": null, "filters": 64, "bias_initializer": {"class_name": "Zeros", "config": {}}, "use_bias": false, "activity_regularizer": null, "kernel_size": [1, 1]}, "inbound_nodes": [[["max_pooling2d_6", 0, 0, {}]]], "name": "conv2d_103"}, {"class_name": "BatchNormalization", "config": {"beta_constraint": null, "gamma_initializer": {"class_name": "Ones", "config": {}}, "moving_mean_initializer": {"class_name": "Zeros", "config": {}}, "name": "batch_normalization_103", "epsilon": 0.001, "trainable": false, "moving_variance_initializer": {"class_name": "Ones", "config": {}}, "beta_initializer": {"class_name": "Zeros", "config": {}}, "scale": false, "axis": 3, "gamma_constraint": null, "gamma_regularizer": null, "beta_regularizer": null, "momentum": 0.99, "center": true}, "inbound_nodes": [[["conv2d_103", 0, 0, {}]]], "name": "batch_normalization_103"}, {"class_name": "Activation", "config": {"activation": "relu", "trainable": false, "name": "activation_103"}, "inbound_nodes": [[["batch_normalization_103", 0, 0, {}]]], "name": "activation_103"}, {"class_name": "Conv2D", "config": {"kernel_constraint": null, "kernel_initializer": {"class_name": "VarianceScaling", "config": {"distribution": "uniform", "scale": 1.0, "seed": null, "mode": "fan_avg"}}, "name": "conv2d_101", "bias_regularizer": null, "bias_constraint": null, "activation": "linear", "trainable": false, "data_format": "channels_last", "padding": "same", "strides": [1, 1], "dilation_rate": [1, 1], "kernel_regularizer": null, "filters": 48, "bias_initializer": {"class_name": "Zeros", "config": {}}, "use_bias": false, "activity_regularizer": null, "kernel_size": [1, 1]}, "inbound_nodes": [[["max_pooling2d_6", 0, 0, {}]]], "name": "conv2d_101"}, {"class_name": "Conv2D", "config": {"kernel_constraint": null, "kernel_initializer": {"class_name": "VarianceScaling", "config": {"distribution": "uniform", "scale": 1.0, "seed": null, "mode": "fan_avg"}}, "name": "conv2d_104", "bias_regularizer": null, "bias_constraint": null, "activation": "linear", "trainable": false, "data_format": "channels_last", "padding": "same", "strides": [1, 1], "dilation_rate": [1, 1], "kernel_regularizer": null, "filters": 96, "bias_initializer": {"class_name": "Zeros", "config": {}}, "use_bias": false, "activity_regularizer": null, "kernel_size": [3, 3]}, "inbound_nodes": [[["activation_103", 0, 0, {}]]], "name": "conv2d_104"}, {"class_name": "BatchNormalization", "config": {"beta_constraint": null, "gamma_initializer": {"class_name": "Ones", "config": {}}, "moving_mean_initializer": {"class_name": "Zeros", "config": {}}, "name": "batch_normalization_101", "epsilon": 0.001, "trainable": false, "moving_variance_initializer": {"class_name": "Ones", "config": {}}, "beta_initializer": {"class_name": "Zeros", "config": {}}, "scale": false, "axis": 3, "gamma_constraint": null, "gamma_regularizer": null, "beta_regularizer": null, "momentum": 0.99, "center": true}, "inbound_nodes": [[["conv2d_101", 0, 0, {}]]], "name": "batch_normalization_101"}, {"class_name": "BatchNormalization", "config": {"beta_constraint": null, "gamma_initializer": {"class_name": "Ones", "config": {}}, "moving_mean_initializer": {"class_name": "Zeros", "config": {}}, "name": "batch_normalization_104", "epsilon": 0.001, "trainable": false, "moving_variance_initializer": {"class_name": "Ones", "config": {}}, "beta_initializer": {"class_name": "Zeros", "config": {}}, "scale": false, "axis": 3, "gamma_constraint": null, "gamma_regularizer": null, "beta_regularizer": null, "momentum": 0.99, "center": true}, "inbound_nodes": [[["conv2d_104", 0, 0, {}]]], "name": "batch_normalization_104"}, {"class_name": "Activation", "config": {"activation": "relu", "trainable": false, "name": "activation_101"}, "inbound_nodes": [[["batch_normalization_101", 0, 0, {}]]], "name": "activation_101"}, {"class_name": "Activation", "config": {"activation": "relu", "trainable": false, "name": "activation_104"}, "inbound_nodes": [[["batch_normalization_104", 0, 0, {}]]], "name": "activation_104"}, {"class_name": "AveragePooling2D", "config": {"name": "average_pooling2d_10", "trainable": false, "data_format": "channels_last", "pool_size": [3, 3], "padding": "same", "strides": [1, 1]}, "inbound_nodes": [[["max_pooling2d_6", 0, 0, {}]]], "name": "average_pooling2d_10"}, {"class_name": "Conv2D", "config": {"kernel_constraint": null, "kernel_initializer": {"class_name": "VarianceScaling", "config": {"distribution": "uniform", "scale": 1.0, "seed": null, "mode": "fan_avg"}}, "name": "conv2d_100", "bias_regularizer": null, "bias_constraint": null, "activation": "linear", "trainable": false, "data_format": "channels_last", "padding": "same", "strides": [1, 1], "dilation_rate": [1, 1], "kernel_regularizer": null, "filters": 96, "bias_initializer": {"class_name": "Zeros", "config": {}}, "use_bias": false, "activity_regularizer": null, "kernel_size": [1, 1]}, "inbound_nodes": [[["max_pooling2d_6", 0, 0, {}]]], "name": "conv2d_100"}, {"class_name": "Conv2D", "config": {"kernel_constraint": null, "kernel_initializer": {"class_name": "VarianceScaling", "config": {"distribution": "uniform", "scale": 1.0, "seed": null, "mode": "fan_avg"}}, "name": "conv2d_102", "bias_regularizer": null, "bias_constraint": null, "activation": "linear", "trainable": false, "data_format": "channels_last", "padding": "same", "strides": [1, 1], "dilation_rate": [1, 1], "kernel_regularizer": null, "filters": 64, "bias_initializer": {"class_name": "Zeros", "config": {}}, "use_bias": false, "activity_regularizer": null, "kernel_size": [5, 5]}, "inbound_nodes": [[["activation_101", 0, 0, {}]]], "name": "conv2d_102"}, {"class_name": "Conv2D", "config": {"kernel_constraint": null, "kernel_initializer": {"class_name": "VarianceScaling", "config": {"distribution": "uniform", "scale": 1.0, "seed": null, "mode": "fan_avg"}}, "name": "conv2d_105", "bias_regularizer": null, "bias_constraint": null, "activation": "linear", "trainable": false, "data_format": "channels_last", "padding": "same", "strides": [1, 1], "dilation_rate": [1, 1], "kernel_regularizer": null, "filters": 96, "bias_initializer": {"class_name": "Zeros", "config": {}}, "use_bias": false, "activity_regularizer": null, "kernel_size": [3, 3]}, "inbound_nodes": [[["activation_104", 0, 0, {}]]], "name": "conv2d_105"}, {"class_name": "Conv2D", "config": {"kernel_constraint": null, "kernel_initializer": {"class_name": "VarianceScaling", "config": {"distribution": "uniform", "scale": 1.0, "seed": null, "mode": "fan_avg"}}, "name": "conv2d_106", "bias_regularizer": null, "bias_constraint": null, "activation": "linear", "trainable": false, "data_format": "channels_last", "padding": "same", "strides": [1, 1], "dilation_rate": [1, 1], "kernel_regularizer": null, "filters": 64, "bias_initializer": {"class_name": "Zeros", "config": {}}, "use_bias": false, "activity_regularizer": null, "kernel_size": [1, 1]}, "inbound_nodes": [[["average_pooling2d_10", 0, 0, {}]]], "name": "conv2d_106"}, {"class_name": "BatchNormalization", "config": {"beta_constraint": null, "gamma_initializer": {"class_name": "Ones", "config": {}}, "moving_mean_initializer": {"class_name": "Zeros", "config": {}}, "name": "batch_normalization_100", "epsilon": 0.001, "trainable": false, "moving_variance_initializer": {"class_name": "Ones", "config": {}}, "beta_initializer": {"class_name": "Zeros", "config": {}}, "scale": false, "axis": 3, "gamma_constraint": null, "gamma_regularizer": null, "beta_regularizer": null, "momentum": 0.99, "center": true}, "inbound_nodes": [[["conv2d_100", 0, 0, {}]]], "name": "batch_normalization_100"}, {"class_name": "BatchNormalization", "config": {"beta_constraint": null, "gamma_initializer": {"class_name": "Ones", "config": {}}, "moving_mean_initializer": {"class_name": "Zeros", "config": {}}, "name": "batch_normalization_102", "epsilon": 0.001, "trainable": false, "moving_variance_initializer": {"class_name": "Ones", "config": {}}, "beta_initializer": {"class_name": "Zeros", "config": {}}, "scale": false, "axis": 3, "gamma_constraint": null, "gamma_regularizer": null, "beta_regularizer": null, "momentum": 0.99, "center": true}, "inbound_nodes": [[["conv2d_102", 0, 0, {}]]], "name": "batch_normalization_102"}, {"class_name": "BatchNormalization", "config": {"beta_constraint": null, "gamma_initializer": {"class_name": "Ones", "config": {}}, "moving_mean_initializer": {"class_name": "Zeros", "config": {}}, "name": "batch_normalization_105", "epsilon": 0.001, "trainable": false, "moving_variance_initializer": {"class_name": "Ones", "config": {}}, "beta_initializer": {"class_name": "Zeros", "config": {}}, "scale": false, "axis": 3, "gamma_constraint": null, "gamma_regularizer": null, "beta_regularizer": null, "momentum": 0.99, "center": true}, "inbound_nodes": [[["conv2d_105", 0, 0, {}]]], "name": "batch_normalization_105"}, {"class_name": "BatchNormalization", "config": {"beta_constraint": null, "gamma_initializer": {"class_name": "Ones", "config": {}}, "moving_mean_initializer": {"class_name": "Zeros", "config": {}}, "name": "batch_normalization_106", "epsilon": 0.001, "trainable": false, "moving_variance_initializer": {"class_name": "Ones", "config": {}}, "beta_initializer": {"class_name": "Zeros", "config": {}}, "scale": false, "axis": 3, "gamma_constraint": null, "gamma_regularizer": null, "beta_regularizer": null, "momentum": 0.99, "center": true}, "inbound_nodes": [[["conv2d_106", 0, 0, {}]]], "name": "batch_normalization_106"}, {"class_name": "Activation", "config": {"activation": "relu", "trainable": false, "name": "activation_100"}, "inbound_nodes": [[["batch_normalization_100", 0, 0, {}]]], "name": "activation_100"}, {"class_name": "Activation", "config": {"activation": "relu", "trainable": false, "name": "activation_102"}, "inbound_nodes": [[["batch_normalization_102", 0, 0, {}]]], "name": "activation_102"}, {"class_name": "Activation", "config": {"activation": "relu", "trainable": false, "name": "activation_105"}, "inbound_nodes": [[["batch_normalization_105", 0, 0, {}]]], "name": "activation_105"}, {"class_name": "Activation", "config": {"activation": "relu", "trainable": false, "name": "activation_106"}, "inbound_nodes": [[["batch_normalization_106", 0, 0, {}]]], "name": "activation_106"}, {"class_name": "Concatenate", "config": {"trainable": false, "name": "mixed_5b", "axis": 3}, "inbound_nodes": [[["activation_100", 0, 0, {}], ["activation_102", 0, 0, {}], ["activation_105", 0, 0, {}], ["activation_106", 0, 0, {}]]], "name": "mixed_5b"}, {"class_name": "Conv2D", "config": {"kernel_constraint": null, "kernel_initializer": {"class_name": "VarianceScaling", "config": {"distribution": "uniform", "scale": 1.0, "seed": null, "mode": "fan_avg"}}, "name": "conv2d_110", "bias_regularizer": null, "bias_constraint": null, "activation": "linear", "trainable": false, "data_format": "channels_last", "padding": "same", "strides": [1, 1], "dilation_rate": [1, 1], "kernel_regularizer": null, "filters": 32, "bias_initializer": {"class_name": "Zeros", "config": {}}, "use_bias": false, "activity_regularizer": null, "kernel_size": [1, 1]}, "inbound_nodes": [[["mixed_5b", 0, 0, {}]]], "name": "conv2d_110"}, {"class_name": "BatchNormalization", "config": {"beta_constraint": null, "gamma_initializer": {"class_name": "Ones", "config": {}}, "moving_mean_initializer": {"class_name": "Zeros", "config": {}}, "name": "batch_normalization_110", "epsilon": 0.001, "trainable": false, "moving_variance_initializer": {"class_name": "Ones", "config": {}}, "beta_initializer": {"class_name": "Zeros", "config": {}}, "scale": false, "axis": 3, "gamma_constraint": null, "gamma_regularizer": null, "beta_regularizer": null, "momentum": 0.99, "center": true}, "inbound_nodes": [[["conv2d_110", 0, 0, {}]]], "name": "batch_normalization_110"}, {"class_name": "Activation", "config": {"activation": "relu", "trainable": false, "name": "activation_110"}, "inbound_nodes": [[["batch_normalization_110", 0, 0, {}]]], "name": "activation_110"}, {"class_name": "Conv2D", "config": {"kernel_constraint": null, "kernel_initializer": {"class_name": "VarianceScaling", "config": {"distribution": "uniform", "scale": 1.0, "seed": null, "mode": "fan_avg"}}, "name": "conv2d_108", "bias_regularizer": null, "bias_constraint": null, "activation": "linear", "trainable": false, "data_format": "channels_last", "padding": "same", "strides": [1, 1], "dilation_rate": [1, 1], "kernel_regularizer": null, "filters": 32, "bias_initializer": {"class_name": "Zeros", "config": {}}, "use_bias": false, "activity_regularizer": null, "kernel_size": [1, 1]}, "inbound_nodes": [[["mixed_5b", 0, 0, {}]]], "name": "conv2d_108"}, {"class_name": "Conv2D", "config": {"kernel_constraint": null, "kernel_initializer": {"class_name": "VarianceScaling", "config": {"distribution": "uniform", "scale": 1.0, "seed": null, "mode": "fan_avg"}}, "name": "conv2d_111", "bias_regularizer": null, "bias_constraint": null, "activation": "linear", "trainable": false, "data_format": "channels_last", "padding": "same", "strides": [1, 1], "dilation_rate": [1, 1], "kernel_regularizer": null, "filters": 48, "bias_initializer": {"class_name": "Zeros", "config": {}}, "use_bias": false, "activity_regularizer": null, "kernel_size": [3, 3]}, "inbound_nodes": [[["activation_110", 0, 0, {}]]], "name": "conv2d_111"}, {"class_name": "BatchNormalization", "config": {"beta_constraint": null, "gamma_initializer": {"class_name": "Ones", "config": {}}, "moving_mean_initializer": {"class_name": "Zeros", "config": {}}, "name": "batch_normalization_108", "epsilon": 0.001, "trainable": false, "moving_variance_initializer": {"class_name": "Ones", "config": {}}, "beta_initializer": {"class_name": "Zeros", "config": {}}, "scale": false, "axis": 3, "gamma_constraint": null, "gamma_regularizer": null, "beta_regularizer": null, "momentum": 0.99, "center": true}, "inbound_nodes": [[["conv2d_108", 0, 0, {}]]], "name": "batch_normalization_108"}, {"class_name": "BatchNormalization", "config": {"beta_constraint": null, "gamma_initializer": {"class_name": "Ones", "config": {}}, "moving_mean_initializer": {"class_name": "Zeros", "config": {}}, "name": "batch_normalization_111", "epsilon": 0.001, "trainable": false, "moving_variance_initializer": {"class_name": "Ones", "config": {}}, "beta_initializer": {"class_name": "Zeros", "config": {}}, "scale": false, "axis": 3, "gamma_constraint": null, "gamma_regularizer": null, "beta_regularizer": null, "momentum": 0.99, "center": true}, "inbound_nodes": [[["conv2d_111", 0, 0, {}]]], "name": "batch_normalization_111"}, {"class_name": "Activation", "config": {"activation": "relu", "trainable": false, "name": "activation_108"}, "inbound_nodes": [[["batch_normalization_108", 0, 0, {}]]], "name": "activation_108"}, {"class_name": "Activation", "config": {"activation": "relu", "trainable": false, "name": "activation_111"}, "inbound_nodes": [[["batch_normalization_111", 0, 0, {}]]], "name": "activation_111"}, {"class_name": "Conv2D", "config": {"kernel_constraint": null, "kernel_initializer": {"class_name": "VarianceScaling", "config": {"distribution": "uniform", "scale": 1.0, "seed": null, "mode": "fan_avg"}}, "name": "conv2d_107", "bias_regularizer": null, "bias_constraint": null, "activation": "linear", "trainable": false, "data_format": "channels_last", "padding": "same", "strides": [1, 1], "dilation_rate": [1, 1], "kernel_regularizer": null, "filters": 32, "bias_initializer": {"class_name": "Zeros", "config": {}}, "use_bias": false, "activity_regularizer": null, "kernel_size": [1, 1]}, "inbound_nodes": [[["mixed_5b", 0, 0, {}]]], "name": "conv2d_107"}, {"class_name": "Conv2D", "config": {"kernel_constraint": null, "kernel_initializer": {"class_name": "VarianceScaling", "config": {"distribution": "uniform", "scale": 1.0, "seed": null, "mode": "fan_avg"}}, "name": "conv2d_109", "bias_regularizer": null, "bias_constraint": null, "activation": "linear", "trainable": false, "data_format": "channels_last", "padding": "same", "strides": [1, 1], "dilation_rate": [1, 1], "kernel_regularizer": null, "filters": 32, "bias_initializer": {"class_name": "Zeros", "config": {}}, "use_bias": false, "activity_regularizer": null, "kernel_size": [3, 3]}, "inbound_nodes": [[["activation_108", 0, 0, {}]]], "name": "conv2d_109"}, {"class_name": "Conv2D", "config": {"kernel_constraint": null, "kernel_initializer": {"class_name": "VarianceScaling", "config": {"distribution": "uniform", "scale": 1.0, "seed": null, "mode": "fan_avg"}}, "name": "conv2d_112", "bias_regularizer": null, "bias_constraint": null, "activation": "linear", "trainable": false, "data_format": "channels_last", "padding": "same", "strides": [1, 1], "dilation_rate": [1, 1], "kernel_regularizer": null, "filters": 64, "bias_initializer": {"class_name": "Zeros", "config": {}}, "use_bias": false, "activity_regularizer": null, "kernel_size": [3, 3]}, "inbound_nodes": [[["activation_111", 0, 0, {}]]], "name": "conv2d_112"}, {"class_name": "BatchNormalization", "config": {"beta_constraint": null, "gamma_initializer": {"class_name": "Ones", "config": {}}, "moving_mean_initializer": {"class_name": "Zeros", "config": {}}, "name": "batch_normalization_107", "epsilon": 0.001, "trainable": false, "moving_variance_initializer": {"class_name": "Ones", "config": {}}, "beta_initializer": {"class_name": "Zeros", "config": {}}, "scale": false, "axis": 3, "gamma_constraint": null, "gamma_regularizer": null, "beta_regularizer": null, "momentum": 0.99, "center": true}, "inbound_nodes": [[["conv2d_107", 0, 0, {}]]], "name": "batch_normalization_107"}, {"class_name": "BatchNormalization", "config": {"beta_constraint": null, "gamma_initializer": {"class_name": "Ones", "config": {}}, "moving_mean_initializer": {"class_name": "Zeros", "config": {}}, "name": "batch_normalization_109", "epsilon": 0.001, "trainable": false, "moving_variance_initializer": {"class_name": "Ones", "config": {}}, "beta_initializer": {"class_name": "Zeros", "config": {}}, "scale": false, "axis": 3, "gamma_constraint": null, "gamma_regularizer": null, "beta_regularizer": null, "momentum": 0.99, "center": true}, "inbound_nodes": [[["conv2d_109", 0, 0, {}]]], "name": "batch_normalization_109"}, {"class_name": "BatchNormalization", "config": {"beta_constraint": null, "gamma_initializer": {"class_name": "Ones", "config": {}}, "moving_mean_initializer": {"class_name": "Zeros", "config": {}}, "name": "batch_normalization_112", "epsilon": 0.001, "trainable": false, "moving_variance_initializer": {"class_name": "Ones", "config": {}}, "beta_initializer": {"class_name": "Zeros", "config": {}}, "scale": false, "axis": 3, "gamma_constraint": null, "gamma_regularizer": null, "beta_regularizer": null, "momentum": 0.99, "center": true}, "inbound_nodes": [[["conv2d_112", 0, 0, {}]]], "name": "batch_normalization_112"}, {"class_name": "Activation", "config": {"activation": "relu", "trainable": false, "name": "activation_107"}, "inbound_nodes": [[["batch_normalization_107", 0, 0, {}]]], "name": "activation_107"}, {"class_name": "Activation", "config": {"activation": "relu", "trainable": false, "name": "activation_109"}, "inbound_nodes": [[["batch_normalization_109", 0, 0, {}]]], "name": "activation_109"}, {"class_name": "Activation", "config": {"activation": "relu", "trainable": false, "name": "activation_112"}, "inbound_nodes": [[["batch_normalization_112", 0, 0, {}]]], "name": "activation_112"}, {"class_name": "Concatenate", "config": {"trainable": false, "name": "block35_1_mixed", "axis": 3}, "inbound_nodes": [[["activation_107", 0, 0, {}], ["activation_109", 0, 0, {}], ["activation_112", 0, 0, {}]]], "name": "block35_1_mixed"}, {"class_name": "Conv2D", "config": {"kernel_constraint": null, "kernel_initializer": {"class_name": "VarianceScaling", "config": {"distribution": "uniform", "scale": 1.0, "seed": null, "mode": "fan_avg"}}, "name": "block35_1_conv", "bias_regularizer": null, "bias_constraint": null, "activation": "linear", "trainable": false, "data_format": "channels_last", "padding": "same", "strides": [1, 1], "dilation_rate": [1, 1], "kernel_regularizer": null, "filters": 320, "bias_initializer": {"class_name": "Zeros", "config": {}}, "use_bias": true, "activity_regularizer": null, "kernel_size": [1, 1]}, "inbound_nodes": [[["block35_1_mixed", 0, 0, {}]]], "name": "block35_1_conv"}, {"class_name": "Lambda", "config": {"function": ["YwIAAAACAAAAAwAAAFNgAQBzFAAAAHwAAGQBABl8AABkAgAZfAEAFBdTKAMAAABOaQAAAABpAQAA\nACgAAAAAKAIAAAB0BgAAAGlucHV0c3QFAAAAc2NhbGUoAAAAACgAAAAAc1AAAAAvdXNyL2xvY2Fs\nL2xpYi9weXRob24yLjcvZGlzdC1wYWNrYWdlcy9rZXJhc19hcHBsaWNhdGlvbnMvaW5jZXB0aW9u\nX3Jlc25ldF92Mi5weXQIAAAAPGxhbWJkYT6qAAAAdAAAAAA=\n", null, null], "name": "block35_1", "trainable": false, "function_type": "lambda", "arguments": {"scale": 0.17}, "output_shape": [22, 22, 320], "output_shape_type": "raw"}, "inbound_nodes": [[["mixed_5b", 0, 0, {}], ["block35_1_conv", 0, 0, {}]]], "name": "block35_1"}, {"class_name": "Activation", "config": {"activation": "relu", "trainable": false, "name": "block35_1_ac"}, "inbound_nodes": [[["block35_1", 0, 0, {}]]], "name": "block35_1_ac"}, {"class_name": "Conv2D", "config": {"kernel_constraint": null, "kernel_initializer": {"class_name": "VarianceScaling", "config": {"distribution": "uniform", "scale": 1.0, "seed": null, "mode": "fan_avg"}}, "name": "conv2d_116", "bias_regularizer": null, "bias_constraint": null, "activation": "linear", "trainable": false, "data_format": "channels_last", "padding": "same", "strides": [1, 1], "dilation_rate": [1, 1], "kernel_regularizer": null, "filters": 32, "bias_initializer": {"class_name": "Zeros", "config": {}}, "use_bias": false, "activity_regularizer": null, "kernel_size": [1, 1]}, "inbound_nodes": [[["block35_1_ac", 0, 0, {}]]], "name": "conv2d_116"}, {"class_name": "BatchNormalization", "config": {"beta_constraint": null, "gamma_initializer": {"class_name": "Ones", "config": {}}, "moving_mean_initializer": {"class_name": "Zeros", "config": {}}, "name": "batch_normalization_116", "epsilon": 0.001, "trainable": false, "moving_variance_initializer": {"class_name": "Ones", "config": {}}, "beta_initializer": {"class_name": "Zeros", "config": {}}, "scale": false, "axis": 3, "gamma_constraint": null, "gamma_regularizer": null, "beta_regularizer": null, "momentum": 0.99, "center": true}, "inbound_nodes": [[["conv2d_116", 0, 0, {}]]], "name": "batch_normalization_116"}, {"class_name": "Activation", "config": {"activation": "relu", "trainable": false, "name": "activation_116"}, "inbound_nodes": [[["batch_normalization_116", 0, 0, {}]]], "name": "activation_116"}, {"class_name": "Conv2D", "config": {"kernel_constraint": null, "kernel_initializer": {"class_name": "VarianceScaling", "config": {"distribution": "uniform", "scale": 1.0, "seed": null, "mode": "fan_avg"}}, "name": "conv2d_114", "bias_regularizer": null, "bias_constraint": null, "activation": "linear", "trainable": false, "data_format": "channels_last", "padding": "same", "strides": [1, 1], "dilation_rate": [1, 1], "kernel_regularizer": null, "filters": 32, "bias_initializer": {"class_name": "Zeros", "config": {}}, "use_bias": false, "activity_regularizer": null, "kernel_size": [1, 1]}, "inbound_nodes": [[["block35_1_ac", 0, 0, {}]]], "name": "conv2d_114"}, {"class_name": "Conv2D", "config": {"kernel_constraint": null, "kernel_initializer": {"class_name": "VarianceScaling", "config": {"distribution": "uniform", "scale": 1.0, "seed": null, "mode": "fan_avg"}}, "name": "conv2d_117", "bias_regularizer": null, "bias_constraint": null, "activation": "linear", "trainable": false, "data_format": "channels_last", "padding": "same", "strides": [1, 1], "dilation_rate": [1, 1], "kernel_regularizer": null, "filters": 48, "bias_initializer": {"class_name": "Zeros", "config": {}}, "use_bias": false, "activity_regularizer": null, "kernel_size": [3, 3]}, "inbound_nodes": [[["activation_116", 0, 0, {}]]], "name": "conv2d_117"}, {"class_name": "BatchNormalization", "config": {"beta_constraint": null, "gamma_initializer": {"class_name": "Ones", "config": {}}, "moving_mean_initializer": {"class_name": "Zeros", "config": {}}, "name": "batch_normalization_114", "epsilon": 0.001, "trainable": false, "moving_variance_initializer": {"class_name": "Ones", "config": {}}, "beta_initializer": {"class_name": "Zeros", "config": {}}, "scale": false, "axis": 3, "gamma_constraint": null, "gamma_regularizer": null, "beta_regularizer": null, "momentum": 0.99, "center": true}, "inbound_nodes": [[["conv2d_114", 0, 0, {}]]], "name": "batch_normalization_114"}, {"class_name": "BatchNormalization", "config": {"beta_constraint": null, "gamma_initializer": {"class_name": "Ones", "config": {}}, "moving_mean_initializer": {"class_name": "Zeros", "config": {}}, "name": "batch_normalization_117", "epsilon": 0.001, "trainable": false, "moving_variance_initializer": {"class_name": "Ones", "config": {}}, "beta_initializer": {"class_name": "Zeros", "config": {}}, "scale": false, "axis": 3, "gamma_constraint": null, "gamma_regularizer": null, "beta_regularizer": null, "momentum": 0.99, "center": true}, "inbound_nodes": [[["conv2d_117", 0, 0, {}]]], "name": "batch_normalization_117"}, {"class_name": "Activation", "config": {"activation": "relu", "trainable": false, "name": "activation_114"}, "inbound_nodes": [[["batch_normalization_114", 0, 0, {}]]], "name": "activation_114"}, {"class_name": "Activation", "config": {"activation": "relu", "trainable": false, "name": "activation_117"}, "inbound_nodes": [[["batch_normalization_117", 0, 0, {}]]], "name": "activation_117"}, {"class_name": "Conv2D", "config": {"kernel_constraint": null, "kernel_initializer": {"class_name": "VarianceScaling", "config": {"distribution": "uniform", "scale": 1.0, "seed": null, "mode": "fan_avg"}}, "name": "conv2d_113", "bias_regularizer": null, "bias_constraint": null, "activation": "linear", "trainable": false, "data_format": "channels_last", "padding": "same", "strides": [1, 1], "dilation_rate": [1, 1], "kernel_regularizer": null, "filters": 32, "bias_initializer": {"class_name": "Zeros", "config": {}}, "use_bias": false, "activity_regularizer": null, "kernel_size": [1, 1]}, "inbound_nodes": [[["block35_1_ac", 0, 0, {}]]], "name": "conv2d_113"}, {"class_name": "Conv2D", "config": {"kernel_constraint": null, "kernel_initializer": {"class_name": "VarianceScaling", "config": {"distribution": "uniform", "scale": 1.0, "seed": null, "mode": "fan_avg"}}, "name": "conv2d_115", "bias_regularizer": null, "bias_constraint": null, "activation": "linear", "trainable": false, "data_format": "channels_last", "padding": "same", "strides": [1, 1], "dilation_rate": [1, 1], "kernel_regularizer": null, "filters": 32, "bias_initializer": {"class_name": "Zeros", "config": {}}, "use_bias": false, "activity_regularizer": null, "kernel_size": [3, 3]}, "inbound_nodes": [[["activation_114", 0, 0, {}]]], "name": "conv2d_115"}, {"class_name": "Conv2D", "config": {"kernel_constraint": null, "kernel_initializer": {"class_name": "VarianceScaling", "config": {"distribution": "uniform", "scale": 1.0, "seed": null, "mode": "fan_avg"}}, "name": "conv2d_118", "bias_regularizer": null, "bias_constraint": null, "activation": "linear", "trainable": false, "data_format": "channels_last", "padding": "same", "strides": [1, 1], "dilation_rate": [1, 1], "kernel_regularizer": null, "filters": 64, "bias_initializer": {"class_name": "Zeros", "config": {}}, "use_bias": false, "activity_regularizer": null, "kernel_size": [3, 3]}, "inbound_nodes": [[["activation_117", 0, 0, {}]]], "name": "conv2d_118"}, {"class_name": "BatchNormalization", "config": {"beta_constraint": null, "gamma_initializer": {"class_name": "Ones", "config": {}}, "moving_mean_initializer": {"class_name": "Zeros", "config": {}}, "name": "batch_normalization_113", "epsilon": 0.001, "trainable": false, "moving_variance_initializer": {"class_name": "Ones", "config": {}}, "beta_initializer": {"class_name": "Zeros", "config": {}}, "scale": false, "axis": 3, "gamma_constraint": null, "gamma_regularizer": null, "beta_regularizer": null, "momentum": 0.99, "center": true}, "inbound_nodes": [[["conv2d_113", 0, 0, {}]]], "name": "batch_normalization_113"}, {"class_name": "BatchNormalization", "config": {"beta_constraint": null, "gamma_initializer": {"class_name": "Ones", "config": {}}, "moving_mean_initializer": {"class_name": "Zeros", "config": {}}, "name": "batch_normalization_115", "epsilon": 0.001, "trainable": false, "moving_variance_initializer": {"class_name": "Ones", "config": {}}, "beta_initializer": {"class_name": "Zeros", "config": {}}, "scale": false, "axis": 3, "gamma_constraint": null, "gamma_regularizer": null, "beta_regularizer": null, "momentum": 0.99, "center": true}, "inbound_nodes": [[["conv2d_115", 0, 0, {}]]], "name": "batch_normalization_115"}, {"class_name": "BatchNormalization", "config": {"beta_constraint": null, "gamma_initializer": {"class_name": "Ones", "config": {}}, "moving_mean_initializer": {"class_name": "Zeros", "config": {}}, "name": "batch_normalization_118", "epsilon": 0.001, "trainable": false, "moving_variance_initializer": {"class_name": "Ones", "config": {}}, "beta_initializer": {"class_name": "Zeros", "config": {}}, "scale": false, "axis": 3, "gamma_constraint": null, "gamma_regularizer": null, "beta_regularizer": null, "momentum": 0.99, "center": true}, "inbound_nodes": [[["conv2d_118", 0, 0, {}]]], "name": "batch_normalization_118"}, {"class_name": "Activation", "config": {"activation": "relu", "trainable": false, "name": "activation_113"}, "inbound_nodes": [[["batch_normalization_113", 0, 0, {}]]], "name": "activation_113"}, {"class_name": "Activation", "config": {"activation": "relu", "trainable": false, "name": "activation_115"}, "inbound_nodes": [[["batch_normalization_115", 0, 0, {}]]], "name": "activation_115"}, {"class_name": "Activation", "config": {"activation": "relu", "trainable": false, "name": "activation_118"}, "inbound_nodes": [[["batch_normalization_118", 0, 0, {}]]], "name": "activation_118"}, {"class_name": "Concatenate", "config": {"trainable": false, "name": "block35_2_mixed", "axis": 3}, "inbound_nodes": [[["activation_113", 0, 0, {}], ["activation_115", 0, 0, {}], ["activation_118", 0, 0, {}]]], "name": "block35_2_mixed"}, {"class_name": "Conv2D", "config": {"kernel_constraint": null, "kernel_initializer": {"class_name": "VarianceScaling", "config": {"distribution": "uniform", "scale": 1.0, "seed": null, "mode": "fan_avg"}}, "name": "block35_2_conv", "bias_regularizer": null, "bias_constraint": null, "activation": "linear", "trainable": false, "data_format": "channels_last", "padding": "same", "strides": [1, 1], "dilation_rate": [1, 1], "kernel_regularizer": null, "filters": 320, "bias_initializer": {"class_name": "Zeros", "config": {}}, "use_bias": true, "activity_regularizer": null, "kernel_size": [1, 1]}, "inbound_nodes": [[["block35_2_mixed", 0, 0, {}]]], "name": "block35_2_conv"}, {"class_name": "Lambda", "config": {"function": ["YwIAAAACAAAAAwAAAFNgAQBzFAAAAHwAAGQBABl8AABkAgAZfAEAFBdTKAMAAABOaQAAAABpAQAA\nACgAAAAAKAIAAAB0BgAAAGlucHV0c3QFAAAAc2NhbGUoAAAAACgAAAAAc1AAAAAvdXNyL2xvY2Fs\nL2xpYi9weXRob24yLjcvZGlzdC1wYWNrYWdlcy9rZXJhc19hcHBsaWNhdGlvbnMvaW5jZXB0aW9u\nX3Jlc25ldF92Mi5weXQIAAAAPGxhbWJkYT6qAAAAdAAAAAA=\n", null, null], "name": "block35_2", "trainable": false, "function_type": "lambda", "arguments": {"scale": 0.17}, "output_shape": [22, 22, 320], "output_shape_type": "raw"}, "inbound_nodes": [[["block35_1_ac", 0, 0, {}], ["block35_2_conv", 0, 0, {}]]], "name": "block35_2"}, {"class_name": "Activation", "config": {"activation": "relu", "trainable": false, "name": "block35_2_ac"}, "inbound_nodes": [[["block35_2", 0, 0, {}]]], "name": "block35_2_ac"}, {"class_name": "Conv2D", "config": {"kernel_constraint": null, "kernel_initializer": {"class_name": "VarianceScaling", "config": {"distribution": "uniform", "scale": 1.0, "seed": null, "mode": "fan_avg"}}, "name": "conv2d_122", "bias_regularizer": null, "bias_constraint": null, "activation": "linear", "trainable": false, "data_format": "channels_last", "padding": "same", "strides": [1, 1], "dilation_rate": [1, 1], "kernel_regularizer": null, "filters": 32, "bias_initializer": {"class_name": "Zeros", "config": {}}, "use_bias": false, "activity_regularizer": null, "kernel_size": [1, 1]}, "inbound_nodes": [[["block35_2_ac", 0, 0, {}]]], "name": "conv2d_122"}, {"class_name": "BatchNormalization", "config": {"beta_constraint": null, "gamma_initializer": {"class_name": "Ones", "config": {}}, "moving_mean_initializer": {"class_name": "Zeros", "config": {}}, "name": "batch_normalization_122", "epsilon": 0.001, "trainable": false, "moving_variance_initializer": {"class_name": "Ones", "config": {}}, "beta_initializer": {"class_name": "Zeros", "config": {}}, "scale": false, "axis": 3, "gamma_constraint": null, "gamma_regularizer": null, "beta_regularizer": null, "momentum": 0.99, "center": true}, "inbound_nodes": [[["conv2d_122", 0, 0, {}]]], "name": "batch_normalization_122"}, {"class_name": "Activation", "config": {"activation": "relu", "trainable": false, "name": "activation_122"}, "inbound_nodes": [[["batch_normalization_122", 0, 0, {}]]], "name": "activation_122"}, {"class_name": "Conv2D", "config": {"kernel_constraint": null, "kernel_initializer": {"class_name": "VarianceScaling", "config": {"distribution": "uniform", "scale": 1.0, "seed": null, "mode": "fan_avg"}}, "name": "conv2d_120", "bias_regularizer": null, "bias_constraint": null, "activation": "linear", "trainable": false, "data_format": "channels_last", "padding": "same", "strides": [1, 1], "dilation_rate": [1, 1], "kernel_regularizer": null, "filters": 32, "bias_initializer": {"class_name": "Zeros", "config": {}}, "use_bias": false, "activity_regularizer": null, "kernel_size": [1, 1]}, "inbound_nodes": [[["block35_2_ac", 0, 0, {}]]], "name": "conv2d_120"}, {"class_name": "Conv2D", "config": {"kernel_constraint": null, "kernel_initializer": {"class_name": "VarianceScaling", "config": {"distribution": "uniform", "scale": 1.0, "seed": null, "mode": "fan_avg"}}, "name": "conv2d_123", "bias_regularizer": null, "bias_constraint": null, "activation": "linear", "trainable": false, "data_format": "channels_last", "padding": "same", "strides": [1, 1], "dilation_rate": [1, 1], "kernel_regularizer": null, "filters": 48, "bias_initializer": {"class_name": "Zeros", "config": {}}, "use_bias": false, "activity_regularizer": null, "kernel_size": [3, 3]}, "inbound_nodes": [[["activation_122", 0, 0, {}]]], "name": "conv2d_123"}, {"class_name": "BatchNormalization", "config": {"beta_constraint": null, "gamma_initializer": {"class_name": "Ones", "config": {}}, "moving_mean_initializer": {"class_name": "Zeros", "config": {}}, "name": "batch_normalization_120", "epsilon": 0.001, "trainable": false, "moving_variance_initializer": {"class_name": "Ones", "config": {}}, "beta_initializer": {"class_name": "Zeros", "config": {}}, "scale": false, "axis": 3, "gamma_constraint": null, "gamma_regularizer": null, "beta_regularizer": null, "momentum": 0.99, "center": true}, "inbound_nodes": [[["conv2d_120", 0, 0, {}]]], "name": "batch_normalization_120"}, {"class_name": "BatchNormalization", "config": {"beta_constraint": null, "gamma_initializer": {"class_name": "Ones", "config": {}}, "moving_mean_initializer": {"class_name": "Zeros", "config": {}}, "name": "batch_normalization_123", "epsilon": 0.001, "trainable": false, "moving_variance_initializer": {"class_name": "Ones", "config": {}}, "beta_initializer": {"class_name": "Zeros", "config": {}}, "scale": false, "axis": 3, "gamma_constraint": null, "gamma_regularizer": null, "beta_regularizer": null, "momentum": 0.99, "center": true}, "inbound_nodes": [[["conv2d_123", 0, 0, {}]]], "name": "batch_normalization_123"}, {"class_name": "Activation", "config": {"activation": "relu", "trainable": false, "name": "activation_120"}, "inbound_nodes": [[["batch_normalization_120", 0, 0, {}]]], "name": "activation_120"}, {"class_name": "Activation", "config": {"activation": "relu", "trainable": false, "name": "activation_123"}, "inbound_nodes": [[["batch_normalization_123", 0, 0, {}]]], "name": "activation_123"}, {"class_name": "Conv2D", "config": {"kernel_constraint": null, "kernel_initializer": {"class_name": "VarianceScaling", "config": {"distribution": "uniform", "scale": 1.0, "seed": null, "mode": "fan_avg"}}, "name": "conv2d_119", "bias_regularizer": null, "bias_constraint": null, "activation": "linear", "trainable": false, "data_format": "channels_last", "padding": "same", "strides": [1, 1], "dilation_rate": [1, 1], "kernel_regularizer": null, "filters": 32, "bias_initializer": {"class_name": "Zeros", "config": {}}, "use_bias": false, "activity_regularizer": null, "kernel_size": [1, 1]}, "inbound_nodes": [[["block35_2_ac", 0, 0, {}]]], "name": "conv2d_119"}, {"class_name": "Conv2D", "config": {"kernel_constraint": null, "kernel_initializer": {"class_name": "VarianceScaling", "config": {"distribution": "uniform", "scale": 1.0, "seed": null, "mode": "fan_avg"}}, "name": "conv2d_121", "bias_regularizer": null, "bias_constraint": null, "activation": "linear", "trainable": false, "data_format": "channels_last", "padding": "same", "strides": [1, 1], "dilation_rate": [1, 1], "kernel_regularizer": null, "filters": 32, "bias_initializer": {"class_name": "Zeros", "config": {}}, "use_bias": false, "activity_regularizer": null, "kernel_size": [3, 3]}, "inbound_nodes": [[["activation_120", 0, 0, {}]]], "name": "conv2d_121"}, {"class_name": "Conv2D", "config": {"kernel_constraint": null, "kernel_initializer": {"class_name": "VarianceScaling", "config": {"distribution": "uniform", "scale": 1.0, "seed": null, "mode": "fan_avg"}}, "name": "conv2d_124", "bias_regularizer": null, "bias_constraint": null, "activation": "linear", "trainable": false, "data_format": "channels_last", "padding": "same", "strides": [1, 1], "dilation_rate": [1, 1], "kernel_regularizer": null, "filters": 64, "bias_initializer": {"class_name": "Zeros", "config": {}}, "use_bias": false, "activity_regularizer": null, "kernel_size": [3, 3]}, "inbound_nodes": [[["activation_123", 0, 0, {}]]], "name": "conv2d_124"}, {"class_name": "BatchNormalization", "config": {"beta_constraint": null, "gamma_initializer": {"class_name": "Ones", "config": {}}, "moving_mean_initializer": {"class_name": "Zeros", "config": {}}, "name": "batch_normalization_119", "epsilon": 0.001, "trainable": false, "moving_variance_initializer": {"class_name": "Ones", "config": {}}, "beta_initializer": {"class_name": "Zeros", "config": {}}, "scale": false, "axis": 3, "gamma_constraint": null, "gamma_regularizer": null, "beta_regularizer": null, "momentum": 0.99, "center": true}, "inbound_nodes": [[["conv2d_119", 0, 0, {}]]], "name": "batch_normalization_119"}, {"class_name": "BatchNormalization", "config": {"beta_constraint": null, "gamma_initializer": {"class_name": "Ones", "config": {}}, "moving_mean_initializer": {"class_name": "Zeros", "config": {}}, "name": "batch_normalization_121", "epsilon": 0.001, "trainable": false, "moving_variance_initializer": {"class_name": "Ones", "config": {}}, "beta_initializer": {"class_name": "Zeros", "config": {}}, "scale": false, "axis": 3, "gamma_constraint": null, "gamma_regularizer": null, "beta_regularizer": null, "momentum": 0.99, "center": true}, "inbound_nodes": [[["conv2d_121", 0, 0, {}]]], "name": "batch_normalization_121"}, {"class_name": "BatchNormalization", "config": {"beta_constraint": null, "gamma_initializer": {"class_name": "Ones", "config": {}}, "moving_mean_initializer": {"class_name": "Zeros", "config": {}}, "name": "batch_normalization_124", "epsilon": 0.001, "trainable": false, "moving_variance_initializer": {"class_name": "Ones", "config": {}}, "beta_initializer": {"class_name": "Zeros", "config": {}}, "scale": false, "axis": 3, "gamma_constraint": null, "gamma_regularizer": null, "beta_regularizer": null, "momentum": 0.99, "center": true}, "inbound_nodes": [[["conv2d_124", 0, 0, {}]]], "name": "batch_normalization_124"}, {"class_name": "Activation", "config": {"activation": "relu", "trainable": false, "name": "activation_119"}, "inbound_nodes": [[["batch_normalization_119", 0, 0, {}]]], "name": "activation_119"}, {"class_name": "Activation", "config": {"activation": "relu", "trainable": false, "name": "activation_121"}, "inbound_nodes": [[["batch_normalization_121", 0, 0, {}]]], "name": "activation_121"}, {"class_name": "Activation", "config": {"activation": "relu", "trainable": false, "name": "activation_124"}, "inbound_nodes": [[["batch_normalization_124", 0, 0, {}]]], "name": "activation_124"}, {"class_name": "Concatenate", "config": {"trainable": false, "name": "block35_3_mixed", "axis": 3}, "inbound_nodes": [[["activation_119", 0, 0, {}], ["activation_121", 0, 0, {}], ["activation_124", 0, 0, {}]]], "name": "block35_3_mixed"}, {"class_name": "Conv2D", "config": {"kernel_constraint": null, "kernel_initializer": {"class_name": "VarianceScaling", "config": {"distribution": "uniform", "scale": 1.0, "seed": null, "mode": "fan_avg"}}, "name": "block35_3_conv", "bias_regularizer": null, "bias_constraint": null, "activation": "linear", "trainable": false, "data_format": "channels_last", "padding": "same", "strides": [1, 1], "dilation_rate": [1, 1], "kernel_regularizer": null, "filters": 320, "bias_initializer": {"class_name": "Zeros", "config": {}}, "use_bias": true, "activity_regularizer": null, "kernel_size": [1, 1]}, "inbound_nodes": [[["block35_3_mixed", 0, 0, {}]]], "name": "block35_3_conv"}, {"class_name": "Lambda", "config": {"function": ["YwIAAAACAAAAAwAAAFNgAQBzFAAAAHwAAGQBABl8AABkAgAZfAEAFBdTKAMAAABOaQAAAABpAQAA\nACgAAAAAKAIAAAB0BgAAAGlucHV0c3QFAAAAc2NhbGUoAAAAACgAAAAAc1AAAAAvdXNyL2xvY2Fs\nL2xpYi9weXRob24yLjcvZGlzdC1wYWNrYWdlcy9rZXJhc19hcHBsaWNhdGlvbnMvaW5jZXB0aW9u\nX3Jlc25ldF92Mi5weXQIAAAAPGxhbWJkYT6qAAAAdAAAAAA=\n", null, null], "name": "block35_3", "trainable": false, "function_type": "lambda", "arguments": {"scale": 0.17}, "output_shape": [22, 22, 320], "output_shape_type": "raw"}, "inbound_nodes": [[["block35_2_ac", 0, 0, {}], ["block35_3_conv", 0, 0, {}]]], "name": "block35_3"}, {"class_name": "Activation", "config": {"activation": "relu", "trainable": false, "name": "block35_3_ac"}, "inbound_nodes": [[["block35_3", 0, 0, {}]]], "name": "block35_3_ac"}, {"class_name": "Conv2D", "config": {"kernel_constraint": null, "kernel_initializer": {"class_name": "VarianceScaling", "config": {"distribution": "uniform", "scale": 1.0, "seed": null, "mode": "fan_avg"}}, "name": "conv2d_128", "bias_regularizer": null, "bias_constraint": null, "activation": "linear", "trainable": false, "data_format": "channels_last", "padding": "same", "strides": [1, 1], "dilation_rate": [1, 1], "kernel_regularizer": null, "filters": 32, "bias_initializer": {"class_name": "Zeros", "config": {}}, "use_bias": false, "activity_regularizer": null, "kernel_size": [1, 1]}, "inbound_nodes": [[["block35_3_ac", 0, 0, {}]]], "name": "conv2d_128"}, {"class_name": "BatchNormalization", "config": {"beta_constraint": null, "gamma_initializer": {"class_name": "Ones", "config": {}}, "moving_mean_initializer": {"class_name": "Zeros", "config": {}}, "name": "batch_normalization_128", "epsilon": 0.001, "trainable": false, "moving_variance_initializer": {"class_name": "Ones", "config": {}}, "beta_initializer": {"class_name": "Zeros", "config": {}}, "scale": false, "axis": 3, "gamma_constraint": null, "gamma_regularizer": null, "beta_regularizer": null, "momentum": 0.99, "center": true}, "inbound_nodes": [[["conv2d_128", 0, 0, {}]]], "name": "batch_normalization_128"}, {"class_name": "Activation", "config": {"activation": "relu", "trainable": false, "name": "activation_128"}, "inbound_nodes": [[["batch_normalization_128", 0, 0, {}]]], "name": "activation_128"}, {"class_name": "Conv2D", "config": {"kernel_constraint": null, "kernel_initializer": {"class_name": "VarianceScaling", "config": {"distribution": "uniform", "scale": 1.0, "seed": null, "mode": "fan_avg"}}, "name": "conv2d_126", "bias_regularizer": null, "bias_constraint": null, "activation": "linear", "trainable": false, "data_format": "channels_last", "padding": "same", "strides": [1, 1], "dilation_rate": [1, 1], "kernel_regularizer": null, "filters": 32, "bias_initializer": {"class_name": "Zeros", "config": {}}, "use_bias": false, "activity_regularizer": null, "kernel_size": [1, 1]}, "inbound_nodes": [[["block35_3_ac", 0, 0, {}]]], "name": "conv2d_126"}, {"class_name": "Conv2D", "config": {"kernel_constraint": null, "kernel_initializer": {"class_name": "VarianceScaling", "config": {"distribution": "uniform", "scale": 1.0, "seed": null, "mode": "fan_avg"}}, "name": "conv2d_129", "bias_regularizer": null, "bias_constraint": null, "activation": "linear", "trainable": false, "data_format": "channels_last", "padding": "same", "strides": [1, 1], "dilation_rate": [1, 1], "kernel_regularizer": null, "filters": 48, "bias_initializer": {"class_name": "Zeros", "config": {}}, "use_bias": false, "activity_regularizer": null, "kernel_size": [3, 3]}, "inbound_nodes": [[["activation_128", 0, 0, {}]]], "name": "conv2d_129"}, {"class_name": "BatchNormalization", "config": {"beta_constraint": null, "gamma_initializer": {"class_name": "Ones", "config": {}}, "moving_mean_initializer": {"class_name": "Zeros", "config": {}}, "name": "batch_normalization_126", "epsilon": 0.001, "trainable": false, "moving_variance_initializer": {"class_name": "Ones", "config": {}}, "beta_initializer": {"class_name": "Zeros", "config": {}}, "scale": false, "axis": 3, "gamma_constraint": null, "gamma_regularizer": null, "beta_regularizer": null, "momentum": 0.99, "center": true}, "inbound_nodes": [[["conv2d_126", 0, 0, {}]]], "name": "batch_normalization_126"}, {"class_name": "BatchNormalization", "config": {"beta_constraint": null, "gamma_initializer": {"class_name": "Ones", "config": {}}, "moving_mean_initializer": {"class_name": "Zeros", "config": {}}, "name": "batch_normalization_129", "epsilon": 0.001, "trainable": false, "moving_variance_initializer": {"class_name": "Ones", "config": {}}, "beta_initializer": {"class_name": "Zeros", "config": {}}, "scale": false, "axis": 3, "gamma_constraint": null, "gamma_regularizer": null, "beta_regularizer": null, "momentum": 0.99, "center": true}, "inbound_nodes": [[["conv2d_129", 0, 0, {}]]], "name": "batch_normalization_129"}, {"class_name": "Activation", "config": {"activation": "relu", "trainable": false, "name": "activation_126"}, "inbound_nodes": [[["batch_normalization_126", 0, 0, {}]]], "name": "activation_126"}, {"class_name": "Activation", "config": {"activation": "relu", "trainable": false, "name": "activation_129"}, "inbound_nodes": [[["batch_normalization_129", 0, 0, {}]]], "name": "activation_129"}, {"class_name": "Conv2D", "config": {"kernel_constraint": null, "kernel_initializer": {"class_name": "VarianceScaling", "config": {"distribution": "uniform", "scale": 1.0, "seed": null, "mode": "fan_avg"}}, "name": "conv2d_125", "bias_regularizer": null, "bias_constraint": null, "activation": "linear", "trainable": false, "data_format": "channels_last", "padding": "same", "strides": [1, 1], "dilation_rate": [1, 1], "kernel_regularizer": null, "filters": 32, "bias_initializer": {"class_name": "Zeros", "config": {}}, "use_bias": false, "activity_regularizer": null, "kernel_size": [1, 1]}, "inbound_nodes": [[["block35_3_ac", 0, 0, {}]]], "name": "conv2d_125"}, {"class_name": "Conv2D", "config": {"kernel_constraint": null, "kernel_initializer": {"class_name": "VarianceScaling", "config": {"distribution": "uniform", "scale": 1.0, "seed": null, "mode": "fan_avg"}}, "name": "conv2d_127", "bias_regularizer": null, "bias_constraint": null, "activation": "linear", "trainable": false, "data_format": "channels_last", "padding": "same", "strides": [1, 1], "dilation_rate": [1, 1], "kernel_regularizer": null, "filters": 32, "bias_initializer": {"class_name": "Zeros", "config": {}}, "use_bias": false, "activity_regularizer": null, "kernel_size": [3, 3]}, "inbound_nodes": [[["activation_126", 0, 0, {}]]], "name": "conv2d_127"}, {"class_name": "Conv2D", "config": {"kernel_constraint": null, "kernel_initializer": {"class_name": "VarianceScaling", "config": {"distribution": "uniform", "scale": 1.0, "seed": null, "mode": "fan_avg"}}, "name": "conv2d_130", "bias_regularizer": null, "bias_constraint": null, "activation": "linear", "trainable": false, "data_format": "channels_last", "padding": "same", "strides": [1, 1], "dilation_rate": [1, 1], "kernel_regularizer": null, "filters": 64, "bias_initializer": {"class_name": "Zeros", "config": {}}, "use_bias": false, "activity_regularizer": null, "kernel_size": [3, 3]}, "inbound_nodes": [[["activation_129", 0, 0, {}]]], "name": "conv2d_130"}, {"class_name": "BatchNormalization", "config": {"beta_constraint": null, "gamma_initializer": {"class_name": "Ones", "config": {}}, "moving_mean_initializer": {"class_name": "Zeros", "config": {}}, "name": "batch_normalization_125", "epsilon": 0.001, "trainable": false, "moving_variance_initializer": {"class_name": "Ones", "config": {}}, "beta_initializer": {"class_name": "Zeros", "config": {}}, "scale": false, "axis": 3, "gamma_constraint": null, "gamma_regularizer": null, "beta_regularizer": null, "momentum": 0.99, "center": true}, "inbound_nodes": [[["conv2d_125", 0, 0, {}]]], "name": "batch_normalization_125"}, {"class_name": "BatchNormalization", "config": {"beta_constraint": null, "gamma_initializer": {"class_name": "Ones", "config": {}}, "moving_mean_initializer": {"class_name": "Zeros", "config": {}}, "name": "batch_normalization_127", "epsilon": 0.001, "trainable": false, "moving_variance_initializer": {"class_name": "Ones", "config": {}}, "beta_initializer": {"class_name": "Zeros", "config": {}}, "scale": false, "axis": 3, "gamma_constraint": null, "gamma_regularizer": null, "beta_regularizer": null, "momentum": 0.99, "center": true}, "inbound_nodes": [[["conv2d_127", 0, 0, {}]]], "name": "batch_normalization_127"}, {"class_name": "BatchNormalization", "config": {"beta_constraint": null, "gamma_initializer": {"class_name": "Ones", "config": {}}, "moving_mean_initializer": {"class_name": "Zeros", "config": {}}, "name": "batch_normalization_130", "epsilon": 0.001, "trainable": false, "moving_variance_initializer": {"class_name": "Ones", "config": {}}, "beta_initializer": {"class_name": "Zeros", "config": {}}, "scale": false, "axis": 3, "gamma_constraint": null, "gamma_regularizer": null, "beta_regularizer": null, "momentum": 0.99, "center": true}, "inbound_nodes": [[["conv2d_130", 0, 0, {}]]], "name": "batch_normalization_130"}, {"class_name": "Activation", "config": {"activation": "relu", "trainable": false, "name": "activation_125"}, "inbound_nodes": [[["batch_normalization_125", 0, 0, {}]]], "name": "activation_125"}, {"class_name": "Activation", "config": {"activation": "relu", "trainable": false, "name": "activation_127"}, "inbound_nodes": [[["batch_normalization_127", 0, 0, {}]]], "name": "activation_127"}, {"class_name": "Activation", "config": {"activation": "relu", "trainable": false, "name": "activation_130"}, "inbound_nodes": [[["batch_normalization_130", 0, 0, {}]]], "name": "activation_130"}, {"class_name": "Concatenate", "config": {"trainable": false, "name": "block35_4_mixed", "axis": 3}, "inbound_nodes": [[["activation_125", 0, 0, {}], ["activation_127", 0, 0, {}], ["activation_130", 0, 0, {}]]], "name": "block35_4_mixed"}, {"class_name": "Conv2D", "config": {"kernel_constraint": null, "kernel_initializer": {"class_name": "VarianceScaling", "config": {"distribution": "uniform", "scale": 1.0, "seed": null, "mode": "fan_avg"}}, "name": "block35_4_conv", "bias_regularizer": null, "bias_constraint": null, "activation": "linear", "trainable": false, "data_format": "channels_last", "padding": "same", "strides": [1, 1], "dilation_rate": [1, 1], "kernel_regularizer": null, "filters": 320, "bias_initializer": {"class_name": "Zeros", "config": {}}, "use_bias": true, "activity_regularizer": null, "kernel_size": [1, 1]}, "inbound_nodes": [[["block35_4_mixed", 0, 0, {}]]], "name": "block35_4_conv"}, {"class_name": "Lambda", "config": {"function": ["YwIAAAACAAAAAwAAAFNgAQBzFAAAAHwAAGQBABl8AABkAgAZfAEAFBdTKAMAAABOaQAAAABpAQAA\nACgAAAAAKAIAAAB0BgAAAGlucHV0c3QFAAAAc2NhbGUoAAAAACgAAAAAc1AAAAAvdXNyL2xvY2Fs\nL2xpYi9weXRob24yLjcvZGlzdC1wYWNrYWdlcy9rZXJhc19hcHBsaWNhdGlvbnMvaW5jZXB0aW9u\nX3Jlc25ldF92Mi5weXQIAAAAPGxhbWJkYT6qAAAAdAAAAAA=\n", null, null], "name": "block35_4", "trainable": false, "function_type": "lambda", "arguments": {"scale": 0.17}, "output_shape": [22, 22, 320], "output_shape_type": "raw"}, "inbound_nodes": [[["block35_3_ac", 0, 0, {}], ["block35_4_conv", 0, 0, {}]]], "name": "block35_4"}, {"class_name": "Activation", "config": {"activation": "relu", "trainable": false, "name": "block35_4_ac"}, "inbound_nodes": [[["block35_4", 0, 0, {}]]], "name": "block35_4_ac"}, {"class_name": "Conv2D", "config": {"kernel_constraint": null, "kernel_initializer": {"class_name": "VarianceScaling", "config": {"distribution": "uniform", "scale": 1.0, "seed": null, "mode": "fan_avg"}}, "name": "conv2d_134", "bias_regularizer": null, "bias_constraint": null, "activation": "linear", "trainable": false, "data_format": "channels_last", "padding": "same", "strides": [1, 1], "dilation_rate": [1, 1], "kernel_regularizer": null, "filters": 32, "bias_initializer": {"class_name": "Zeros", "config": {}}, "use_bias": false, "activity_regularizer": null, "kernel_size": [1, 1]}, "inbound_nodes": [[["block35_4_ac", 0, 0, {}]]], "name": "conv2d_134"}, {"class_name": "BatchNormalization", "config": {"beta_constraint": null, "gamma_initializer": {"class_name": "Ones", "config": {}}, "moving_mean_initializer": {"class_name": "Zeros", "config": {}}, "name": "batch_normalization_134", "epsilon": 0.001, "trainable": false, "moving_variance_initializer": {"class_name": "Ones", "config": {}}, "beta_initializer": {"class_name": "Zeros", "config": {}}, "scale": false, "axis": 3, "gamma_constraint": null, "gamma_regularizer": null, "beta_regularizer": null, "momentum": 0.99, "center": true}, "inbound_nodes": [[["conv2d_134", 0, 0, {}]]], "name": "batch_normalization_134"}, {"class_name": "Activation", "config": {"activation": "relu", "trainable": false, "name": "activation_134"}, "inbound_nodes": [[["batch_normalization_134", 0, 0, {}]]], "name": "activation_134"}, {"class_name": "Conv2D", "config": {"kernel_constraint": null, "kernel_initializer": {"class_name": "VarianceScaling", "config": {"distribution": "uniform", "scale": 1.0, "seed": null, "mode": "fan_avg"}}, "name": "conv2d_132", "bias_regularizer": null, "bias_constraint": null, "activation": "linear", "trainable": false, "data_format": "channels_last", "padding": "same", "strides": [1, 1], "dilation_rate": [1, 1], "kernel_regularizer": null, "filters": 32, "bias_initializer": {"class_name": "Zeros", "config": {}}, "use_bias": false, "activity_regularizer": null, "kernel_size": [1, 1]}, "inbound_nodes": [[["block35_4_ac", 0, 0, {}]]], "name": "conv2d_132"}, {"class_name": "Conv2D", "config": {"kernel_constraint": null, "kernel_initializer": {"class_name": "VarianceScaling", "config": {"distribution": "uniform", "scale": 1.0, "seed": null, "mode": "fan_avg"}}, "name": "conv2d_135", "bias_regularizer": null, "bias_constraint": null, "activation": "linear", "trainable": false, "data_format": "channels_last", "padding": "same", "strides": [1, 1], "dilation_rate": [1, 1], "kernel_regularizer": null, "filters": 48, "bias_initializer": {"class_name": "Zeros", "config": {}}, "use_bias": false, "activity_regularizer": null, "kernel_size": [3, 3]}, "inbound_nodes": [[["activation_134", 0, 0, {}]]], "name": "conv2d_135"}, {"class_name": "BatchNormalization", "config": {"beta_constraint": null, "gamma_initializer": {"class_name": "Ones", "config": {}}, "moving_mean_initializer": {"class_name": "Zeros", "config": {}}, "name": "batch_normalization_132", "epsilon": 0.001, "trainable": false, "moving_variance_initializer": {"class_name": "Ones", "config": {}}, "beta_initializer": {"class_name": "Zeros", "config": {}}, "scale": false, "axis": 3, "gamma_constraint": null, "gamma_regularizer": null, "beta_regularizer": null, "momentum": 0.99, "center": true}, "inbound_nodes": [[["conv2d_132", 0, 0, {}]]], "name": "batch_normalization_132"}, {"class_name": "BatchNormalization", "config": {"beta_constraint": null, "gamma_initializer": {"class_name": "Ones", "config": {}}, "moving_mean_initializer": {"class_name": "Zeros", "config": {}}, "name": "batch_normalization_135", "epsilon": 0.001, "trainable": false, "moving_variance_initializer": {"class_name": "Ones", "config": {}}, "beta_initializer": {"class_name": "Zeros", "config": {}}, "scale": false, "axis": 3, "gamma_constraint": null, "gamma_regularizer": null, "beta_regularizer": null, "momentum": 0.99, "center": true}, "inbound_nodes": [[["conv2d_135", 0, 0, {}]]], "name": "batch_normalization_135"}, {"class_name": "Activation", "config": {"activation": "relu", "trainable": false, "name": "activation_132"}, "inbound_nodes": [[["batch_normalization_132", 0, 0, {}]]], "name": "activation_132"}, {"class_name": "Activation", "config": {"activation": "relu", "trainable": false, "name": "activation_135"}, "inbound_nodes": [[["batch_normalization_135", 0, 0, {}]]], "name": "activation_135"}, {"class_name": "Conv2D", "config": {"kernel_constraint": null, "kernel_initializer": {"class_name": "VarianceScaling", "config": {"distribution": "uniform", "scale": 1.0, "seed": null, "mode": "fan_avg"}}, "name": "conv2d_131", "bias_regularizer": null, "bias_constraint": null, "activation": "linear", "trainable": false, "data_format": "channels_last", "padding": "same", "strides": [1, 1], "dilation_rate": [1, 1], "kernel_regularizer": null, "filters": 32, "bias_initializer": {"class_name": "Zeros", "config": {}}, "use_bias": false, "activity_regularizer": null, "kernel_size": [1, 1]}, "inbound_nodes": [[["block35_4_ac", 0, 0, {}]]], "name": "conv2d_131"}, {"class_name": "Conv2D", "config": {"kernel_constraint": null, "kernel_initializer": {"class_name": "VarianceScaling", "config": {"distribution": "uniform", "scale": 1.0, "seed": null, "mode": "fan_avg"}}, "name": "conv2d_133", "bias_regularizer": null, "bias_constraint": null, "activation": "linear", "trainable": false, "data_format": "channels_last", "padding": "same", "strides": [1, 1], "dilation_rate": [1, 1], "kernel_regularizer": null, "filters": 32, "bias_initializer": {"class_name": "Zeros", "config": {}}, "use_bias": false, "activity_regularizer": null, "kernel_size": [3, 3]}, "inbound_nodes": [[["activation_132", 0, 0, {}]]], "name": "conv2d_133"}, {"class_name": "Conv2D", "config": {"kernel_constraint": null, "kernel_initializer": {"class_name": "VarianceScaling", "config": {"distribution": "uniform", "scale": 1.0, "seed": null, "mode": "fan_avg"}}, "name": "conv2d_136", "bias_regularizer": null, "bias_constraint": null, "activation": "linear", "trainable": false, "data_format": "channels_last", "padding": "same", "strides": [1, 1], "dilation_rate": [1, 1], "kernel_regularizer": null, "filters": 64, "bias_initializer": {"class_name": "Zeros", "config": {}}, "use_bias": false, "activity_regularizer": null, "kernel_size": [3, 3]}, "inbound_nodes": [[["activation_135", 0, 0, {}]]], "name": "conv2d_136"}, {"class_name": "BatchNormalization", "config": {"beta_constraint": null, "gamma_initializer": {"class_name": "Ones", "config": {}}, "moving_mean_initializer": {"class_name": "Zeros", "config": {}}, "name": "batch_normalization_131", "epsilon": 0.001, "trainable": false, "moving_variance_initializer": {"class_name": "Ones", "config": {}}, "beta_initializer": {"class_name": "Zeros", "config": {}}, "scale": false, "axis": 3, "gamma_constraint": null, "gamma_regularizer": null, "beta_regularizer": null, "momentum": 0.99, "center": true}, "inbound_nodes": [[["conv2d_131", 0, 0, {}]]], "name": "batch_normalization_131"}, {"class_name": "BatchNormalization", "config": {"beta_constraint": null, "gamma_initializer": {"class_name": "Ones", "config": {}}, "moving_mean_initializer": {"class_name": "Zeros", "config": {}}, "name": "batch_normalization_133", "epsilon": 0.001, "trainable": false, "moving_variance_initializer": {"class_name": "Ones", "config": {}}, "beta_initializer": {"class_name": "Zeros", "config": {}}, "scale": false, "axis": 3, "gamma_constraint": null, "gamma_regularizer": null, "beta_regularizer": null, "momentum": 0.99, "center": true}, "inbound_nodes": [[["conv2d_133", 0, 0, {}]]], "name": "batch_normalization_133"}, {"class_name": "BatchNormalization", "config": {"beta_constraint": null, "gamma_initializer": {"class_name": "Ones", "config": {}}, "moving_mean_initializer": {"class_name": "Zeros", "config": {}}, "name": "batch_normalization_136", "epsilon": 0.001, "trainable": false, "moving_variance_initializer": {"class_name": "Ones", "config": {}}, "beta_initializer": {"class_name": "Zeros", "config": {}}, "scale": false, "axis": 3, "gamma_constraint": null, "gamma_regularizer": null, "beta_regularizer": null, "momentum": 0.99, "center": true}, "inbound_nodes": [[["conv2d_136", 0, 0, {}]]], "name": "batch_normalization_136"}, {"class_name": "Activation", "config": {"activation": "relu", "trainable": false, "name": "activation_131"}, "inbound_nodes": [[["batch_normalization_131", 0, 0, {}]]], "name": "activation_131"}, {"class_name": "Activation", "config": {"activation": "relu", "trainable": false, "name": "activation_133"}, "inbound_nodes": [[["batch_normalization_133", 0, 0, {}]]], "name": "activation_133"}, {"class_name": "Activation", "config": {"activation": "relu", "trainable": false, "name": "activation_136"}, "inbound_nodes": [[["batch_normalization_136", 0, 0, {}]]], "name": "activation_136"}, {"class_name": "Concatenate", "config": {"trainable": false, "name": "block35_5_mixed", "axis": 3}, "inbound_nodes": [[["activation_131", 0, 0, {}], ["activation_133", 0, 0, {}], ["activation_136", 0, 0, {}]]], "name": "block35_5_mixed"}, {"class_name": "Conv2D", "config": {"kernel_constraint": null, "kernel_initializer": {"class_name": "VarianceScaling", "config": {"distribution": "uniform", "scale": 1.0, "seed": null, "mode": "fan_avg"}}, "name": "block35_5_conv", "bias_regularizer": null, "bias_constraint": null, "activation": "linear", "trainable": false, "data_format": "channels_last", "padding": "same", "strides": [1, 1], "dilation_rate": [1, 1], "kernel_regularizer": null, "filters": 320, "bias_initializer": {"class_name": "Zeros", "config": {}}, "use_bias": true, "activity_regularizer": null, "kernel_size": [1, 1]}, "inbound_nodes": [[["block35_5_mixed", 0, 0, {}]]], "name": "block35_5_conv"}, {"class_name": "Lambda", "config": {"function": ["YwIAAAACAAAAAwAAAFNgAQBzFAAAAHwAAGQBABl8AABkAgAZfAEAFBdTKAMAAABOaQAAAABpAQAA\nACgAAAAAKAIAAAB0BgAAAGlucHV0c3QFAAAAc2NhbGUoAAAAACgAAAAAc1AAAAAvdXNyL2xvY2Fs\nL2xpYi9weXRob24yLjcvZGlzdC1wYWNrYWdlcy9rZXJhc19hcHBsaWNhdGlvbnMvaW5jZXB0aW9u\nX3Jlc25ldF92Mi5weXQIAAAAPGxhbWJkYT6qAAAAdAAAAAA=\n", null, null], "name": "block35_5", "trainable": false, "function_type": "lambda", "arguments": {"scale": 0.17}, "output_shape": [22, 22, 320], "output_shape_type": "raw"}, "inbound_nodes": [[["block35_4_ac", 0, 0, {}], ["block35_5_conv", 0, 0, {}]]], "name": "block35_5"}, {"class_name": "Activation", "config": {"activation": "relu", "trainable": false, "name": "block35_5_ac"}, "inbound_nodes": [[["block35_5", 0, 0, {}]]], "name": "block35_5_ac"}, {"class_name": "Conv2D", "config": {"kernel_constraint": null, "kernel_initializer": {"class_name": "VarianceScaling", "config": {"distribution": "uniform", "scale": 1.0, "seed": null, "mode": "fan_avg"}}, "name": "conv2d_140", "bias_regularizer": null, "bias_constraint": null, "activation": "linear", "trainable": false, "data_format": "channels_last", "padding": "same", "strides": [1, 1], "dilation_rate": [1, 1], "kernel_regularizer": null, "filters": 32, "bias_initializer": {"class_name": "Zeros", "config": {}}, "use_bias": false, "activity_regularizer": null, "kernel_size": [1, 1]}, "inbound_nodes": [[["block35_5_ac", 0, 0, {}]]], "name": "conv2d_140"}, {"class_name": "BatchNormalization", "config": {"beta_constraint": null, "gamma_initializer": {"class_name": "Ones", "config": {}}, "moving_mean_initializer": {"class_name": "Zeros", "config": {}}, "name": "batch_normalization_140", "epsilon": 0.001, "trainable": false, "moving_variance_initializer": {"class_name": "Ones", "config": {}}, "beta_initializer": {"class_name": "Zeros", "config": {}}, "scale": false, "axis": 3, "gamma_constraint": null, "gamma_regularizer": null, "beta_regularizer": null, "momentum": 0.99, "center": true}, "inbound_nodes": [[["conv2d_140", 0, 0, {}]]], "name": "batch_normalization_140"}, {"class_name": "Activation", "config": {"activation": "relu", "trainable": false, "name": "activation_140"}, "inbound_nodes": [[["batch_normalization_140", 0, 0, {}]]], "name": "activation_140"}, {"class_name": "Conv2D", "config": {"kernel_constraint": null, "kernel_initializer": {"class_name": "VarianceScaling", "config": {"distribution": "uniform", "scale": 1.0, "seed": null, "mode": "fan_avg"}}, "name": "conv2d_138", "bias_regularizer": null, "bias_constraint": null, "activation": "linear", "trainable": false, "data_format": "channels_last", "padding": "same", "strides": [1, 1], "dilation_rate": [1, 1], "kernel_regularizer": null, "filters": 32, "bias_initializer": {"class_name": "Zeros", "config": {}}, "use_bias": false, "activity_regularizer": null, "kernel_size": [1, 1]}, "inbound_nodes": [[["block35_5_ac", 0, 0, {}]]], "name": "conv2d_138"}, {"class_name": "Conv2D", "config": {"kernel_constraint": null, "kernel_initializer": {"class_name": "VarianceScaling", "config": {"distribution": "uniform", "scale": 1.0, "seed": null, "mode": "fan_avg"}}, "name": "conv2d_141", "bias_regularizer": null, "bias_constraint": null, "activation": "linear", "trainable": false, "data_format": "channels_last", "padding": "same", "strides": [1, 1], "dilation_rate": [1, 1], "kernel_regularizer": null, "filters": 48, "bias_initializer": {"class_name": "Zeros", "config": {}}, "use_bias": false, "activity_regularizer": null, "kernel_size": [3, 3]}, "inbound_nodes": [[["activation_140", 0, 0, {}]]], "name": "conv2d_141"}, {"class_name": "BatchNormalization", "config": {"beta_constraint": null, "gamma_initializer": {"class_name": "Ones", "config": {}}, "moving_mean_initializer": {"class_name": "Zeros", "config": {}}, "name": "batch_normalization_138", "epsilon": 0.001, "trainable": false, "moving_variance_initializer": {"class_name": "Ones", "config": {}}, "beta_initializer": {"class_name": "Zeros", "config": {}}, "scale": false, "axis": 3, "gamma_constraint": null, "gamma_regularizer": null, "beta_regularizer": null, "momentum": 0.99, "center": true}, "inbound_nodes": [[["conv2d_138", 0, 0, {}]]], "name": "batch_normalization_138"}, {"class_name": "BatchNormalization", "config": {"beta_constraint": null, "gamma_initializer": {"class_name": "Ones", "config": {}}, "moving_mean_initializer": {"class_name": "Zeros", "config": {}}, "name": "batch_normalization_141", "epsilon": 0.001, "trainable": false, "moving_variance_initializer": {"class_name": "Ones", "config": {}}, "beta_initializer": {"class_name": "Zeros", "config": {}}, "scale": false, "axis": 3, "gamma_constraint": null, "gamma_regularizer": null, "beta_regularizer": null, "momentum": 0.99, "center": true}, "inbound_nodes": [[["conv2d_141", 0, 0, {}]]], "name": "batch_normalization_141"}, {"class_name": "Activation", "config": {"activation": "relu", "trainable": false, "name": "activation_138"}, "inbound_nodes": [[["batch_normalization_138", 0, 0, {}]]], "name": "activation_138"}, {"class_name": "Activation", "config": {"activation": "relu", "trainable": false, "name": "activation_141"}, "inbound_nodes": [[["batch_normalization_141", 0, 0, {}]]], "name": "activation_141"}, {"class_name": "Conv2D", "config": {"kernel_constraint": null, "kernel_initializer": {"class_name": "VarianceScaling", "config": {"distribution": "uniform", "scale": 1.0, "seed": null, "mode": "fan_avg"}}, "name": "conv2d_137", "bias_regularizer": null, "bias_constraint": null, "activation": "linear", "trainable": false, "data_format": "channels_last", "padding": "same", "strides": [1, 1], "dilation_rate": [1, 1], "kernel_regularizer": null, "filters": 32, "bias_initializer": {"class_name": "Zeros", "config": {}}, "use_bias": false, "activity_regularizer": null, "kernel_size": [1, 1]}, "inbound_nodes": [[["block35_5_ac", 0, 0, {}]]], "name": "conv2d_137"}, {"class_name": "Conv2D", "config": {"kernel_constraint": null, "kernel_initializer": {"class_name": "VarianceScaling", "config": {"distribution": "uniform", "scale": 1.0, "seed": null, "mode": "fan_avg"}}, "name": "conv2d_139", "bias_regularizer": null, "bias_constraint": null, "activation": "linear", "trainable": false, "data_format": "channels_last", "padding": "same", "strides": [1, 1], "dilation_rate": [1, 1], "kernel_regularizer": null, "filters": 32, "bias_initializer": {"class_name": "Zeros", "config": {}}, "use_bias": false, "activity_regularizer": null, "kernel_size": [3, 3]}, "inbound_nodes": [[["activation_138", 0, 0, {}]]], "name": "conv2d_139"}, {"class_name": "Conv2D", "config": {"kernel_constraint": null, "kernel_initializer": {"class_name": "VarianceScaling", "config": {"distribution": "uniform", "scale": 1.0, "seed": null, "mode": "fan_avg"}}, "name": "conv2d_142", "bias_regularizer": null, "bias_constraint": null, "activation": "linear", "trainable": false, "data_format": "channels_last", "padding": "same", "strides": [1, 1], "dilation_rate": [1, 1], "kernel_regularizer": null, "filters": 64, "bias_initializer": {"class_name": "Zeros", "config": {}}, "use_bias": false, "activity_regularizer": null, "kernel_size": [3, 3]}, "inbound_nodes": [[["activation_141", 0, 0, {}]]], "name": "conv2d_142"}, {"class_name": "BatchNormalization", "config": {"beta_constraint": null, "gamma_initializer": {"class_name": "Ones", "config": {}}, "moving_mean_initializer": {"class_name": "Zeros", "config": {}}, "name": "batch_normalization_137", "epsilon": 0.001, "trainable": false, "moving_variance_initializer": {"class_name": "Ones", "config": {}}, "beta_initializer": {"class_name": "Zeros", "config": {}}, "scale": false, "axis": 3, "gamma_constraint": null, "gamma_regularizer": null, "beta_regularizer": null, "momentum": 0.99, "center": true}, "inbound_nodes": [[["conv2d_137", 0, 0, {}]]], "name": "batch_normalization_137"}, {"class_name": "BatchNormalization", "config": {"beta_constraint": null, "gamma_initializer": {"class_name": "Ones", "config": {}}, "moving_mean_initializer": {"class_name": "Zeros", "config": {}}, "name": "batch_normalization_139", "epsilon": 0.001, "trainable": false, "moving_variance_initializer": {"class_name": "Ones", "config": {}}, "beta_initializer": {"class_name": "Zeros", "config": {}}, "scale": false, "axis": 3, "gamma_constraint": null, "gamma_regularizer": null, "beta_regularizer": null, "momentum": 0.99, "center": true}, "inbound_nodes": [[["conv2d_139", 0, 0, {}]]], "name": "batch_normalization_139"}, {"class_name": "BatchNormalization", "config": {"beta_constraint": null, "gamma_initializer": {"class_name": "Ones", "config": {}}, "moving_mean_initializer": {"class_name": "Zeros", "config": {}}, "name": "batch_normalization_142", "epsilon": 0.001, "trainable": false, "moving_variance_initializer": {"class_name": "Ones", "config": {}}, "beta_initializer": {"class_name": "Zeros", "config": {}}, "scale": false, "axis": 3, "gamma_constraint": null, "gamma_regularizer": null, "beta_regularizer": null, "momentum": 0.99, "center": true}, "inbound_nodes": [[["conv2d_142", 0, 0, {}]]], "name": "batch_normalization_142"}, {"class_name": "Activation", "config": {"activation": "relu", "trainable": false, "name": "activation_137"}, "inbound_nodes": [[["batch_normalization_137", 0, 0, {}]]], "name": "activation_137"}, {"class_name": "Activation", "config": {"activation": "relu", "trainable": false, "name": "activation_139"}, "inbound_nodes": [[["batch_normalization_139", 0, 0, {}]]], "name": "activation_139"}, {"class_name": "Activation", "config": {"activation": "relu", "trainable": false, "name": "activation_142"}, "inbound_nodes": [[["batch_normalization_142", 0, 0, {}]]], "name": "activation_142"}, {"class_name": "Concatenate", "config": {"trainable": false, "name": "block35_6_mixed", "axis": 3}, "inbound_nodes": [[["activation_137", 0, 0, {}], ["activation_139", 0, 0, {}], ["activation_142", 0, 0, {}]]], "name": "block35_6_mixed"}, {"class_name": "Conv2D", "config": {"kernel_constraint": null, "kernel_initializer": {"class_name": "VarianceScaling", "config": {"distribution": "uniform", "scale": 1.0, "seed": null, "mode": "fan_avg"}}, "name": "block35_6_conv", "bias_regularizer": null, "bias_constraint": null, "activation": "linear", "trainable": false, "data_format": "channels_last", "padding": "same", "strides": [1, 1], "dilation_rate": [1, 1], "kernel_regularizer": null, "filters": 320, "bias_initializer": {"class_name": "Zeros", "config": {}}, "use_bias": true, "activity_regularizer": null, "kernel_size": [1, 1]}, "inbound_nodes": [[["block35_6_mixed", 0, 0, {}]]], "name": "block35_6_conv"}, {"class_name": "Lambda", "config": {"function": ["YwIAAAACAAAAAwAAAFNgAQBzFAAAAHwAAGQBABl8AABkAgAZfAEAFBdTKAMAAABOaQAAAABpAQAA\nACgAAAAAKAIAAAB0BgAAAGlucHV0c3QFAAAAc2NhbGUoAAAAACgAAAAAc1AAAAAvdXNyL2xvY2Fs\nL2xpYi9weXRob24yLjcvZGlzdC1wYWNrYWdlcy9rZXJhc19hcHBsaWNhdGlvbnMvaW5jZXB0aW9u\nX3Jlc25ldF92Mi5weXQIAAAAPGxhbWJkYT6qAAAAdAAAAAA=\n", null, null], "name": "block35_6", "trainable": false, "function_type": "lambda", "arguments": {"scale": 0.17}, "output_shape": [22, 22, 320], "output_shape_type": "raw"}, "inbound_nodes": [[["block35_5_ac", 0, 0, {}], ["block35_6_conv", 0, 0, {}]]], "name": "block35_6"}, {"class_name": "Activation", "config": {"activation": "relu", "trainable": false, "name": "block35_6_ac"}, "inbound_nodes": [[["block35_6", 0, 0, {}]]], "name": "block35_6_ac"}, {"class_name": "Conv2D", "config": {"kernel_constraint": null, "kernel_initializer": {"class_name": "VarianceScaling", "config": {"distribution": "uniform", "scale": 1.0, "seed": null, "mode": "fan_avg"}}, "name": "conv2d_146", "bias_regularizer": null, "bias_constraint": null, "activation": "linear", "trainable": false, "data_format": "channels_last", "padding": "same", "strides": [1, 1], "dilation_rate": [1, 1], "kernel_regularizer": null, "filters": 32, "bias_initializer": {"class_name": "Zeros", "config": {}}, "use_bias": false, "activity_regularizer": null, "kernel_size": [1, 1]}, "inbound_nodes": [[["block35_6_ac", 0, 0, {}]]], "name": "conv2d_146"}, {"class_name": "BatchNormalization", "config": {"beta_constraint": null, "gamma_initializer": {"class_name": "Ones", "config": {}}, "moving_mean_initializer": {"class_name": "Zeros", "config": {}}, "name": "batch_normalization_146", "epsilon": 0.001, "trainable": false, "moving_variance_initializer": {"class_name": "Ones", "config": {}}, "beta_initializer": {"class_name": "Zeros", "config": {}}, "scale": false, "axis": 3, "gamma_constraint": null, "gamma_regularizer": null, "beta_regularizer": null, "momentum": 0.99, "center": true}, "inbound_nodes": [[["conv2d_146", 0, 0, {}]]], "name": "batch_normalization_146"}, {"class_name": "Activation", "config": {"activation": "relu", "trainable": false, "name": "activation_146"}, "inbound_nodes": [[["batch_normalization_146", 0, 0, {}]]], "name": "activation_146"}, {"class_name": "Conv2D", "config": {"kernel_constraint": null, "kernel_initializer": {"class_name": "VarianceScaling", "config": {"distribution": "uniform", "scale": 1.0, "seed": null, "mode": "fan_avg"}}, "name": "conv2d_144", "bias_regularizer": null, "bias_constraint": null, "activation": "linear", "trainable": false, "data_format": "channels_last", "padding": "same", "strides": [1, 1], "dilation_rate": [1, 1], "kernel_regularizer": null, "filters": 32, "bias_initializer": {"class_name": "Zeros", "config": {}}, "use_bias": false, "activity_regularizer": null, "kernel_size": [1, 1]}, "inbound_nodes": [[["block35_6_ac", 0, 0, {}]]], "name": "conv2d_144"}, {"class_name": "Conv2D", "config": {"kernel_constraint": null, "kernel_initializer": {"class_name": "VarianceScaling", "config": {"distribution": "uniform", "scale": 1.0, "seed": null, "mode": "fan_avg"}}, "name": "conv2d_147", "bias_regularizer": null, "bias_constraint": null, "activation": "linear", "trainable": false, "data_format": "channels_last", "padding": "same", "strides": [1, 1], "dilation_rate": [1, 1], "kernel_regularizer": null, "filters": 48, "bias_initializer": {"class_name": "Zeros", "config": {}}, "use_bias": false, "activity_regularizer": null, "kernel_size": [3, 3]}, "inbound_nodes": [[["activation_146", 0, 0, {}]]], "name": "conv2d_147"}, {"class_name": "BatchNormalization", "config": {"beta_constraint": null, "gamma_initializer": {"class_name": "Ones", "config": {}}, "moving_mean_initializer": {"class_name": "Zeros", "config": {}}, "name": "batch_normalization_144", "epsilon": 0.001, "trainable": false, "moving_variance_initializer": {"class_name": "Ones", "config": {}}, "beta_initializer": {"class_name": "Zeros", "config": {}}, "scale": false, "axis": 3, "gamma_constraint": null, "gamma_regularizer": null, "beta_regularizer": null, "momentum": 0.99, "center": true}, "inbound_nodes": [[["conv2d_144", 0, 0, {}]]], "name": "batch_normalization_144"}, {"class_name": "BatchNormalization", "config": {"beta_constraint": null, "gamma_initializer": {"class_name": "Ones", "config": {}}, "moving_mean_initializer": {"class_name": "Zeros", "config": {}}, "name": "batch_normalization_147", "epsilon": 0.001, "trainable": false, "moving_variance_initializer": {"class_name": "Ones", "config": {}}, "beta_initializer": {"class_name": "Zeros", "config": {}}, "scale": false, "axis": 3, "gamma_constraint": null, "gamma_regularizer": null, "beta_regularizer": null, "momentum": 0.99, "center": true}, "inbound_nodes": [[["conv2d_147", 0, 0, {}]]], "name": "batch_normalization_147"}, {"class_name": "Activation", "config": {"activation": "relu", "trainable": false, "name": "activation_144"}, "inbound_nodes": [[["batch_normalization_144", 0, 0, {}]]], "name": "activation_144"}, {"class_name": "Activation", "config": {"activation": "relu", "trainable": false, "name": "activation_147"}, "inbound_nodes": [[["batch_normalization_147", 0, 0, {}]]], "name": "activation_147"}, {"class_name": "Conv2D", "config": {"kernel_constraint": null, "kernel_initializer": {"class_name": "VarianceScaling", "config": {"distribution": "uniform", "scale": 1.0, "seed": null, "mode": "fan_avg"}}, "name": "conv2d_143", "bias_regularizer": null, "bias_constraint": null, "activation": "linear", "trainable": false, "data_format": "channels_last", "padding": "same", "strides": [1, 1], "dilation_rate": [1, 1], "kernel_regularizer": null, "filters": 32, "bias_initializer": {"class_name": "Zeros", "config": {}}, "use_bias": false, "activity_regularizer": null, "kernel_size": [1, 1]}, "inbound_nodes": [[["block35_6_ac", 0, 0, {}]]], "name": "conv2d_143"}, {"class_name": "Conv2D", "config": {"kernel_constraint": null, "kernel_initializer": {"class_name": "VarianceScaling", "config": {"distribution": "uniform", "scale": 1.0, "seed": null, "mode": "fan_avg"}}, "name": "conv2d_145", "bias_regularizer": null, "bias_constraint": null, "activation": "linear", "trainable": false, "data_format": "channels_last", "padding": "same", "strides": [1, 1], "dilation_rate": [1, 1], "kernel_regularizer": null, "filters": 32, "bias_initializer": {"class_name": "Zeros", "config": {}}, "use_bias": false, "activity_regularizer": null, "kernel_size": [3, 3]}, "inbound_nodes": [[["activation_144", 0, 0, {}]]], "name": "conv2d_145"}, {"class_name": "Conv2D", "config": {"kernel_constraint": null, "kernel_initializer": {"class_name": "VarianceScaling", "config": {"distribution": "uniform", "scale": 1.0, "seed": null, "mode": "fan_avg"}}, "name": "conv2d_148", "bias_regularizer": null, "bias_constraint": null, "activation": "linear", "trainable": false, "data_format": "channels_last", "padding": "same", "strides": [1, 1], "dilation_rate": [1, 1], "kernel_regularizer": null, "filters": 64, "bias_initializer": {"class_name": "Zeros", "config": {}}, "use_bias": false, "activity_regularizer": null, "kernel_size": [3, 3]}, "inbound_nodes": [[["activation_147", 0, 0, {}]]], "name": "conv2d_148"}, {"class_name": "BatchNormalization", "config": {"beta_constraint": null, "gamma_initializer": {"class_name": "Ones", "config": {}}, "moving_mean_initializer": {"class_name": "Zeros", "config": {}}, "name": "batch_normalization_143", "epsilon": 0.001, "trainable": false, "moving_variance_initializer": {"class_name": "Ones", "config": {}}, "beta_initializer": {"class_name": "Zeros", "config": {}}, "scale": false, "axis": 3, "gamma_constraint": null, "gamma_regularizer": null, "beta_regularizer": null, "momentum": 0.99, "center": true}, "inbound_nodes": [[["conv2d_143", 0, 0, {}]]], "name": "batch_normalization_143"}, {"class_name": "BatchNormalization", "config": {"beta_constraint": null, "gamma_initializer": {"class_name": "Ones", "config": {}}, "moving_mean_initializer": {"class_name": "Zeros", "config": {}}, "name": "batch_normalization_145", "epsilon": 0.001, "trainable": false, "moving_variance_initializer": {"class_name": "Ones", "config": {}}, "beta_initializer": {"class_name": "Zeros", "config": {}}, "scale": false, "axis": 3, "gamma_constraint": null, "gamma_regularizer": null, "beta_regularizer": null, "momentum": 0.99, "center": true}, "inbound_nodes": [[["conv2d_145", 0, 0, {}]]], "name": "batch_normalization_145"}, {"class_name": "BatchNormalization", "config": {"beta_constraint": null, "gamma_initializer": {"class_name": "Ones", "config": {}}, "moving_mean_initializer": {"class_name": "Zeros", "config": {}}, "name": "batch_normalization_148", "epsilon": 0.001, "trainable": false, "moving_variance_initializer": {"class_name": "Ones", "config": {}}, "beta_initializer": {"class_name": "Zeros", "config": {}}, "scale": false, "axis": 3, "gamma_constraint": null, "gamma_regularizer": null, "beta_regularizer": null, "momentum": 0.99, "center": true}, "inbound_nodes": [[["conv2d_148", 0, 0, {}]]], "name": "batch_normalization_148"}, {"class_name": "Activation", "config": {"activation": "relu", "trainable": false, "name": "activation_143"}, "inbound_nodes": [[["batch_normalization_143", 0, 0, {}]]], "name": "activation_143"}, {"class_name": "Activation", "config": {"activation": "relu", "trainable": false, "name": "activation_145"}, "inbound_nodes": [[["batch_normalization_145", 0, 0, {}]]], "name": "activation_145"}, {"class_name": "Activation", "config": {"activation": "relu", "trainable": false, "name": "activation_148"}, "inbound_nodes": [[["batch_normalization_148", 0, 0, {}]]], "name": "activation_148"}, {"class_name": "Concatenate", "config": {"trainable": false, "name": "block35_7_mixed", "axis": 3}, "inbound_nodes": [[["activation_143", 0, 0, {}], ["activation_145", 0, 0, {}], ["activation_148", 0, 0, {}]]], "name": "block35_7_mixed"}, {"class_name": "Conv2D", "config": {"kernel_constraint": null, "kernel_initializer": {"class_name": "VarianceScaling", "config": {"distribution": "uniform", "scale": 1.0, "seed": null, "mode": "fan_avg"}}, "name": "block35_7_conv", "bias_regularizer": null, "bias_constraint": null, "activation": "linear", "trainable": false, "data_format": "channels_last", "padding": "same", "strides": [1, 1], "dilation_rate": [1, 1], "kernel_regularizer": null, "filters": 320, "bias_initializer": {"class_name": "Zeros", "config": {}}, "use_bias": true, "activity_regularizer": null, "kernel_size": [1, 1]}, "inbound_nodes": [[["block35_7_mixed", 0, 0, {}]]], "name": "block35_7_conv"}, {"class_name": "Lambda", "config": {"function": ["YwIAAAACAAAAAwAAAFNgAQBzFAAAAHwAAGQBABl8AABkAgAZfAEAFBdTKAMAAABOaQAAAABpAQAA\nACgAAAAAKAIAAAB0BgAAAGlucHV0c3QFAAAAc2NhbGUoAAAAACgAAAAAc1AAAAAvdXNyL2xvY2Fs\nL2xpYi9weXRob24yLjcvZGlzdC1wYWNrYWdlcy9rZXJhc19hcHBsaWNhdGlvbnMvaW5jZXB0aW9u\nX3Jlc25ldF92Mi5weXQIAAAAPGxhbWJkYT6qAAAAdAAAAAA=\n", null, null], "name": "block35_7", "trainable": false, "function_type": "lambda", "arguments": {"scale": 0.17}, "output_shape": [22, 22, 320], "output_shape_type": "raw"}, "inbound_nodes": [[["block35_6_ac", 0, 0, {}], ["block35_7_conv", 0, 0, {}]]], "name": "block35_7"}, {"class_name": "Activation", "config": {"activation": "relu", "trainable": false, "name": "block35_7_ac"}, "inbound_nodes": [[["block35_7", 0, 0, {}]]], "name": "block35_7_ac"}, {"class_name": "Conv2D", "config": {"kernel_constraint": null, "kernel_initializer": {"class_name": "VarianceScaling", "config": {"distribution": "uniform", "scale": 1.0, "seed": null, "mode": "fan_avg"}}, "name": "conv2d_152", "bias_regularizer": null, "bias_constraint": null, "activation": "linear", "trainable": false, "data_format": "channels_last", "padding": "same", "strides": [1, 1], "dilation_rate": [1, 1], "kernel_regularizer": null, "filters": 32, "bias_initializer": {"class_name": "Zeros", "config": {}}, "use_bias": false, "activity_regularizer": null, "kernel_size": [1, 1]}, "inbound_nodes": [[["block35_7_ac", 0, 0, {}]]], "name": "conv2d_152"}, {"class_name": "BatchNormalization", "config": {"beta_constraint": null, "gamma_initializer": {"class_name": "Ones", "config": {}}, "moving_mean_initializer": {"class_name": "Zeros", "config": {}}, "name": "batch_normalization_152", "epsilon": 0.001, "trainable": false, "moving_variance_initializer": {"class_name": "Ones", "config": {}}, "beta_initializer": {"class_name": "Zeros", "config": {}}, "scale": false, "axis": 3, "gamma_constraint": null, "gamma_regularizer": null, "beta_regularizer": null, "momentum": 0.99, "center": true}, "inbound_nodes": [[["conv2d_152", 0, 0, {}]]], "name": "batch_normalization_152"}, {"class_name": "Activation", "config": {"activation": "relu", "trainable": false, "name": "activation_152"}, "inbound_nodes": [[["batch_normalization_152", 0, 0, {}]]], "name": "activation_152"}, {"class_name": "Conv2D", "config": {"kernel_constraint": null, "kernel_initializer": {"class_name": "VarianceScaling", "config": {"distribution": "uniform", "scale": 1.0, "seed": null, "mode": "fan_avg"}}, "name": "conv2d_150", "bias_regularizer": null, "bias_constraint": null, "activation": "linear", "trainable": false, "data_format": "channels_last", "padding": "same", "strides": [1, 1], "dilation_rate": [1, 1], "kernel_regularizer": null, "filters": 32, "bias_initializer": {"class_name": "Zeros", "config": {}}, "use_bias": false, "activity_regularizer": null, "kernel_size": [1, 1]}, "inbound_nodes": [[["block35_7_ac", 0, 0, {}]]], "name": "conv2d_150"}, {"class_name": "Conv2D", "config": {"kernel_constraint": null, "kernel_initializer": {"class_name": "VarianceScaling", "config": {"distribution": "uniform", "scale": 1.0, "seed": null, "mode": "fan_avg"}}, "name": "conv2d_153", "bias_regularizer": null, "bias_constraint": null, "activation": "linear", "trainable": false, "data_format": "channels_last", "padding": "same", "strides": [1, 1], "dilation_rate": [1, 1], "kernel_regularizer": null, "filters": 48, "bias_initializer": {"class_name": "Zeros", "config": {}}, "use_bias": false, "activity_regularizer": null, "kernel_size": [3, 3]}, "inbound_nodes": [[["activation_152", 0, 0, {}]]], "name": "conv2d_153"}, {"class_name": "BatchNormalization", "config": {"beta_constraint": null, "gamma_initializer": {"class_name": "Ones", "config": {}}, "moving_mean_initializer": {"class_name": "Zeros", "config": {}}, "name": "batch_normalization_150", "epsilon": 0.001, "trainable": false, "moving_variance_initializer": {"class_name": "Ones", "config": {}}, "beta_initializer": {"class_name": "Zeros", "config": {}}, "scale": false, "axis": 3, "gamma_constraint": null, "gamma_regularizer": null, "beta_regularizer": null, "momentum": 0.99, "center": true}, "inbound_nodes": [[["conv2d_150", 0, 0, {}]]], "name": "batch_normalization_150"}, {"class_name": "BatchNormalization", "config": {"beta_constraint": null, "gamma_initializer": {"class_name": "Ones", "config": {}}, "moving_mean_initializer": {"class_name": "Zeros", "config": {}}, "name": "batch_normalization_153", "epsilon": 0.001, "trainable": false, "moving_variance_initializer": {"class_name": "Ones", "config": {}}, "beta_initializer": {"class_name": "Zeros", "config": {}}, "scale": false, "axis": 3, "gamma_constraint": null, "gamma_regularizer": null, "beta_regularizer": null, "momentum": 0.99, "center": true}, "inbound_nodes": [[["conv2d_153", 0, 0, {}]]], "name": "batch_normalization_153"}, {"class_name": "Activation", "config": {"activation": "relu", "trainable": false, "name": "activation_150"}, "inbound_nodes": [[["batch_normalization_150", 0, 0, {}]]], "name": "activation_150"}, {"class_name": "Activation", "config": {"activation": "relu", "trainable": false, "name": "activation_153"}, "inbound_nodes": [[["batch_normalization_153", 0, 0, {}]]], "name": "activation_153"}, {"class_name": "Conv2D", "config": {"kernel_constraint": null, "kernel_initializer": {"class_name": "VarianceScaling", "config": {"distribution": "uniform", "scale": 1.0, "seed": null, "mode": "fan_avg"}}, "name": "conv2d_149", "bias_regularizer": null, "bias_constraint": null, "activation": "linear", "trainable": false, "data_format": "channels_last", "padding": "same", "strides": [1, 1], "dilation_rate": [1, 1], "kernel_regularizer": null, "filters": 32, "bias_initializer": {"class_name": "Zeros", "config": {}}, "use_bias": false, "activity_regularizer": null, "kernel_size": [1, 1]}, "inbound_nodes": [[["block35_7_ac", 0, 0, {}]]], "name": "conv2d_149"}, {"class_name": "Conv2D", "config": {"kernel_constraint": null, "kernel_initializer": {"class_name": "VarianceScaling", "config": {"distribution": "uniform", "scale": 1.0, "seed": null, "mode": "fan_avg"}}, "name": "conv2d_151", "bias_regularizer": null, "bias_constraint": null, "activation": "linear", "trainable": false, "data_format": "channels_last", "padding": "same", "strides": [1, 1], "dilation_rate": [1, 1], "kernel_regularizer": null, "filters": 32, "bias_initializer": {"class_name": "Zeros", "config": {}}, "use_bias": false, "activity_regularizer": null, "kernel_size": [3, 3]}, "inbound_nodes": [[["activation_150", 0, 0, {}]]], "name": "conv2d_151"}, {"class_name": "Conv2D", "config": {"kernel_constraint": null, "kernel_initializer": {"class_name": "VarianceScaling", "config": {"distribution": "uniform", "scale": 1.0, "seed": null, "mode": "fan_avg"}}, "name": "conv2d_154", "bias_regularizer": null, "bias_constraint": null, "activation": "linear", "trainable": false, "data_format": "channels_last", "padding": "same", "strides": [1, 1], "dilation_rate": [1, 1], "kernel_regularizer": null, "filters": 64, "bias_initializer": {"class_name": "Zeros", "config": {}}, "use_bias": false, "activity_regularizer": null, "kernel_size": [3, 3]}, "inbound_nodes": [[["activation_153", 0, 0, {}]]], "name": "conv2d_154"}, {"class_name": "BatchNormalization", "config": {"beta_constraint": null, "gamma_initializer": {"class_name": "Ones", "config": {}}, "moving_mean_initializer": {"class_name": "Zeros", "config": {}}, "name": "batch_normalization_149", "epsilon": 0.001, "trainable": false, "moving_variance_initializer": {"class_name": "Ones", "config": {}}, "beta_initializer": {"class_name": "Zeros", "config": {}}, "scale": false, "axis": 3, "gamma_constraint": null, "gamma_regularizer": null, "beta_regularizer": null, "momentum": 0.99, "center": true}, "inbound_nodes": [[["conv2d_149", 0, 0, {}]]], "name": "batch_normalization_149"}, {"class_name": "BatchNormalization", "config": {"beta_constraint": null, "gamma_initializer": {"class_name": "Ones", "config": {}}, "moving_mean_initializer": {"class_name": "Zeros", "config": {}}, "name": "batch_normalization_151", "epsilon": 0.001, "trainable": false, "moving_variance_initializer": {"class_name": "Ones", "config": {}}, "beta_initializer": {"class_name": "Zeros", "config": {}}, "scale": false, "axis": 3, "gamma_constraint": null, "gamma_regularizer": null, "beta_regularizer": null, "momentum": 0.99, "center": true}, "inbound_nodes": [[["conv2d_151", 0, 0, {}]]], "name": "batch_normalization_151"}, {"class_name": "BatchNormalization", "config": {"beta_constraint": null, "gamma_initializer": {"class_name": "Ones", "config": {}}, "moving_mean_initializer": {"class_name": "Zeros", "config": {}}, "name": "batch_normalization_154", "epsilon": 0.001, "trainable": false, "moving_variance_initializer": {"class_name": "Ones", "config": {}}, "beta_initializer": {"class_name": "Zeros", "config": {}}, "scale": false, "axis": 3, "gamma_constraint": null, "gamma_regularizer": null, "beta_regularizer": null, "momentum": 0.99, "center": true}, "inbound_nodes": [[["conv2d_154", 0, 0, {}]]], "name": "batch_normalization_154"}, {"class_name": "Activation", "config": {"activation": "relu", "trainable": false, "name": "activation_149"}, "inbound_nodes": [[["batch_normalization_149", 0, 0, {}]]], "name": "activation_149"}, {"class_name": "Activation", "config": {"activation": "relu", "trainable": false, "name": "activation_151"}, "inbound_nodes": [[["batch_normalization_151", 0, 0, {}]]], "name": "activation_151"}, {"class_name": "Activation", "config": {"activation": "relu", "trainable": false, "name": "activation_154"}, "inbound_nodes": [[["batch_normalization_154", 0, 0, {}]]], "name": "activation_154"}, {"class_name": "Concatenate", "config": {"trainable": false, "name": "block35_8_mixed", "axis": 3}, "inbound_nodes": [[["activation_149", 0, 0, {}], ["activation_151", 0, 0, {}], ["activation_154", 0, 0, {}]]], "name": "block35_8_mixed"}, {"class_name": "Conv2D", "config": {"kernel_constraint": null, "kernel_initializer": {"class_name": "VarianceScaling", "config": {"distribution": "uniform", "scale": 1.0, "seed": null, "mode": "fan_avg"}}, "name": "block35_8_conv", "bias_regularizer": null, "bias_constraint": null, "activation": "linear", "trainable": false, "data_format": "channels_last", "padding": "same", "strides": [1, 1], "dilation_rate": [1, 1], "kernel_regularizer": null, "filters": 320, "bias_initializer": {"class_name": "Zeros", "config": {}}, "use_bias": true, "activity_regularizer": null, "kernel_size": [1, 1]}, "inbound_nodes": [[["block35_8_mixed", 0, 0, {}]]], "name": "block35_8_conv"}, {"class_name": "Lambda", "config": {"function": ["YwIAAAACAAAAAwAAAFNgAQBzFAAAAHwAAGQBABl8AABkAgAZfAEAFBdTKAMAAABOaQAAAABpAQAA\nACgAAAAAKAIAAAB0BgAAAGlucHV0c3QFAAAAc2NhbGUoAAAAACgAAAAAc1AAAAAvdXNyL2xvY2Fs\nL2xpYi9weXRob24yLjcvZGlzdC1wYWNrYWdlcy9rZXJhc19hcHBsaWNhdGlvbnMvaW5jZXB0aW9u\nX3Jlc25ldF92Mi5weXQIAAAAPGxhbWJkYT6qAAAAdAAAAAA=\n", null, null], "name": "block35_8", "trainable": false, "function_type": "lambda", "arguments": {"scale": 0.17}, "output_shape": [22, 22, 320], "output_shape_type": "raw"}, "inbound_nodes": [[["block35_7_ac", 0, 0, {}], ["block35_8_conv", 0, 0, {}]]], "name": "block35_8"}, {"class_name": "Activation", "config": {"activation": "relu", "trainable": false, "name": "block35_8_ac"}, "inbound_nodes": [[["block35_8", 0, 0, {}]]], "name": "block35_8_ac"}, {"class_name": "Conv2D", "config": {"kernel_constraint": null, "kernel_initializer": {"class_name": "VarianceScaling", "config": {"distribution": "uniform", "scale": 1.0, "seed": null, "mode": "fan_avg"}}, "name": "conv2d_158", "bias_regularizer": null, "bias_constraint": null, "activation": "linear", "trainable": false, "data_format": "channels_last", "padding": "same", "strides": [1, 1], "dilation_rate": [1, 1], "kernel_regularizer": null, "filters": 32, "bias_initializer": {"class_name": "Zeros", "config": {}}, "use_bias": false, "activity_regularizer": null, "kernel_size": [1, 1]}, "inbound_nodes": [[["block35_8_ac", 0, 0, {}]]], "name": "conv2d_158"}, {"class_name": "BatchNormalization", "config": {"beta_constraint": null, "gamma_initializer": {"class_name": "Ones", "config": {}}, "moving_mean_initializer": {"class_name": "Zeros", "config": {}}, "name": "batch_normalization_158", "epsilon": 0.001, "trainable": false, "moving_variance_initializer": {"class_name": "Ones", "config": {}}, "beta_initializer": {"class_name": "Zeros", "config": {}}, "scale": false, "axis": 3, "gamma_constraint": null, "gamma_regularizer": null, "beta_regularizer": null, "momentum": 0.99, "center": true}, "inbound_nodes": [[["conv2d_158", 0, 0, {}]]], "name": "batch_normalization_158"}, {"class_name": "Activation", "config": {"activation": "relu", "trainable": false, "name": "activation_158"}, "inbound_nodes": [[["batch_normalization_158", 0, 0, {}]]], "name": "activation_158"}, {"class_name": "Conv2D", "config": {"kernel_constraint": null, "kernel_initializer": {"class_name": "VarianceScaling", "config": {"distribution": "uniform", "scale": 1.0, "seed": null, "mode": "fan_avg"}}, "name": "conv2d_156", "bias_regularizer": null, "bias_constraint": null, "activation": "linear", "trainable": false, "data_format": "channels_last", "padding": "same", "strides": [1, 1], "dilation_rate": [1, 1], "kernel_regularizer": null, "filters": 32, "bias_initializer": {"class_name": "Zeros", "config": {}}, "use_bias": false, "activity_regularizer": null, "kernel_size": [1, 1]}, "inbound_nodes": [[["block35_8_ac", 0, 0, {}]]], "name": "conv2d_156"}, {"class_name": "Conv2D", "config": {"kernel_constraint": null, "kernel_initializer": {"class_name": "VarianceScaling", "config": {"distribution": "uniform", "scale": 1.0, "seed": null, "mode": "fan_avg"}}, "name": "conv2d_159", "bias_regularizer": null, "bias_constraint": null, "activation": "linear", "trainable": false, "data_format": "channels_last", "padding": "same", "strides": [1, 1], "dilation_rate": [1, 1], "kernel_regularizer": null, "filters": 48, "bias_initializer": {"class_name": "Zeros", "config": {}}, "use_bias": false, "activity_regularizer": null, "kernel_size": [3, 3]}, "inbound_nodes": [[["activation_158", 0, 0, {}]]], "name": "conv2d_159"}, {"class_name": "BatchNormalization", "config": {"beta_constraint": null, "gamma_initializer": {"class_name": "Ones", "config": {}}, "moving_mean_initializer": {"class_name": "Zeros", "config": {}}, "name": "batch_normalization_156", "epsilon": 0.001, "trainable": false, "moving_variance_initializer": {"class_name": "Ones", "config": {}}, "beta_initializer": {"class_name": "Zeros", "config": {}}, "scale": false, "axis": 3, "gamma_constraint": null, "gamma_regularizer": null, "beta_regularizer": null, "momentum": 0.99, "center": true}, "inbound_nodes": [[["conv2d_156", 0, 0, {}]]], "name": "batch_normalization_156"}, {"class_name": "BatchNormalization", "config": {"beta_constraint": null, "gamma_initializer": {"class_name": "Ones", "config": {}}, "moving_mean_initializer": {"class_name": "Zeros", "config": {}}, "name": "batch_normalization_159", "epsilon": 0.001, "trainable": false, "moving_variance_initializer": {"class_name": "Ones", "config": {}}, "beta_initializer": {"class_name": "Zeros", "config": {}}, "scale": false, "axis": 3, "gamma_constraint": null, "gamma_regularizer": null, "beta_regularizer": null, "momentum": 0.99, "center": true}, "inbound_nodes": [[["conv2d_159", 0, 0, {}]]], "name": "batch_normalization_159"}, {"class_name": "Activation", "config": {"activation": "relu", "trainable": false, "name": "activation_156"}, "inbound_nodes": [[["batch_normalization_156", 0, 0, {}]]], "name": "activation_156"}, {"class_name": "Activation", "config": {"activation": "relu", "trainable": false, "name": "activation_159"}, "inbound_nodes": [[["batch_normalization_159", 0, 0, {}]]], "name": "activation_159"}, {"class_name": "Conv2D", "config": {"kernel_constraint": null, "kernel_initializer": {"class_name": "VarianceScaling", "config": {"distribution": "uniform", "scale": 1.0, "seed": null, "mode": "fan_avg"}}, "name": "conv2d_155", "bias_regularizer": null, "bias_constraint": null, "activation": "linear", "trainable": false, "data_format": "channels_last", "padding": "same", "strides": [1, 1], "dilation_rate": [1, 1], "kernel_regularizer": null, "filters": 32, "bias_initializer": {"class_name": "Zeros", "config": {}}, "use_bias": false, "activity_regularizer": null, "kernel_size": [1, 1]}, "inbound_nodes": [[["block35_8_ac", 0, 0, {}]]], "name": "conv2d_155"}, {"class_name": "Conv2D", "config": {"kernel_constraint": null, "kernel_initializer": {"class_name": "VarianceScaling", "config": {"distribution": "uniform", "scale": 1.0, "seed": null, "mode": "fan_avg"}}, "name": "conv2d_157", "bias_regularizer": null, "bias_constraint": null, "activation": "linear", "trainable": false, "data_format": "channels_last", "padding": "same", "strides": [1, 1], "dilation_rate": [1, 1], "kernel_regularizer": null, "filters": 32, "bias_initializer": {"class_name": "Zeros", "config": {}}, "use_bias": false, "activity_regularizer": null, "kernel_size": [3, 3]}, "inbound_nodes": [[["activation_156", 0, 0, {}]]], "name": "conv2d_157"}, {"class_name": "Conv2D", "config": {"kernel_constraint": null, "kernel_initializer": {"class_name": "VarianceScaling", "config": {"distribution": "uniform", "scale": 1.0, "seed": null, "mode": "fan_avg"}}, "name": "conv2d_160", "bias_regularizer": null, "bias_constraint": null, "activation": "linear", "trainable": false, "data_format": "channels_last", "padding": "same", "strides": [1, 1], "dilation_rate": [1, 1], "kernel_regularizer": null, "filters": 64, "bias_initializer": {"class_name": "Zeros", "config": {}}, "use_bias": false, "activity_regularizer": null, "kernel_size": [3, 3]}, "inbound_nodes": [[["activation_159", 0, 0, {}]]], "name": "conv2d_160"}, {"class_name": "BatchNormalization", "config": {"beta_constraint": null, "gamma_initializer": {"class_name": "Ones", "config": {}}, "moving_mean_initializer": {"class_name": "Zeros", "config": {}}, "name": "batch_normalization_155", "epsilon": 0.001, "trainable": false, "moving_variance_initializer": {"class_name": "Ones", "config": {}}, "beta_initializer": {"class_name": "Zeros", "config": {}}, "scale": false, "axis": 3, "gamma_constraint": null, "gamma_regularizer": null, "beta_regularizer": null, "momentum": 0.99, "center": true}, "inbound_nodes": [[["conv2d_155", 0, 0, {}]]], "name": "batch_normalization_155"}, {"class_name": "BatchNormalization", "config": {"beta_constraint": null, "gamma_initializer": {"class_name": "Ones", "config": {}}, "moving_mean_initializer": {"class_name": "Zeros", "config": {}}, "name": "batch_normalization_157", "epsilon": 0.001, "trainable": false, "moving_variance_initializer": {"class_name": "Ones", "config": {}}, "beta_initializer": {"class_name": "Zeros", "config": {}}, "scale": false, "axis": 3, "gamma_constraint": null, "gamma_regularizer": null, "beta_regularizer": null, "momentum": 0.99, "center": true}, "inbound_nodes": [[["conv2d_157", 0, 0, {}]]], "name": "batch_normalization_157"}, {"class_name": "BatchNormalization", "config": {"beta_constraint": null, "gamma_initializer": {"class_name": "Ones", "config": {}}, "moving_mean_initializer": {"class_name": "Zeros", "config": {}}, "name": "batch_normalization_160", "epsilon": 0.001, "trainable": false, "moving_variance_initializer": {"class_name": "Ones", "config": {}}, "beta_initializer": {"class_name": "Zeros", "config": {}}, "scale": false, "axis": 3, "gamma_constraint": null, "gamma_regularizer": null, "beta_regularizer": null, "momentum": 0.99, "center": true}, "inbound_nodes": [[["conv2d_160", 0, 0, {}]]], "name": "batch_normalization_160"}, {"class_name": "Activation", "config": {"activation": "relu", "trainable": false, "name": "activation_155"}, "inbound_nodes": [[["batch_normalization_155", 0, 0, {}]]], "name": "activation_155"}, {"class_name": "Activation", "config": {"activation": "relu", "trainable": false, "name": "activation_157"}, "inbound_nodes": [[["batch_normalization_157", 0, 0, {}]]], "name": "activation_157"}, {"class_name": "Activation", "config": {"activation": "relu", "trainable": false, "name": "activation_160"}, "inbound_nodes": [[["batch_normalization_160", 0, 0, {}]]], "name": "activation_160"}, {"class_name": "Concatenate", "config": {"trainable": false, "name": "block35_9_mixed", "axis": 3}, "inbound_nodes": [[["activation_155", 0, 0, {}], ["activation_157", 0, 0, {}], ["activation_160", 0, 0, {}]]], "name": "block35_9_mixed"}, {"class_name": "Conv2D", "config": {"kernel_constraint": null, "kernel_initializer": {"class_name": "VarianceScaling", "config": {"distribution": "uniform", "scale": 1.0, "seed": null, "mode": "fan_avg"}}, "name": "block35_9_conv", "bias_regularizer": null, "bias_constraint": null, "activation": "linear", "trainable": false, "data_format": "channels_last", "padding": "same", "strides": [1, 1], "dilation_rate": [1, 1], "kernel_regularizer": null, "filters": 320, "bias_initializer": {"class_name": "Zeros", "config": {}}, "use_bias": true, "activity_regularizer": null, "kernel_size": [1, 1]}, "inbound_nodes": [[["block35_9_mixed", 0, 0, {}]]], "name": "block35_9_conv"}, {"class_name": "Lambda", "config": {"function": ["YwIAAAACAAAAAwAAAFNgAQBzFAAAAHwAAGQBABl8AABkAgAZfAEAFBdTKAMAAABOaQAAAABpAQAA\nACgAAAAAKAIAAAB0BgAAAGlucHV0c3QFAAAAc2NhbGUoAAAAACgAAAAAc1AAAAAvdXNyL2xvY2Fs\nL2xpYi9weXRob24yLjcvZGlzdC1wYWNrYWdlcy9rZXJhc19hcHBsaWNhdGlvbnMvaW5jZXB0aW9u\nX3Jlc25ldF92Mi5weXQIAAAAPGxhbWJkYT6qAAAAdAAAAAA=\n", null, null], "name": "block35_9", "trainable": false, "function_type": "lambda", "arguments": {"scale": 0.17}, "output_shape": [22, 22, 320], "output_shape_type": "raw"}, "inbound_nodes": [[["block35_8_ac", 0, 0, {}], ["block35_9_conv", 0, 0, {}]]], "name": "block35_9"}, {"class_name": "Activation", "config": {"activation": "relu", "trainable": false, "name": "block35_9_ac"}, "inbound_nodes": [[["block35_9", 0, 0, {}]]], "name": "block35_9_ac"}, {"class_name": "Conv2D", "config": {"kernel_constraint": null, "kernel_initializer": {"class_name": "VarianceScaling", "config": {"distribution": "uniform", "scale": 1.0, "seed": null, "mode": "fan_avg"}}, "name": "conv2d_164", "bias_regularizer": null, "bias_constraint": null, "activation": "linear", "trainable": false, "data_format": "channels_last", "padding": "same", "strides": [1, 1], "dilation_rate": [1, 1], "kernel_regularizer": null, "filters": 32, "bias_initializer": {"class_name": "Zeros", "config": {}}, "use_bias": false, "activity_regularizer": null, "kernel_size": [1, 1]}, "inbound_nodes": [[["block35_9_ac", 0, 0, {}]]], "name": "conv2d_164"}, {"class_name": "BatchNormalization", "config": {"beta_constraint": null, "gamma_initializer": {"class_name": "Ones", "config": {}}, "moving_mean_initializer": {"class_name": "Zeros", "config": {}}, "name": "batch_normalization_164", "epsilon": 0.001, "trainable": false, "moving_variance_initializer": {"class_name": "Ones", "config": {}}, "beta_initializer": {"class_name": "Zeros", "config": {}}, "scale": false, "axis": 3, "gamma_constraint": null, "gamma_regularizer": null, "beta_regularizer": null, "momentum": 0.99, "center": true}, "inbound_nodes": [[["conv2d_164", 0, 0, {}]]], "name": "batch_normalization_164"}, {"class_name": "Activation", "config": {"activation": "relu", "trainable": false, "name": "activation_164"}, "inbound_nodes": [[["batch_normalization_164", 0, 0, {}]]], "name": "activation_164"}, {"class_name": "Conv2D", "config": {"kernel_constraint": null, "kernel_initializer": {"class_name": "VarianceScaling", "config": {"distribution": "uniform", "scale": 1.0, "seed": null, "mode": "fan_avg"}}, "name": "conv2d_162", "bias_regularizer": null, "bias_constraint": null, "activation": "linear", "trainable": false, "data_format": "channels_last", "padding": "same", "strides": [1, 1], "dilation_rate": [1, 1], "kernel_regularizer": null, "filters": 32, "bias_initializer": {"class_name": "Zeros", "config": {}}, "use_bias": false, "activity_regularizer": null, "kernel_size": [1, 1]}, "inbound_nodes": [[["block35_9_ac", 0, 0, {}]]], "name": "conv2d_162"}, {"class_name": "Conv2D", "config": {"kernel_constraint": null, "kernel_initializer": {"class_name": "VarianceScaling", "config": {"distribution": "uniform", "scale": 1.0, "seed": null, "mode": "fan_avg"}}, "name": "conv2d_165", "bias_regularizer": null, "bias_constraint": null, "activation": "linear", "trainable": false, "data_format": "channels_last", "padding": "same", "strides": [1, 1], "dilation_rate": [1, 1], "kernel_regularizer": null, "filters": 48, "bias_initializer": {"class_name": "Zeros", "config": {}}, "use_bias": false, "activity_regularizer": null, "kernel_size": [3, 3]}, "inbound_nodes": [[["activation_164", 0, 0, {}]]], "name": "conv2d_165"}, {"class_name": "BatchNormalization", "config": {"beta_constraint": null, "gamma_initializer": {"class_name": "Ones", "config": {}}, "moving_mean_initializer": {"class_name": "Zeros", "config": {}}, "name": "batch_normalization_162", "epsilon": 0.001, "trainable": false, "moving_variance_initializer": {"class_name": "Ones", "config": {}}, "beta_initializer": {"class_name": "Zeros", "config": {}}, "scale": false, "axis": 3, "gamma_constraint": null, "gamma_regularizer": null, "beta_regularizer": null, "momentum": 0.99, "center": true}, "inbound_nodes": [[["conv2d_162", 0, 0, {}]]], "name": "batch_normalization_162"}, {"class_name": "BatchNormalization", "config": {"beta_constraint": null, "gamma_initializer": {"class_name": "Ones", "config": {}}, "moving_mean_initializer": {"class_name": "Zeros", "config": {}}, "name": "batch_normalization_165", "epsilon": 0.001, "trainable": false, "moving_variance_initializer": {"class_name": "Ones", "config": {}}, "beta_initializer": {"class_name": "Zeros", "config": {}}, "scale": false, "axis": 3, "gamma_constraint": null, "gamma_regularizer": null, "beta_regularizer": null, "momentum": 0.99, "center": true}, "inbound_nodes": [[["conv2d_165", 0, 0, {}]]], "name": "batch_normalization_165"}, {"class_name": "Activation", "config": {"activation": "relu", "trainable": false, "name": "activation_162"}, "inbound_nodes": [[["batch_normalization_162", 0, 0, {}]]], "name": "activation_162"}, {"class_name": "Activation", "config": {"activation": "relu", "trainable": false, "name": "activation_165"}, "inbound_nodes": [[["batch_normalization_165", 0, 0, {}]]], "name": "activation_165"}, {"class_name": "Conv2D", "config": {"kernel_constraint": null, "kernel_initializer": {"class_name": "VarianceScaling", "config": {"distribution": "uniform", "scale": 1.0, "seed": null, "mode": "fan_avg"}}, "name": "conv2d_161", "bias_regularizer": null, "bias_constraint": null, "activation": "linear", "trainable": false, "data_format": "channels_last", "padding": "same", "strides": [1, 1], "dilation_rate": [1, 1], "kernel_regularizer": null, "filters": 32, "bias_initializer": {"class_name": "Zeros", "config": {}}, "use_bias": false, "activity_regularizer": null, "kernel_size": [1, 1]}, "inbound_nodes": [[["block35_9_ac", 0, 0, {}]]], "name": "conv2d_161"}, {"class_name": "Conv2D", "config": {"kernel_constraint": null, "kernel_initializer": {"class_name": "VarianceScaling", "config": {"distribution": "uniform", "scale": 1.0, "seed": null, "mode": "fan_avg"}}, "name": "conv2d_163", "bias_regularizer": null, "bias_constraint": null, "activation": "linear", "trainable": false, "data_format": "channels_last", "padding": "same", "strides": [1, 1], "dilation_rate": [1, 1], "kernel_regularizer": null, "filters": 32, "bias_initializer": {"class_name": "Zeros", "config": {}}, "use_bias": false, "activity_regularizer": null, "kernel_size": [3, 3]}, "inbound_nodes": [[["activation_162", 0, 0, {}]]], "name": "conv2d_163"}, {"class_name": "Conv2D", "config": {"kernel_constraint": null, "kernel_initializer": {"class_name": "VarianceScaling", "config": {"distribution": "uniform", "scale": 1.0, "seed": null, "mode": "fan_avg"}}, "name": "conv2d_166", "bias_regularizer": null, "bias_constraint": null, "activation": "linear", "trainable": false, "data_format": "channels_last", "padding": "same", "strides": [1, 1], "dilation_rate": [1, 1], "kernel_regularizer": null, "filters": 64, "bias_initializer": {"class_name": "Zeros", "config": {}}, "use_bias": false, "activity_regularizer": null, "kernel_size": [3, 3]}, "inbound_nodes": [[["activation_165", 0, 0, {}]]], "name": "conv2d_166"}, {"class_name": "BatchNormalization", "config": {"beta_constraint": null, "gamma_initializer": {"class_name": "Ones", "config": {}}, "moving_mean_initializer": {"class_name": "Zeros", "config": {}}, "name": "batch_normalization_161", "epsilon": 0.001, "trainable": false, "moving_variance_initializer": {"class_name": "Ones", "config": {}}, "beta_initializer": {"class_name": "Zeros", "config": {}}, "scale": false, "axis": 3, "gamma_constraint": null, "gamma_regularizer": null, "beta_regularizer": null, "momentum": 0.99, "center": true}, "inbound_nodes": [[["conv2d_161", 0, 0, {}]]], "name": "batch_normalization_161"}, {"class_name": "BatchNormalization", "config": {"beta_constraint": null, "gamma_initializer": {"class_name": "Ones", "config": {}}, "moving_mean_initializer": {"class_name": "Zeros", "config": {}}, "name": "batch_normalization_163", "epsilon": 0.001, "trainable": false, "moving_variance_initializer": {"class_name": "Ones", "config": {}}, "beta_initializer": {"class_name": "Zeros", "config": {}}, "scale": false, "axis": 3, "gamma_constraint": null, "gamma_regularizer": null, "beta_regularizer": null, "momentum": 0.99, "center": true}, "inbound_nodes": [[["conv2d_163", 0, 0, {}]]], "name": "batch_normalization_163"}, {"class_name": "BatchNormalization", "config": {"beta_constraint": null, "gamma_initializer": {"class_name": "Ones", "config": {}}, "moving_mean_initializer": {"class_name": "Zeros", "config": {}}, "name": "batch_normalization_166", "epsilon": 0.001, "trainable": false, "moving_variance_initializer": {"class_name": "Ones", "config": {}}, "beta_initializer": {"class_name": "Zeros", "config": {}}, "scale": false, "axis": 3, "gamma_constraint": null, "gamma_regularizer": null, "beta_regularizer": null, "momentum": 0.99, "center": true}, "inbound_nodes": [[["conv2d_166", 0, 0, {}]]], "name": "batch_normalization_166"}, {"class_name": "Activation", "config": {"activation": "relu", "trainable": false, "name": "activation_161"}, "inbound_nodes": [[["batch_normalization_161", 0, 0, {}]]], "name": "activation_161"}, {"class_name": "Activation", "config": {"activation": "relu", "trainable": false, "name": "activation_163"}, "inbound_nodes": [[["batch_normalization_163", 0, 0, {}]]], "name": "activation_163"}, {"class_name": "Activation", "config": {"activation": "relu", "trainable": false, "name": "activation_166"}, "inbound_nodes": [[["batch_normalization_166", 0, 0, {}]]], "name": "activation_166"}, {"class_name": "Concatenate", "config": {"trainable": false, "name": "block35_10_mixed", "axis": 3}, "inbound_nodes": [[["activation_161", 0, 0, {}], ["activation_163", 0, 0, {}], ["activation_166", 0, 0, {}]]], "name": "block35_10_mixed"}, {"class_name": "Conv2D", "config": {"kernel_constraint": null, "kernel_initializer": {"class_name": "VarianceScaling", "config": {"distribution": "uniform", "scale": 1.0, "seed": null, "mode": "fan_avg"}}, "name": "block35_10_conv", "bias_regularizer": null, "bias_constraint": null, "activation": "linear", "trainable": false, "data_format": "channels_last", "padding": "same", "strides": [1, 1], "dilation_rate": [1, 1], "kernel_regularizer": null, "filters": 320, "bias_initializer": {"class_name": "Zeros", "config": {}}, "use_bias": true, "activity_regularizer": null, "kernel_size": [1, 1]}, "inbound_nodes": [[["block35_10_mixed", 0, 0, {}]]], "name": "block35_10_conv"}, {"class_name": "Lambda", "config": {"function": ["YwIAAAACAAAAAwAAAFNgAQBzFAAAAHwAAGQBABl8AABkAgAZfAEAFBdTKAMAAABOaQAAAABpAQAA\nACgAAAAAKAIAAAB0BgAAAGlucHV0c3QFAAAAc2NhbGUoAAAAACgAAAAAc1AAAAAvdXNyL2xvY2Fs\nL2xpYi9weXRob24yLjcvZGlzdC1wYWNrYWdlcy9rZXJhc19hcHBsaWNhdGlvbnMvaW5jZXB0aW9u\nX3Jlc25ldF92Mi5weXQIAAAAPGxhbWJkYT6qAAAAdAAAAAA=\n", null, null], "name": "block35_10", "trainable": false, "function_type": "lambda", "arguments": {"scale": 0.17}, "output_shape": [22, 22, 320], "output_shape_type": "raw"}, "inbound_nodes": [[["block35_9_ac", 0, 0, {}], ["block35_10_conv", 0, 0, {}]]], "name": "block35_10"}, {"class_name": "Activation", "config": {"activation": "relu", "trainable": false, "name": "block35_10_ac"}, "inbound_nodes": [[["block35_10", 0, 0, {}]]], "name": "block35_10_ac"}, {"class_name": "Conv2D", "config": {"kernel_constraint": null, "kernel_initializer": {"class_name": "VarianceScaling", "config": {"distribution": "uniform", "scale": 1.0, "seed": null, "mode": "fan_avg"}}, "name": "conv2d_168", "bias_regularizer": null, "bias_constraint": null, "activation": "linear", "trainable": false, "data_format": "channels_last", "padding": "same", "strides": [1, 1], "dilation_rate": [1, 1], "kernel_regularizer": null, "filters": 256, "bias_initializer": {"class_name": "Zeros", "config": {}}, "use_bias": false, "activity_regularizer": null, "kernel_size": [1, 1]}, "inbound_nodes": [[["block35_10_ac", 0, 0, {}]]], "name": "conv2d_168"}, {"class_name": "BatchNormalization", "config": {"beta_constraint": null, "gamma_initializer": {"class_name": "Ones", "config": {}}, "moving_mean_initializer": {"class_name": "Zeros", "config": {}}, "name": "batch_normalization_168", "epsilon": 0.001, "trainable": false, "moving_variance_initializer": {"class_name": "Ones", "config": {}}, "beta_initializer": {"class_name": "Zeros", "config": {}}, "scale": false, "axis": 3, "gamma_constraint": null, "gamma_regularizer": null, "beta_regularizer": null, "momentum": 0.99, "center": true}, "inbound_nodes": [[["conv2d_168", 0, 0, {}]]], "name": "batch_normalization_168"}, {"class_name": "Activation", "config": {"activation": "relu", "trainable": false, "name": "activation_168"}, "inbound_nodes": [[["batch_normalization_168", 0, 0, {}]]], "name": "activation_168"}, {"class_name": "Conv2D", "config": {"kernel_constraint": null, "kernel_initializer": {"class_name": "VarianceScaling", "config": {"distribution": "uniform", "scale": 1.0, "seed": null, "mode": "fan_avg"}}, "name": "conv2d_169", "bias_regularizer": null, "bias_constraint": null, "activation": "linear", "trainable": false, "data_format": "channels_last", "padding": "same", "strides": [1, 1], "dilation_rate": [1, 1], "kernel_regularizer": null, "filters": 256, "bias_initializer": {"class_name": "Zeros", "config": {}}, "use_bias": false, "activity_regularizer": null, "kernel_size": [3, 3]}, "inbound_nodes": [[["activation_168", 0, 0, {}]]], "name": "conv2d_169"}, {"class_name": "BatchNormalization", "config": {"beta_constraint": null, "gamma_initializer": {"class_name": "Ones", "config": {}}, "moving_mean_initializer": {"class_name": "Zeros", "config": {}}, "name": "batch_normalization_169", "epsilon": 0.001, "trainable": false, "moving_variance_initializer": {"class_name": "Ones", "config": {}}, "beta_initializer": {"class_name": "Zeros", "config": {}}, "scale": false, "axis": 3, "gamma_constraint": null, "gamma_regularizer": null, "beta_regularizer": null, "momentum": 0.99, "center": true}, "inbound_nodes": [[["conv2d_169", 0, 0, {}]]], "name": "batch_normalization_169"}, {"class_name": "Activation", "config": {"activation": "relu", "trainable": false, "name": "activation_169"}, "inbound_nodes": [[["batch_normalization_169", 0, 0, {}]]], "name": "activation_169"}, {"class_name": "Conv2D", "config": {"kernel_constraint": null, "kernel_initializer": {"class_name": "VarianceScaling", "config": {"distribution": "uniform", "scale": 1.0, "seed": null, "mode": "fan_avg"}}, "name": "conv2d_167", "bias_regularizer": null, "bias_constraint": null, "activation": "linear", "trainable": false, "data_format": "channels_last", "padding": "valid", "strides": [2, 2], "dilation_rate": [1, 1], "kernel_regularizer": null, "filters": 384, "bias_initializer": {"class_name": "Zeros", "config": {}}, "use_bias": false, "activity_regularizer": null, "kernel_size": [3, 3]}, "inbound_nodes": [[["block35_10_ac", 0, 0, {}]]], "name": "conv2d_167"}, {"class_name": "Conv2D", "config": {"kernel_constraint": null, "kernel_initializer": {"class_name": "VarianceScaling", "config": {"distribution": "uniform", "scale": 1.0, "seed": null, "mode": "fan_avg"}}, "name": "conv2d_170", "bias_regularizer": null, "bias_constraint": null, "activation": "linear", "trainable": false, "data_format": "channels_last", "padding": "valid", "strides": [2, 2], "dilation_rate": [1, 1], "kernel_regularizer": null, "filters": 384, "bias_initializer": {"class_name": "Zeros", "config": {}}, "use_bias": false, "activity_regularizer": null, "kernel_size": [3, 3]}, "inbound_nodes": [[["activation_169", 0, 0, {}]]], "name": "conv2d_170"}, {"class_name": "BatchNormalization", "config": {"beta_constraint": null, "gamma_initializer": {"class_name": "Ones", "config": {}}, "moving_mean_initializer": {"class_name": "Zeros", "config": {}}, "name": "batch_normalization_167", "epsilon": 0.001, "trainable": false, "moving_variance_initializer": {"class_name": "Ones", "config": {}}, "beta_initializer": {"class_name": "Zeros", "config": {}}, "scale": false, "axis": 3, "gamma_constraint": null, "gamma_regularizer": null, "beta_regularizer": null, "momentum": 0.99, "center": true}, "inbound_nodes": [[["conv2d_167", 0, 0, {}]]], "name": "batch_normalization_167"}, {"class_name": "BatchNormalization", "config": {"beta_constraint": null, "gamma_initializer": {"class_name": "Ones", "config": {}}, "moving_mean_initializer": {"class_name": "Zeros", "config": {}}, "name": "batch_normalization_170", "epsilon": 0.001, "trainable": false, "moving_variance_initializer": {"class_name": "Ones", "config": {}}, "beta_initializer": {"class_name": "Zeros", "config": {}}, "scale": false, "axis": 3, "gamma_constraint": null, "gamma_regularizer": null, "beta_regularizer": null, "momentum": 0.99, "center": true}, "inbound_nodes": [[["conv2d_170", 0, 0, {}]]], "name": "batch_normalization_170"}, {"class_name": "Activation", "config": {"activation": "relu", "trainable": false, "name": "activation_167"}, "inbound_nodes": [[["batch_normalization_167", 0, 0, {}]]], "name": "activation_167"}, {"class_name": "Activation", "config": {"activation": "relu", "trainable": false, "name": "activation_170"}, "inbound_nodes": [[["batch_normalization_170", 0, 0, {}]]], "name": "activation_170"}, {"class_name": "MaxPooling2D", "config": {"name": "max_pooling2d_7", "trainable": false, "data_format": "channels_last", "pool_size": [3, 3], "padding": "valid", "strides": [2, 2]}, "inbound_nodes": [[["block35_10_ac", 0, 0, {}]]], "name": "max_pooling2d_7"}, {"class_name": "Concatenate", "config": {"trainable": false, "name": "mixed_6a", "axis": 3}, "inbound_nodes": [[["activation_167", 0, 0, {}], ["activation_170", 0, 0, {}], ["max_pooling2d_7", 0, 0, {}]]], "name": "mixed_6a"}, {"class_name": "Conv2D", "config": {"kernel_constraint": null, "kernel_initializer": {"class_name": "VarianceScaling", "config": {"distribution": "uniform", "scale": 1.0, "seed": null, "mode": "fan_avg"}}, "name": "conv2d_172", "bias_regularizer": null, "bias_constraint": null, "activation": "linear", "trainable": false, "data_format": "channels_last", "padding": "same", "strides": [1, 1], "dilation_rate": [1, 1], "kernel_regularizer": null, "filters": 128, "bias_initializer": {"class_name": "Zeros", "config": {}}, "use_bias": false, "activity_regularizer": null, "kernel_size": [1, 1]}, "inbound_nodes": [[["mixed_6a", 0, 0, {}]]], "name": "conv2d_172"}, {"class_name": "BatchNormalization", "config": {"beta_constraint": null, "gamma_initializer": {"class_name": "Ones", "config": {}}, "moving_mean_initializer": {"class_name": "Zeros", "config": {}}, "name": "batch_normalization_172", "epsilon": 0.001, "trainable": false, "moving_variance_initializer": {"class_name": "Ones", "config": {}}, "beta_initializer": {"class_name": "Zeros", "config": {}}, "scale": false, "axis": 3, "gamma_constraint": null, "gamma_regularizer": null, "beta_regularizer": null, "momentum": 0.99, "center": true}, "inbound_nodes": [[["conv2d_172", 0, 0, {}]]], "name": "batch_normalization_172"}, {"class_name": "Activation", "config": {"activation": "relu", "trainable": false, "name": "activation_172"}, "inbound_nodes": [[["batch_normalization_172", 0, 0, {}]]], "name": "activation_172"}, {"class_name": "Conv2D", "config": {"kernel_constraint": null, "kernel_initializer": {"class_name": "VarianceScaling", "config": {"distribution": "uniform", "scale": 1.0, "seed": null, "mode": "fan_avg"}}, "name": "conv2d_173", "bias_regularizer": null, "bias_constraint": null, "activation": "linear", "trainable": false, "data_format": "channels_last", "padding": "same", "strides": [1, 1], "dilation_rate": [1, 1], "kernel_regularizer": null, "filters": 160, "bias_initializer": {"class_name": "Zeros", "config": {}}, "use_bias": false, "activity_regularizer": null, "kernel_size": [1, 7]}, "inbound_nodes": [[["activation_172", 0, 0, {}]]], "name": "conv2d_173"}, {"class_name": "BatchNormalization", "config": {"beta_constraint": null, "gamma_initializer": {"class_name": "Ones", "config": {}}, "moving_mean_initializer": {"class_name": "Zeros", "config": {}}, "name": "batch_normalization_173", "epsilon": 0.001, "trainable": false, "moving_variance_initializer": {"class_name": "Ones", "config": {}}, "beta_initializer": {"class_name": "Zeros", "config": {}}, "scale": false, "axis": 3, "gamma_constraint": null, "gamma_regularizer": null, "beta_regularizer": null, "momentum": 0.99, "center": true}, "inbound_nodes": [[["conv2d_173", 0, 0, {}]]], "name": "batch_normalization_173"}, {"class_name": "Activation", "config": {"activation": "relu", "trainable": false, "name": "activation_173"}, "inbound_nodes": [[["batch_normalization_173", 0, 0, {}]]], "name": "activation_173"}, {"class_name": "Conv2D", "config": {"kernel_constraint": null, "kernel_initializer": {"class_name": "VarianceScaling", "config": {"distribution": "uniform", "scale": 1.0, "seed": null, "mode": "fan_avg"}}, "name": "conv2d_171", "bias_regularizer": null, "bias_constraint": null, "activation": "linear", "trainable": false, "data_format": "channels_last", "padding": "same", "strides": [1, 1], "dilation_rate": [1, 1], "kernel_regularizer": null, "filters": 192, "bias_initializer": {"class_name": "Zeros", "config": {}}, "use_bias": false, "activity_regularizer": null, "kernel_size": [1, 1]}, "inbound_nodes": [[["mixed_6a", 0, 0, {}]]], "name": "conv2d_171"}, {"class_name": "Conv2D", "config": {"kernel_constraint": null, "kernel_initializer": {"class_name": "VarianceScaling", "config": {"distribution": "uniform", "scale": 1.0, "seed": null, "mode": "fan_avg"}}, "name": "conv2d_174", "bias_regularizer": null, "bias_constraint": null, "activation": "linear", "trainable": false, "data_format": "channels_last", "padding": "same", "strides": [1, 1], "dilation_rate": [1, 1], "kernel_regularizer": null, "filters": 192, "bias_initializer": {"class_name": "Zeros", "config": {}}, "use_bias": false, "activity_regularizer": null, "kernel_size": [7, 1]}, "inbound_nodes": [[["activation_173", 0, 0, {}]]], "name": "conv2d_174"}, {"class_name": "BatchNormalization", "config": {"beta_constraint": null, "gamma_initializer": {"class_name": "Ones", "config": {}}, "moving_mean_initializer": {"class_name": "Zeros", "config": {}}, "name": "batch_normalization_171", "epsilon": 0.001, "trainable": false, "moving_variance_initializer": {"class_name": "Ones", "config": {}}, "beta_initializer": {"class_name": "Zeros", "config": {}}, "scale": false, "axis": 3, "gamma_constraint": null, "gamma_regularizer": null, "beta_regularizer": null, "momentum": 0.99, "center": true}, "inbound_nodes": [[["conv2d_171", 0, 0, {}]]], "name": "batch_normalization_171"}, {"class_name": "BatchNormalization", "config": {"beta_constraint": null, "gamma_initializer": {"class_name": "Ones", "config": {}}, "moving_mean_initializer": {"class_name": "Zeros", "config": {}}, "name": "batch_normalization_174", "epsilon": 0.001, "trainable": false, "moving_variance_initializer": {"class_name": "Ones", "config": {}}, "beta_initializer": {"class_name": "Zeros", "config": {}}, "scale": false, "axis": 3, "gamma_constraint": null, "gamma_regularizer": null, "beta_regularizer": null, "momentum": 0.99, "center": true}, "inbound_nodes": [[["conv2d_174", 0, 0, {}]]], "name": "batch_normalization_174"}, {"class_name": "Activation", "config": {"activation": "relu", "trainable": false, "name": "activation_171"}, "inbound_nodes": [[["batch_normalization_171", 0, 0, {}]]], "name": "activation_171"}, {"class_name": "Activation", "config": {"activation": "relu", "trainable": false, "name": "activation_174"}, "inbound_nodes": [[["batch_normalization_174", 0, 0, {}]]], "name": "activation_174"}, {"class_name": "Concatenate", "config": {"trainable": false, "name": "block17_1_mixed", "axis": 3}, "inbound_nodes": [[["activation_171", 0, 0, {}], ["activation_174", 0, 0, {}]]], "name": "block17_1_mixed"}, {"class_name": "Conv2D", "config": {"kernel_constraint": null, "kernel_initializer": {"class_name": "VarianceScaling", "config": {"distribution": "uniform", "scale": 1.0, "seed": null, "mode": "fan_avg"}}, "name": "block17_1_conv", "bias_regularizer": null, "bias_constraint": null, "activation": "linear", "trainable": false, "data_format": "channels_last", "padding": "same", "strides": [1, 1], "dilation_rate": [1, 1], "kernel_regularizer": null, "filters": 1088, "bias_initializer": {"class_name": "Zeros", "config": {}}, "use_bias": true, "activity_regularizer": null, "kernel_size": [1, 1]}, "inbound_nodes": [[["block17_1_mixed", 0, 0, {}]]], "name": "block17_1_conv"}, {"class_name": "Lambda", "config": {"function": ["YwIAAAACAAAAAwAAAFNgAQBzFAAAAHwAAGQBABl8AABkAgAZfAEAFBdTKAMAAABOaQAAAABpAQAA\nACgAAAAAKAIAAAB0BgAAAGlucHV0c3QFAAAAc2NhbGUoAAAAACgAAAAAc1AAAAAvdXNyL2xvY2Fs\nL2xpYi9weXRob24yLjcvZGlzdC1wYWNrYWdlcy9rZXJhc19hcHBsaWNhdGlvbnMvaW5jZXB0aW9u\nX3Jlc25ldF92Mi5weXQIAAAAPGxhbWJkYT6qAAAAdAAAAAA=\n", null, null], "name": "block17_1", "trainable": false, "function_type": "lambda", "arguments": {"scale": 0.1}, "output_shape": [10, 10, 1088], "output_shape_type": "raw"}, "inbound_nodes": [[["mixed_6a", 0, 0, {}], ["block17_1_conv", 0, 0, {}]]], "name": "block17_1"}, {"class_name": "Activation", "config": {"activation": "relu", "trainable": false, "name": "block17_1_ac"}, "inbound_nodes": [[["block17_1", 0, 0, {}]]], "name": "block17_1_ac"}, {"class_name": "Conv2D", "config": {"kernel_constraint": null, "kernel_initializer": {"class_name": "VarianceScaling", "config": {"distribution": "uniform", "scale": 1.0, "seed": null, "mode": "fan_avg"}}, "name": "conv2d_176", "bias_regularizer": null, "bias_constraint": null, "activation": "linear", "trainable": false, "data_format": "channels_last", "padding": "same", "strides": [1, 1], "dilation_rate": [1, 1], "kernel_regularizer": null, "filters": 128, "bias_initializer": {"class_name": "Zeros", "config": {}}, "use_bias": false, "activity_regularizer": null, "kernel_size": [1, 1]}, "inbound_nodes": [[["block17_1_ac", 0, 0, {}]]], "name": "conv2d_176"}, {"class_name": "BatchNormalization", "config": {"beta_constraint": null, "gamma_initializer": {"class_name": "Ones", "config": {}}, "moving_mean_initializer": {"class_name": "Zeros", "config": {}}, "name": "batch_normalization_176", "epsilon": 0.001, "trainable": false, "moving_variance_initializer": {"class_name": "Ones", "config": {}}, "beta_initializer": {"class_name": "Zeros", "config": {}}, "scale": false, "axis": 3, "gamma_constraint": null, "gamma_regularizer": null, "beta_regularizer": null, "momentum": 0.99, "center": true}, "inbound_nodes": [[["conv2d_176", 0, 0, {}]]], "name": "batch_normalization_176"}, {"class_name": "Activation", "config": {"activation": "relu", "trainable": false, "name": "activation_176"}, "inbound_nodes": [[["batch_normalization_176", 0, 0, {}]]], "name": "activation_176"}, {"class_name": "Conv2D", "config": {"kernel_constraint": null, "kernel_initializer": {"class_name": "VarianceScaling", "config": {"distribution": "uniform", "scale": 1.0, "seed": null, "mode": "fan_avg"}}, "name": "conv2d_177", "bias_regularizer": null, "bias_constraint": null, "activation": "linear", "trainable": false, "data_format": "channels_last", "padding": "same", "strides": [1, 1], "dilation_rate": [1, 1], "kernel_regularizer": null, "filters": 160, "bias_initializer": {"class_name": "Zeros", "config": {}}, "use_bias": false, "activity_regularizer": null, "kernel_size": [1, 7]}, "inbound_nodes": [[["activation_176", 0, 0, {}]]], "name": "conv2d_177"}, {"class_name": "BatchNormalization", "config": {"beta_constraint": null, "gamma_initializer": {"class_name": "Ones", "config": {}}, "moving_mean_initializer": {"class_name": "Zeros", "config": {}}, "name": "batch_normalization_177", "epsilon": 0.001, "trainable": false, "moving_variance_initializer": {"class_name": "Ones", "config": {}}, "beta_initializer": {"class_name": "Zeros", "config": {}}, "scale": false, "axis": 3, "gamma_constraint": null, "gamma_regularizer": null, "beta_regularizer": null, "momentum": 0.99, "center": true}, "inbound_nodes": [[["conv2d_177", 0, 0, {}]]], "name": "batch_normalization_177"}, {"class_name": "Activation", "config": {"activation": "relu", "trainable": false, "name": "activation_177"}, "inbound_nodes": [[["batch_normalization_177", 0, 0, {}]]], "name": "activation_177"}, {"class_name": "Conv2D", "config": {"kernel_constraint": null, "kernel_initializer": {"class_name": "VarianceScaling", "config": {"distribution": "uniform", "scale": 1.0, "seed": null, "mode": "fan_avg"}}, "name": "conv2d_175", "bias_regularizer": null, "bias_constraint": null, "activation": "linear", "trainable": false, "data_format": "channels_last", "padding": "same", "strides": [1, 1], "dilation_rate": [1, 1], "kernel_regularizer": null, "filters": 192, "bias_initializer": {"class_name": "Zeros", "config": {}}, "use_bias": false, "activity_regularizer": null, "kernel_size": [1, 1]}, "inbound_nodes": [[["block17_1_ac", 0, 0, {}]]], "name": "conv2d_175"}, {"class_name": "Conv2D", "config": {"kernel_constraint": null, "kernel_initializer": {"class_name": "VarianceScaling", "config": {"distribution": "uniform", "scale": 1.0, "seed": null, "mode": "fan_avg"}}, "name": "conv2d_178", "bias_regularizer": null, "bias_constraint": null, "activation": "linear", "trainable": false, "data_format": "channels_last", "padding": "same", "strides": [1, 1], "dilation_rate": [1, 1], "kernel_regularizer": null, "filters": 192, "bias_initializer": {"class_name": "Zeros", "config": {}}, "use_bias": false, "activity_regularizer": null, "kernel_size": [7, 1]}, "inbound_nodes": [[["activation_177", 0, 0, {}]]], "name": "conv2d_178"}, {"class_name": "BatchNormalization", "config": {"beta_constraint": null, "gamma_initializer": {"class_name": "Ones", "config": {}}, "moving_mean_initializer": {"class_name": "Zeros", "config": {}}, "name": "batch_normalization_175", "epsilon": 0.001, "trainable": false, "moving_variance_initializer": {"class_name": "Ones", "config": {}}, "beta_initializer": {"class_name": "Zeros", "config": {}}, "scale": false, "axis": 3, "gamma_constraint": null, "gamma_regularizer": null, "beta_regularizer": null, "momentum": 0.99, "center": true}, "inbound_nodes": [[["conv2d_175", 0, 0, {}]]], "name": "batch_normalization_175"}, {"class_name": "BatchNormalization", "config": {"beta_constraint": null, "gamma_initializer": {"class_name": "Ones", "config": {}}, "moving_mean_initializer": {"class_name": "Zeros", "config": {}}, "name": "batch_normalization_178", "epsilon": 0.001, "trainable": false, "moving_variance_initializer": {"class_name": "Ones", "config": {}}, "beta_initializer": {"class_name": "Zeros", "config": {}}, "scale": false, "axis": 3, "gamma_constraint": null, "gamma_regularizer": null, "beta_regularizer": null, "momentum": 0.99, "center": true}, "inbound_nodes": [[["conv2d_178", 0, 0, {}]]], "name": "batch_normalization_178"}, {"class_name": "Activation", "config": {"activation": "relu", "trainable": false, "name": "activation_175"}, "inbound_nodes": [[["batch_normalization_175", 0, 0, {}]]], "name": "activation_175"}, {"class_name": "Activation", "config": {"activation": "relu", "trainable": false, "name": "activation_178"}, "inbound_nodes": [[["batch_normalization_178", 0, 0, {}]]], "name": "activation_178"}, {"class_name": "Concatenate", "config": {"trainable": false, "name": "block17_2_mixed", "axis": 3}, "inbound_nodes": [[["activation_175", 0, 0, {}], ["activation_178", 0, 0, {}]]], "name": "block17_2_mixed"}, {"class_name": "Conv2D", "config": {"kernel_constraint": null, "kernel_initializer": {"class_name": "VarianceScaling", "config": {"distribution": "uniform", "scale": 1.0, "seed": null, "mode": "fan_avg"}}, "name": "block17_2_conv", "bias_regularizer": null, "bias_constraint": null, "activation": "linear", "trainable": false, "data_format": "channels_last", "padding": "same", "strides": [1, 1], "dilation_rate": [1, 1], "kernel_regularizer": null, "filters": 1088, "bias_initializer": {"class_name": "Zeros", "config": {}}, "use_bias": true, "activity_regularizer": null, "kernel_size": [1, 1]}, "inbound_nodes": [[["block17_2_mixed", 0, 0, {}]]], "name": "block17_2_conv"}, {"class_name": "Lambda", "config": {"function": ["YwIAAAACAAAAAwAAAFNgAQBzFAAAAHwAAGQBABl8AABkAgAZfAEAFBdTKAMAAABOaQAAAABpAQAA\nACgAAAAAKAIAAAB0BgAAAGlucHV0c3QFAAAAc2NhbGUoAAAAACgAAAAAc1AAAAAvdXNyL2xvY2Fs\nL2xpYi9weXRob24yLjcvZGlzdC1wYWNrYWdlcy9rZXJhc19hcHBsaWNhdGlvbnMvaW5jZXB0aW9u\nX3Jlc25ldF92Mi5weXQIAAAAPGxhbWJkYT6qAAAAdAAAAAA=\n", null, null], "name": "block17_2", "trainable": false, "function_type": "lambda", "arguments": {"scale": 0.1}, "output_shape": [10, 10, 1088], "output_shape_type": "raw"}, "inbound_nodes": [[["block17_1_ac", 0, 0, {}], ["block17_2_conv", 0, 0, {}]]], "name": "block17_2"}, {"class_name": "Activation", "config": {"activation": "relu", "trainable": false, "name": "block17_2_ac"}, "inbound_nodes": [[["block17_2", 0, 0, {}]]], "name": "block17_2_ac"}, {"class_name": "Conv2D", "config": {"kernel_constraint": null, "kernel_initializer": {"class_name": "VarianceScaling", "config": {"distribution": "uniform", "scale": 1.0, "seed": null, "mode": "fan_avg"}}, "name": "conv2d_180", "bias_regularizer": null, "bias_constraint": null, "activation": "linear", "trainable": false, "data_format": "channels_last", "padding": "same", "strides": [1, 1], "dilation_rate": [1, 1], "kernel_regularizer": null, "filters": 128, "bias_initializer": {"class_name": "Zeros", "config": {}}, "use_bias": false, "activity_regularizer": null, "kernel_size": [1, 1]}, "inbound_nodes": [[["block17_2_ac", 0, 0, {}]]], "name": "conv2d_180"}, {"class_name": "BatchNormalization", "config": {"beta_constraint": null, "gamma_initializer": {"class_name": "Ones", "config": {}}, "moving_mean_initializer": {"class_name": "Zeros", "config": {}}, "name": "batch_normalization_180", "epsilon": 0.001, "trainable": false, "moving_variance_initializer": {"class_name": "Ones", "config": {}}, "beta_initializer": {"class_name": "Zeros", "config": {}}, "scale": false, "axis": 3, "gamma_constraint": null, "gamma_regularizer": null, "beta_regularizer": null, "momentum": 0.99, "center": true}, "inbound_nodes": [[["conv2d_180", 0, 0, {}]]], "name": "batch_normalization_180"}, {"class_name": "Activation", "config": {"activation": "relu", "trainable": false, "name": "activation_180"}, "inbound_nodes": [[["batch_normalization_180", 0, 0, {}]]], "name": "activation_180"}, {"class_name": "Conv2D", "config": {"kernel_constraint": null, "kernel_initializer": {"class_name": "VarianceScaling", "config": {"distribution": "uniform", "scale": 1.0, "seed": null, "mode": "fan_avg"}}, "name": "conv2d_181", "bias_regularizer": null, "bias_constraint": null, "activation": "linear", "trainable": false, "data_format": "channels_last", "padding": "same", "strides": [1, 1], "dilation_rate": [1, 1], "kernel_regularizer": null, "filters": 160, "bias_initializer": {"class_name": "Zeros", "config": {}}, "use_bias": false, "activity_regularizer": null, "kernel_size": [1, 7]}, "inbound_nodes": [[["activation_180", 0, 0, {}]]], "name": "conv2d_181"}, {"class_name": "BatchNormalization", "config": {"beta_constraint": null, "gamma_initializer": {"class_name": "Ones", "config": {}}, "moving_mean_initializer": {"class_name": "Zeros", "config": {}}, "name": "batch_normalization_181", "epsilon": 0.001, "trainable": false, "moving_variance_initializer": {"class_name": "Ones", "config": {}}, "beta_initializer": {"class_name": "Zeros", "config": {}}, "scale": false, "axis": 3, "gamma_constraint": null, "gamma_regularizer": null, "beta_regularizer": null, "momentum": 0.99, "center": true}, "inbound_nodes": [[["conv2d_181", 0, 0, {}]]], "name": "batch_normalization_181"}, {"class_name": "Activation", "config": {"activation": "relu", "trainable": false, "name": "activation_181"}, "inbound_nodes": [[["batch_normalization_181", 0, 0, {}]]], "name": "activation_181"}, {"class_name": "Conv2D", "config": {"kernel_constraint": null, "kernel_initializer": {"class_name": "VarianceScaling", "config": {"distri…
ibution": "uniform", "scale": 1.0, "seed": null, "mode": "fan_avg"}}, "name": "block8_4_conv", "bias_regularizer": null, "bias_constraint": null, "activation": "linear", "trainable": false, "data_format": "channels_last", "padding": "same", "strides": [1, 1], "dilation_rate": [1, 1], "kernel_regularizer": null, "filters": 2080, "bias_initializer": {"class_name": "Zeros", "config": {}}, "use_bias": true, "activity_regularizer": null, "kernel_size": [1, 1]}, "inbound_nodes": [[["block8_4_mixed", 0, 0, {}]]], "name": "block8_4_conv"}, {"class_name": "Lambda", "config": {"function": ["YwIAAAACAAAAAwAAAFNgAQBzFAAAAHwAAGQBABl8AABkAgAZfAEAFBdTKAMAAABOaQAAAABpAQAA\nACgAAAAAKAIAAAB0BgAAAGlucHV0c3QFAAAAc2NhbGUoAAAAACgAAAAAc1AAAAAvdXNyL2xvY2Fs\nL2xpYi9weXRob24yLjcvZGlzdC1wYWNrYWdlcy9rZXJhc19hcHBsaWNhdGlvbnMvaW5jZXB0aW9u\nX3Jlc25ldF92Mi5weXQIAAAAPGxhbWJkYT6qAAAAdAAAAAA=\n", null, null], "name": "block8_4", "trainable": false, "function_type": "lambda", "arguments": {"scale": 0.2}, "output_shape": [4, 4, 2080], "output_shape_type": "raw"}, "inbound_nodes": [[["block8_3_ac", 0, 0, {}], ["block8_4_conv", 0, 0, {}]]], "name": "block8_4"}, {"class_name": "Activation", "config": {"activation": "relu", "trainable": false, "name": "block8_4_ac"}, "inbound_nodes": [[["block8_4", 0, 0, {}]]], "name": "block8_4_ac"}, {"class_name": "Conv2D", "config": {"kernel_constraint": null, "kernel_initializer": {"class_name": "VarianceScaling", "config": {"distribution": "uniform", "scale": 1.0, "seed": null, "mode": "fan_avg"}}, "name": "conv2d_275", "bias_regularizer": null, "bias_constraint": null, "activation": "linear", "trainable": false, "data_format": "channels_last", "padding": "same", "strides": [1, 1], "dilation_rate": [1, 1], "kernel_regularizer": null, "filters": 192, "bias_initializer": {"class_name": "Zeros", "config": {}}, "use_bias": false, "activity_regularizer": null, "kernel_size": [1, 1]}, "inbound_nodes": [[["block8_4_ac", 0, 0, {}]]], "name": "conv2d_275"}, {"class_name": "BatchNormalization", "config": {"beta_constraint": null, "gamma_initializer": {"class_name": "Ones", "config": {}}, "moving_mean_initializer": {"class_name": "Zeros", "config": {}}, "name": "batch_normalization_275", "epsilon": 0.001, "trainable": false, "moving_variance_initializer": {"class_name": "Ones", "config": {}}, "beta_initializer": {"class_name": "Zeros", "config": {}}, "scale": false, "axis": 3, "gamma_constraint": null, "gamma_regularizer": null, "beta_regularizer": null, "momentum": 0.99, "center": true}, "inbound_nodes": [[["conv2d_275", 0, 0, {}]]], "name": "batch_normalization_275"}, {"class_name": "Activation", "config": {"activation": "relu", "trainable": false, "name": "activation_275"}, "inbound_nodes": [[["batch_normalization_275", 0, 0, {}]]], "name": "activation_275"}, {"class_name": "Conv2D", "config": {"kernel_constraint": null, "kernel_initializer": {"class_name": "VarianceScaling", "config": {"distribution": "uniform", "scale": 1.0, "seed": null, "mode": "fan_avg"}}, "name": "conv2d_276", "bias_regularizer": null, "bias_constraint": null, "activation": "linear", "trainable": false, "data_format": "channels_last", "padding": "same", "strides": [1, 1], "dilation_rate": [1, 1], "kernel_regularizer": null, "filters": 224, "bias_initializer": {"class_name": "Zeros", "config": {}}, "use_bias": false, "activity_regularizer": null, "kernel_size": [1, 3]}, "inbound_nodes": [[["activation_275", 0, 0, {}]]], "name": "conv2d_276"}, {"class_name": "BatchNormalization", "config": {"beta_constraint": null, "gamma_initializer": {"class_name": "Ones", "config": {}}, "moving_mean_initializer": {"class_name": "Zeros", "config": {}}, "name": "batch_normalization_276", "epsilon": 0.001, "trainable": false, "moving_variance_initializer": {"class_name": "Ones", "config": {}}, "beta_initializer": {"class_name": "Zeros", "config": {}}, "scale": false, "axis": 3, "gamma_constraint": null, "gamma_regularizer": null, "beta_regularizer": null, "momentum": 0.99, "center": true}, "inbound_nodes": [[["conv2d_276", 0, 0, {}]]], "name": "batch_normalization_276"}, {"class_name": "Activation", "config": {"activation": "relu", "trainable": false, "name": "activation_276"}, "inbound_nodes": [[["batch_normalization_276", 0, 0, {}]]], "name": "activation_276"}, {"class_name": "Conv2D", "config": {"kernel_constraint": null, "kernel_initializer": {"class_name": "VarianceScaling", "config": {"distribution": "uniform", "scale": 1.0, "seed": null, "mode": "fan_avg"}}, "name": "conv2d_274", "bias_regularizer": null, "bias_constraint": null, "activation": "linear", "trainable": false, "data_format": "channels_last", "padding": "same", "strides": [1, 1], "dilation_rate": [1, 1], "kernel_regularizer": null, "filters": 192, "bias_initializer": {"class_name": "Zeros", "config": {}}, "use_bias": false, "activity_regularizer": null, "kernel_size": [1, 1]}, "inbound_nodes": [[["block8_4_ac", 0, 0, {}]]], "name": "conv2d_274"}, {"class_name": "Conv2D", "config": {"kernel_constraint": null, "kernel_initializer": {"class_name": "VarianceScaling", "config": {"distribution": "uniform", "scale": 1.0, "seed": null, "mode": "fan_avg"}}, "name": "conv2d_277", "bias_regularizer": null, "bias_constraint": null, "activation": "linear", "trainable": false, "data_format": "channels_last", "padding": "same", "strides": [1, 1], "dilation_rate": [1, 1], "kernel_regularizer": null, "filters": 256, "bias_initializer": {"class_name": "Zeros", "config": {}}, "use_bias": false, "activity_regularizer": null, "kernel_size": [3, 1]}, "inbound_nodes": [[["activation_276", 0, 0, {}]]], "name": "conv2d_277"}, {"class_name": "BatchNormalization", "config": {"beta_constraint": null, "gamma_initializer": {"class_name": "Ones", "config": {}}, "moving_mean_initializer": {"class_name": "Zeros", "config": {}}, "name": "batch_normalization_274", "epsilon": 0.001, "trainable": false, "moving_variance_initializer": {"class_name": "Ones", "config": {}}, "beta_initializer": {"class_name": "Zeros", "config": {}}, "scale": false, "axis": 3, "gamma_constraint": null, "gamma_regularizer": null, "beta_regularizer": null, "momentum": 0.99, "center": true}, "inbound_nodes": [[["conv2d_274", 0, 0, {}]]], "name": "batch_normalization_274"}, {"class_name": "BatchNormalization", "config": {"beta_constraint": null, "gamma_initializer": {"class_name": "Ones", "config": {}}, "moving_mean_initializer": {"class_name": "Zeros", "config": {}}, "name": "batch_normalization_277", "epsilon": 0.001, "trainable": false, "moving_variance_initializer": {"class_name": "Ones", "config": {}}, "beta_initializer": {"class_name": "Zeros", "config": {}}, "scale": false, "axis": 3, "gamma_constraint": null, "gamma_regularizer": null, "beta_regularizer": null, "momentum": 0.99, "center": true}, "inbound_nodes": [[["conv2d_277", 0, 0, {}]]], "name": "batch_normalization_277"}, {"class_name": "Activation", "config": {"activation": "relu", "trainable": false, "name": "activation_274"}, "inbound_nodes": [[["batch_normalization_274", 0, 0, {}]]], "name": "activation_274"}, {"class_name": "Activation", "config": {"activation": "relu", "trainable": false, "name": "activation_277"}, "inbound_nodes": [[["batch_normalization_277", 0, 0, {}]]], "name": "activation_277"}, {"class_name": "Concatenate", "config": {"trainable": false, "name": "block8_5_mixed", "axis": 3}, "inbound_nodes": [[["activation_274", 0, 0, {}], ["activation_277", 0, 0, {}]]], "name": "block8_5_mixed"}, {"class_name": "Conv2D", "config": {"kernel_constraint": null, "kernel_initializer": {"class_name": "VarianceScaling", "config": {"distribution": "uniform", "scale": 1.0, "seed": null, "mode": "fan_avg"}}, "name": "block8_5_conv", "bias_regularizer": null, "bias_constraint": null, "activation": "linear", "trainable": false, "data_format": "channels_last", "padding": "same", "strides": [1, 1], "dilation_rate": [1, 1], "kernel_regularizer": null, "filters": 2080, "bias_initializer": {"class_name": "Zeros", "config": {}}, "use_bias": true, "activity_regularizer": null, "kernel_size": [1, 1]}, "inbound_nodes": [[["block8_5_mixed", 0, 0, {}]]], "name": "block8_5_conv"}, {"class_name": "Lambda", "config": {"function": ["YwIAAAACAAAAAwAAAFNgAQBzFAAAAHwAAGQBABl8AABkAgAZfAEAFBdTKAMAAABOaQAAAABpAQAA\nACgAAAAAKAIAAAB0BgAAAGlucHV0c3QFAAAAc2NhbGUoAAAAACgAAAAAc1AAAAAvdXNyL2xvY2Fs\nL2xpYi9weXRob24yLjcvZGlzdC1wYWNrYWdlcy9rZXJhc19hcHBsaWNhdGlvbnMvaW5jZXB0aW9u\nX3Jlc25ldF92Mi5weXQIAAAAPGxhbWJkYT6qAAAAdAAAAAA=\n", null, null], "name": "block8_5", "trainable": false, "function_type": "lambda", "arguments": {"scale": 0.2}, "output_shape": [4, 4, 2080], "output_shape_type": "raw"}, "inbound_nodes": [[["block8_4_ac", 0, 0, {}], ["block8_5_conv", 0, 0, {}]]], "name": "block8_5"}, {"class_name": "Activation", "config": {"activation": "relu", "trainable": false, "name": "block8_5_ac"}, "inbound_nodes": [[["block8_5", 0, 0, {}]]], "name": "block8_5_ac"}, {"class_name": "Conv2D", "config": {"kernel_constraint": null, "kernel_initializer": {"class_name": "VarianceScaling", "config": {"distribution": "uniform", "scale": 1.0, "seed": null, "mode": "fan_avg"}}, "name": "conv2d_279", "bias_regularizer": null, "bias_constraint": null, "activation": "linear", "trainable": false, "data_format": "channels_last", "padding": "same", "strides": [1, 1], "dilation_rate": [1, 1], "kernel_regularizer": null, "filters": 192, "bias_initializer": {"class_name": "Zeros", "config": {}}, "use_bias": false, "activity_regularizer": null, "kernel_size": [1, 1]}, "inbound_nodes": [[["block8_5_ac", 0, 0, {}]]], "name": "conv2d_279"}, {"class_name": "BatchNormalization", "config": {"beta_constraint": null, "gamma_initializer": {"class_name": "Ones", "config": {}}, "moving_mean_initializer": {"class_name": "Zeros", "config": {}}, "name": "batch_normalization_279", "epsilon": 0.001, "trainable": false, "moving_variance_initializer": {"class_name": "Ones", "config": {}}, "beta_initializer": {"class_name": "Zeros", "config": {}}, "scale": false, "axis": 3, "gamma_constraint": null, "gamma_regularizer": null, "beta_regularizer": null, "momentum": 0.99, "center": true}, "inbound_nodes": [[["conv2d_279", 0, 0, {}]]], "name": "batch_normalization_279"}, {"class_name": "Activation", "config": {"activation": "relu", "trainable": false, "name": "activation_279"}, "inbound_nodes": [[["batch_normalization_279", 0, 0, {}]]], "name": "activation_279"}, {"class_name": "Conv2D", "config": {"kernel_constraint": null, "kernel_initializer": {"class_name": "VarianceScaling", "config": {"distribution": "uniform", "scale": 1.0, "seed": null, "mode": "fan_avg"}}, "name": "conv2d_280", "bias_regularizer": null, "bias_constraint": null, "activation": "linear", "trainable": false, "data_format": "channels_last", "padding": "same", "strides": [1, 1], "dilation_rate": [1, 1], "kernel_regularizer": null, "filters": 224, "bias_initializer": {"class_name": "Zeros", "config": {}}, "use_bias": false, "activity_regularizer": null, "kernel_size": [1, 3]}, "inbound_nodes": [[["activation_279", 0, 0, {}]]], "name": "conv2d_280"}, {"class_name": "BatchNormalization", "config": {"beta_constraint": null, "gamma_initializer": {"class_name": "Ones", "config": {}}, "moving_mean_initializer": {"class_name": "Zeros", "config": {}}, "name": "batch_normalization_280", "epsilon": 0.001, "trainable": false, "moving_variance_initializer": {"class_name": "Ones", "config": {}}, "beta_initializer": {"class_name": "Zeros", "config": {}}, "scale": false, "axis": 3, "gamma_constraint": null, "gamma_regularizer": null, "beta_regularizer": null, "momentum": 0.99, "center": true}, "inbound_nodes": [[["conv2d_280", 0, 0, {}]]], "name": "batch_normalization_280"}, {"class_name": "Activation", "config": {"activation": "relu", "trainable": false, "name": "activation_280"}, "inbound_nodes": [[["batch_normalization_280", 0, 0, {}]]], "name": "activation_280"}, {"class_name": "Conv2D", "config": {"kernel_constraint": null, "kernel_initializer": {"class_name": "VarianceScaling", "config": {"distribution": "uniform", "scale": 1.0, "seed": null, "mode": "fan_avg"}}, "name": "conv2d_278", "bias_regularizer": null, "bias_constraint": null, "activation": "linear", "trainable": false, "data_format": "channels_last", "padding": "same", "strides": [1, 1], "dilation_rate": [1, 1], "kernel_regularizer": null, "filters": 192, "bias_initializer": {"class_name": "Zeros", "config": {}}, "use_bias": false, "activity_regularizer": null, "kernel_size": [1, 1]}, "inbound_nodes": [[["block8_5_ac", 0, 0, {}]]], "name": "conv2d_278"}, {"class_name": "Conv2D", "config": {"kernel_constraint": null, "kernel_initializer": {"class_name": "VarianceScaling", "config": {"distribution": "uniform", "scale": 1.0, "seed": null, "mode": "fan_avg"}}, "name": "conv2d_281", "bias_regularizer": null, "bias_constraint": null, "activation": "linear", "trainable": false, "data_format": "channels_last", "padding": "same", "strides": [1, 1], "dilation_rate": [1, 1], "kernel_regularizer": null, "filters": 256, "bias_initializer": {"class_name": "Zeros", "config": {}}, "use_bias": false, "activity_regularizer": null, "kernel_size": [3, 1]}, "inbound_nodes": [[["activation_280", 0, 0, {}]]], "name": "conv2d_281"}, {"class_name": "BatchNormalization", "config": {"beta_constraint": null, "gamma_initializer": {"class_name": "Ones", "config": {}}, "moving_mean_initializer": {"class_name": "Zeros", "config": {}}, "name": "batch_normalization_278", "epsilon": 0.001, "trainable": false, "moving_variance_initializer": {"class_name": "Ones", "config": {}}, "beta_initializer": {"class_name": "Zeros", "config": {}}, "scale": false, "axis": 3, "gamma_constraint": null, "gamma_regularizer": null, "beta_regularizer": null, "momentum": 0.99, "center": true}, "inbound_nodes": [[["conv2d_278", 0, 0, {}]]], "name": "batch_normalization_278"}, {"class_name": "BatchNormalization", "config": {"beta_constraint": null, "gamma_initializer": {"class_name": "Ones", "config": {}}, "moving_mean_initializer": {"class_name": "Zeros", "config": {}}, "name": "batch_normalization_281", "epsilon": 0.001, "trainable": false, "moving_variance_initializer": {"class_name": "Ones", "config": {}}, "beta_initializer": {"class_name": "Zeros", "config": {}}, "scale": false, "axis": 3, "gamma_constraint": null, "gamma_regularizer": null, "beta_regularizer": null, "momentum": 0.99, "center": true}, "inbound_nodes": [[["conv2d_281", 0, 0, {}]]], "name": "batch_normalization_281"}, {"class_name": "Activation", "config": {"activation": "relu", "trainable": false, "name": "activation_278"}, "inbound_nodes": [[["batch_normalization_278", 0, 0, {}]]], "name": "activation_278"}, {"class_name": "Activation", "config": {"activation": "relu", "trainable": false, "name": "activation_281"}, "inbound_nodes": [[["batch_normalization_281", 0, 0, {}]]], "name": "activation_281"}, {"class_name": "Concatenate", "config": {"trainable": false, "name": "block8_6_mixed", "axis": 3}, "inbound_nodes": [[["activation_278", 0, 0, {}], ["activation_281", 0, 0, {}]]], "name": "block8_6_mixed"}, {"class_name": "Conv2D", "config": {"kernel_constraint": null, "kernel_initializer": {"class_name": "VarianceScaling", "config": {"distribution": "uniform", "scale": 1.0, "seed": null, "mode": "fan_avg"}}, "name": "block8_6_conv", "bias_regularizer": null, "bias_constraint": null, "activation": "linear", "trainable": false, "data_format": "channels_last", "padding": "same", "strides": [1, 1], "dilation_rate": [1, 1], "kernel_regularizer": null, "filters": 2080, "bias_initializer": {"class_name": "Zeros", "config": {}}, "use_bias": true, "activity_regularizer": null, "kernel_size": [1, 1]}, "inbound_nodes": [[["block8_6_mixed", 0, 0, {}]]], "name": "block8_6_conv"}, {"class_name": "Lambda", "config": {"function": ["YwIAAAACAAAAAwAAAFNgAQBzFAAAAHwAAGQBABl8AABkAgAZfAEAFBdTKAMAAABOaQAAAABpAQAA\nACgAAAAAKAIAAAB0BgAAAGlucHV0c3QFAAAAc2NhbGUoAAAAACgAAAAAc1AAAAAvdXNyL2xvY2Fs\nL2xpYi9weXRob24yLjcvZGlzdC1wYWNrYWdlcy9rZXJhc19hcHBsaWNhdGlvbnMvaW5jZXB0aW9u\nX3Jlc25ldF92Mi5weXQIAAAAPGxhbWJkYT6qAAAAdAAAAAA=\n", null, null], "name": "block8_6", "trainable": false, "function_type": "lambda", "arguments": {"scale": 0.2}, "output_shape": [4, 4, 2080], "output_shape_type": "raw"}, "inbound_nodes": [[["block8_5_ac", 0, 0, {}], ["block8_6_conv", 0, 0, {}]]], "name": "block8_6"}, {"class_name": "Activation", "config": {"activation": "relu", "trainable": false, "name": "block8_6_ac"}, "inbound_nodes": [[["block8_6", 0, 0, {}]]], "name": "block8_6_ac"}, {"class_name": "Conv2D", "config": {"kernel_constraint": null, "kernel_initializer": {"class_name": "VarianceScaling", "config": {"distribution": "uniform", "scale": 1.0, "seed": null, "mode": "fan_avg"}}, "name": "conv2d_283", "bias_regularizer": null, "bias_constraint": null, "activation": "linear", "trainable": false, "data_format": "channels_last", "padding": "same", "strides": [1, 1], "dilation_rate": [1, 1], "kernel_regularizer": null, "filters": 192, "bias_initializer": {"class_name": "Zeros", "config": {}}, "use_bias": false, "activity_regularizer": null, "kernel_size": [1, 1]}, "inbound_nodes": [[["block8_6_ac", 0, 0, {}]]], "name": "conv2d_283"}, {"class_name": "BatchNormalization", "config": {"beta_constraint": null, "gamma_initializer": {"class_name": "Ones", "config": {}}, "moving_mean_initializer": {"class_name": "Zeros", "config": {}}, "name": "batch_normalization_283", "epsilon": 0.001, "trainable": false, "moving_variance_initializer": {"class_name": "Ones", "config": {}}, "beta_initializer": {"class_name": "Zeros", "config": {}}, "scale": false, "axis": 3, "gamma_constraint": null, "gamma_regularizer": null, "beta_regularizer": null, "momentum": 0.99, "center": true}, "inbound_nodes": [[["conv2d_283", 0, 0, {}]]], "name": "batch_normalization_283"}, {"class_name": "Activation", "config": {"activation": "relu", "trainable": false, "name": "activation_283"}, "inbound_nodes": [[["batch_normalization_283", 0, 0, {}]]], "name": "activation_283"}, {"class_name": "Conv2D", "config": {"kernel_constraint": null, "kernel_initializer": {"class_name": "VarianceScaling", "config": {"distribution": "uniform", "scale": 1.0, "seed": null, "mode": "fan_avg"}}, "name": "conv2d_284", "bias_regularizer": null, "bias_constraint": null, "activation": "linear", "trainable": false, "data_format": "channels_last", "padding": "same", "strides": [1, 1], "dilation_rate": [1, 1], "kernel_regularizer": null, "filters": 224, "bias_initializer": {"class_name": "Zeros", "config": {}}, "use_bias": false, "activity_regularizer": null, "kernel_size": [1, 3]}, "inbound_nodes": [[["activation_283", 0, 0, {}]]], "name": "conv2d_284"}, {"class_name": "BatchNormalization", "config": {"beta_constraint": null, "gamma_initializer": {"class_name": "Ones", "config": {}}, "moving_mean_initializer": {"class_name": "Zeros", "config": {}}, "name": "batch_normalization_284", "epsilon": 0.001, "trainable": false, "moving_variance_initializer": {"class_name": "Ones", "config": {}}, "beta_initializer": {"class_name": "Zeros", "config": {}}, "scale": false, "axis": 3, "gamma_constraint": null, "gamma_regularizer": null, "beta_regularizer": null, "momentum": 0.99, "center": true}, "inbound_nodes": [[["conv2d_284", 0, 0, {}]]], "name": "batch_normalization_284"}, {"class_name": "Activation", "config": {"activation": "relu", "trainable": false, "name": "activation_284"}, "inbound_nodes": [[["batch_normalization_284", 0, 0, {}]]], "name": "activation_284"}, {"class_name": "Conv2D", "config": {"kernel_constraint": null, "kernel_initializer": {"class_name": "VarianceScaling", "config": {"distribution": "uniform", "scale": 1.0, "seed": null, "mode": "fan_avg"}}, "name": "conv2d_282", "bias_regularizer": null, "bias_constraint": null, "activation": "linear", "trainable": false, "data_format": "channels_last", "padding": "same", "strides": [1, 1], "dilation_rate": [1, 1], "kernel_regularizer": null, "filters": 192, "bias_initializer": {"class_name": "Zeros", "config": {}}, "use_bias": false, "activity_regularizer": null, "kernel_size": [1, 1]}, "inbound_nodes": [[["block8_6_ac", 0, 0, {}]]], "name": "conv2d_282"}, {"class_name": "Conv2D", "config": {"kernel_constraint": null, "kernel_initializer": {"class_name": "VarianceScaling", "config": {"distribution": "uniform", "scale": 1.0, "seed": null, "mode": "fan_avg"}}, "name": "conv2d_285", "bias_regularizer": null, "bias_constraint": null, "activation": "linear", "trainable": false, "data_format": "channels_last", "padding": "same", "strides": [1, 1], "dilation_rate": [1, 1], "kernel_regularizer": null, "filters": 256, "bias_initializer": {"class_name": "Zeros", "config": {}}, "use_bias": false, "activity_regularizer": null, "kernel_size": [3, 1]}, "inbound_nodes": [[["activation_284", 0, 0, {}]]], "name": "conv2d_285"}, {"class_name": "BatchNormalization", "config": {"beta_constraint": null, "gamma_initializer": {"class_name": "Ones", "config": {}}, "moving_mean_initializer": {"class_name": "Zeros", "config": {}}, "name": "batch_normalization_282", "epsilon": 0.001, "trainable": false, "moving_variance_initializer": {"class_name": "Ones", "config": {}}, "beta_initializer": {"class_name": "Zeros", "config": {}}, "scale": false, "axis": 3, "gamma_constraint": null, "gamma_regularizer": null, "beta_regularizer": null, "momentum": 0.99, "center": true}, "inbound_nodes": [[["conv2d_282", 0, 0, {}]]], "name": "batch_normalization_282"}, {"class_name": "BatchNormalization", "config": {"beta_constraint": null, "gamma_initializer": {"class_name": "Ones", "config": {}}, "moving_mean_initializer": {"class_name": "Zeros", "config": {}}, "name": "batch_normalization_285", "epsilon": 0.001, "trainable": false, "moving_variance_initializer": {"class_name": "Ones", "config": {}}, "beta_initializer": {"class_name": "Zeros", "config": {}}, "scale": false, "axis": 3, "gamma_constraint": null, "gamma_regularizer": null, "beta_regularizer": null, "momentum": 0.99, "center": true}, "inbound_nodes": [[["conv2d_285", 0, 0, {}]]], "name": "batch_normalization_285"}, {"class_name": "Activation", "config": {"activation": "relu", "trainable": false, "name": "activation_282"}, "inbound_nodes": [[["batch_normalization_282", 0, 0, {}]]], "name": "activation_282"}, {"class_name": "Activation", "config": {"activation": "relu", "trainable": false, "name": "activation_285"}, "inbound_nodes": [[["batch_normalization_285", 0, 0, {}]]], "name": "activation_285"}, {"class_name": "Concatenate", "config": {"trainable": false, "name": "block8_7_mixed", "axis": 3}, "inbound_nodes": [[["activation_282", 0, 0, {}], ["activation_285", 0, 0, {}]]], "name": "block8_7_mixed"}, {"class_name": "Conv2D", "config": {"kernel_constraint": null, "kernel_initializer": {"class_name": "VarianceScaling", "config": {"distribution": "uniform", "scale": 1.0, "seed": null, "mode": "fan_avg"}}, "name": "block8_7_conv", "bias_regularizer": null, "bias_constraint": null, "activation": "linear", "trainable": false, "data_format": "channels_last", "padding": "same", "strides": [1, 1], "dilation_rate": [1, 1], "kernel_regularizer": null, "filters": 2080, "bias_initializer": {"class_name": "Zeros", "config": {}}, "use_bias": true, "activity_regularizer": null, "kernel_size": [1, 1]}, "inbound_nodes": [[["block8_7_mixed", 0, 0, {}]]], "name": "block8_7_conv"}, {"class_name": "Lambda", "config": {"function": ["YwIAAAACAAAAAwAAAFNgAQBzFAAAAHwAAGQBABl8AABkAgAZfAEAFBdTKAMAAABOaQAAAABpAQAA\nACgAAAAAKAIAAAB0BgAAAGlucHV0c3QFAAAAc2NhbGUoAAAAACgAAAAAc1AAAAAvdXNyL2xvY2Fs\nL2xpYi9weXRob24yLjcvZGlzdC1wYWNrYWdlcy9rZXJhc19hcHBsaWNhdGlvbnMvaW5jZXB0aW9u\nX3Jlc25ldF92Mi5weXQIAAAAPGxhbWJkYT6qAAAAdAAAAAA=\n", null, null], "name": "block8_7", "trainable": false, "function_type": "lambda", "arguments": {"scale": 0.2}, "output_shape": [4, 4, 2080], "output_shape_type": "raw"}, "inbound_nodes": [[["block8_6_ac", 0, 0, {}], ["block8_7_conv", 0, 0, {}]]], "name": "block8_7"}, {"class_name": "Activation", "config": {"activation": "relu", "trainable": false, "name": "block8_7_ac"}, "inbound_nodes": [[["block8_7", 0, 0, {}]]], "name": "block8_7_ac"}, {"class_name": "Conv2D", "config": {"kernel_constraint": null, "kernel_initializer": {"class_name": "VarianceScaling", "config": {"distribution": "uniform", "scale": 1.0, "seed": null, "mode": "fan_avg"}}, "name": "conv2d_287", "bias_regularizer": null, "bias_constraint": null, "activation": "linear", "trainable": false, "data_format": "channels_last", "padding": "same", "strides": [1, 1], "dilation_rate": [1, 1], "kernel_regularizer": null, "filters": 192, "bias_initializer": {"class_name": "Zeros", "config": {}}, "use_bias": false, "activity_regularizer": null, "kernel_size": [1, 1]}, "inbound_nodes": [[["block8_7_ac", 0, 0, {}]]], "name": "conv2d_287"}, {"class_name": "BatchNormalization", "config": {"beta_constraint": null, "gamma_initializer": {"class_name": "Ones", "config": {}}, "moving_mean_initializer": {"class_name": "Zeros", "config": {}}, "name": "batch_normalization_287", "epsilon": 0.001, "trainable": false, "moving_variance_initializer": {"class_name": "Ones", "config": {}}, "beta_initializer": {"class_name": "Zeros", "config": {}}, "scale": false, "axis": 3, "gamma_constraint": null, "gamma_regularizer": null, "beta_regularizer": null, "momentum": 0.99, "center": true}, "inbound_nodes": [[["conv2d_287", 0, 0, {}]]], "name": "batch_normalization_287"}, {"class_name": "Activation", "config": {"activation": "relu", "trainable": false, "name": "activation_287"}, "inbound_nodes": [[["batch_normalization_287", 0, 0, {}]]], "name": "activation_287"}, {"class_name": "Conv2D", "config": {"kernel_constraint": null, "kernel_initializer": {"class_name": "VarianceScaling", "config": {"distribution": "uniform", "scale": 1.0, "seed": null, "mode": "fan_avg"}}, "name": "conv2d_288", "bias_regularizer": null, "bias_constraint": null, "activation": "linear", "trainable": false, "data_format": "channels_last", "padding": "same", "strides": [1, 1], "dilation_rate": [1, 1], "kernel_regularizer": null, "filters": 224, "bias_initializer": {"class_name": "Zeros", "config": {}}, "use_bias": false, "activity_regularizer": null, "kernel_size": [1, 3]}, "inbound_nodes": [[["activation_287", 0, 0, {}]]], "name": "conv2d_288"}, {"class_name": "BatchNormalization", "config": {"beta_constraint": null, "gamma_initializer": {"class_name": "Ones", "config": {}}, "moving_mean_initializer": {"class_name": "Zeros", "config": {}}, "name": "batch_normalization_288", "epsilon": 0.001, "trainable": false, "moving_variance_initializer": {"class_name": "Ones", "config": {}}, "beta_initializer": {"class_name": "Zeros", "config": {}}, "scale": false, "axis": 3, "gamma_constraint": null, "gamma_regularizer": null, "beta_regularizer": null, "momentum": 0.99, "center": true}, "inbound_nodes": [[["conv2d_288", 0, 0, {}]]], "name": "batch_normalization_288"}, {"class_name": "Activation", "config": {"activation": "relu", "trainable": false, "name": "activation_288"}, "inbound_nodes": [[["batch_normalization_288", 0, 0, {}]]], "name": "activation_288"}, {"class_name": "Conv2D", "config": {"kernel_constraint": null, "kernel_initializer": {"class_name": "VarianceScaling", "config": {"distribution": "uniform", "scale": 1.0, "seed": null, "mode": "fan_avg"}}, "name": "conv2d_286", "bias_regularizer": null, "bias_constraint": null, "activation": "linear", "trainable": false, "data_format": "channels_last", "padding": "same", "strides": [1, 1], "dilation_rate": [1, 1], "kernel_regularizer": null, "filters": 192, "bias_initializer": {"class_name": "Zeros", "config": {}}, "use_bias": false, "activity_regularizer": null, "kernel_size": [1, 1]}, "inbound_nodes": [[["block8_7_ac", 0, 0, {}]]], "name": "conv2d_286"}, {"class_name": "Conv2D", "config": {"kernel_constraint": null, "kernel_initializer": {"class_name": "VarianceScaling", "config": {"distribution": "uniform", "scale": 1.0, "seed": null, "mode": "fan_avg"}}, "name": "conv2d_289", "bias_regularizer": null, "bias_constraint": null, "activation": "linear", "trainable": false, "data_format": "channels_last", "padding": "same", "strides": [1, 1], "dilation_rate": [1, 1], "kernel_regularizer": null, "filters": 256, "bias_initializer": {"class_name": "Zeros", "config": {}}, "use_bias": false, "activity_regularizer": null, "kernel_size": [3, 1]}, "inbound_nodes": [[["activation_288", 0, 0, {}]]], "name": "conv2d_289"}, {"class_name": "BatchNormalization", "config": {"beta_constraint": null, "gamma_initializer": {"class_name": "Ones", "config": {}}, "moving_mean_initializer": {"class_name": "Zeros", "config": {}}, "name": "batch_normalization_286", "epsilon": 0.001, "trainable": false, "moving_variance_initializer": {"class_name": "Ones", "config": {}}, "beta_initializer": {"class_name": "Zeros", "config": {}}, "scale": false, "axis": 3, "gamma_constraint": null, "gamma_regularizer": null, "beta_regularizer": null, "momentum": 0.99, "center": true}, "inbound_nodes": [[["conv2d_286", 0, 0, {}]]], "name": "batch_normalization_286"}, {"class_name": "BatchNormalization", "config": {"beta_constraint": null, "gamma_initializer": {"class_name": "Ones", "config": {}}, "moving_mean_initializer": {"class_name": "Zeros", "config": {}}, "name": "batch_normalization_289", "epsilon": 0.001, "trainable": false, "moving_variance_initializer": {"class_name": "Ones", "config": {}}, "beta_initializer": {"class_name": "Zeros", "config": {}}, "scale": false, "axis": 3, "gamma_constraint": null, "gamma_regularizer": null, "beta_regularizer": null, "momentum": 0.99, "center": true}, "inbound_nodes": [[["conv2d_289", 0, 0, {}]]], "name": "batch_normalization_289"}, {"class_name": "Activation", "config": {"activation": "relu", "trainable": false, "name": "activation_286"}, "inbound_nodes": [[["batch_normalization_286", 0, 0, {}]]], "name": "activation_286"}, {"class_name": "Activation", "config": {"activation": "relu", "trainable": false, "name": "activation_289"}, "inbound_nodes": [[["batch_normalization_289", 0, 0, {}]]], "name": "activation_289"}, {"class_name": "Concatenate", "config": {"trainable": false, "name": "block8_8_mixed", "axis": 3}, "inbound_nodes": [[["activation_286", 0, 0, {}], ["activation_289", 0, 0, {}]]], "name": "block8_8_mixed"}, {"class_name": "Conv2D", "config": {"kernel_constraint": null, "kernel_initializer": {"class_name": "VarianceScaling", "config": {"distribution": "uniform", "scale": 1.0, "seed": null, "mode": "fan_avg"}}, "name": "block8_8_conv", "bias_regularizer": null, "bias_constraint": null, "activation": "linear", "trainable": false, "data_format": "channels_last", "padding": "same", "strides": [1, 1], "dilation_rate": [1, 1], "kernel_regularizer": null, "filters": 2080, "bias_initializer": {"class_name": "Zeros", "config": {}}, "use_bias": true, "activity_regularizer": null, "kernel_size": [1, 1]}, "inbound_nodes": [[["block8_8_mixed", 0, 0, {}]]], "name": "block8_8_conv"}, {"class_name": "Lambda", "config": {"function": ["YwIAAAACAAAAAwAAAFNgAQBzFAAAAHwAAGQBABl8AABkAgAZfAEAFBdTKAMAAABOaQAAAABpAQAA\nACgAAAAAKAIAAAB0BgAAAGlucHV0c3QFAAAAc2NhbGUoAAAAACgAAAAAc1AAAAAvdXNyL2xvY2Fs\nL2xpYi9weXRob24yLjcvZGlzdC1wYWNrYWdlcy9rZXJhc19hcHBsaWNhdGlvbnMvaW5jZXB0aW9u\nX3Jlc25ldF92Mi5weXQIAAAAPGxhbWJkYT6qAAAAdAAAAAA=\n", null, null], "name": "block8_8", "trainable": false, "function_type": "lambda", "arguments": {"scale": 0.2}, "output_shape": [4, 4, 2080], "output_shape_type": "raw"}, "inbound_nodes": [[["block8_7_ac", 0, 0, {}], ["block8_8_conv", 0, 0, {}]]], "name": "block8_8"}, {"class_name": "Activation", "config": {"activation": "relu", "trainable": false, "name": "block8_8_ac"}, "inbound_nodes": [[["block8_8", 0, 0, {}]]], "name": "block8_8_ac"}, {"class_name": "Conv2D", "config": {"kernel_constraint": null, "kernel_initializer": {"class_name": "VarianceScaling", "config": {"distribution": "uniform", "scale": 1.0, "seed": null, "mode": "fan_avg"}}, "name": "conv2d_291", "bias_regularizer": null, "bias_constraint": null, "activation": "linear", "trainable": false, "data_format": "channels_last", "padding": "same", "strides": [1, 1], "dilation_rate": [1, 1], "kernel_regularizer": null, "filters": 192, "bias_initializer": {"class_name": "Zeros", "config": {}}, "use_bias": false, "activity_regularizer": null, "kernel_size": [1, 1]}, "inbound_nodes": [[["block8_8_ac", 0, 0, {}]]], "name": "conv2d_291"}, {"class_name": "BatchNormalization", "config": {"beta_constraint": null, "gamma_initializer": {"class_name": "Ones", "config": {}}, "moving_mean_initializer": {"class_name": "Zeros", "config": {}}, "name": "batch_normalization_291", "epsilon": 0.001, "trainable": false, "moving_variance_initializer": {"class_name": "Ones", "config": {}}, "beta_initializer": {"class_name": "Zeros", "config": {}}, "scale": false, "axis": 3, "gamma_constraint": null, "gamma_regularizer": null, "beta_regularizer": null, "momentum": 0.99, "center": true}, "inbound_nodes": [[["conv2d_291", 0, 0, {}]]], "name": "batch_normalization_291"}, {"class_name": "Activation", "config": {"activation": "relu", "trainable": false, "name": "activation_291"}, "inbound_nodes": [[["batch_normalization_291", 0, 0, {}]]], "name": "activation_291"}, {"class_name": "Conv2D", "config": {"kernel_constraint": null, "kernel_initializer": {"class_name": "VarianceScaling", "config": {"distribution": "uniform", "scale": 1.0, "seed": null, "mode": "fan_avg"}}, "name": "conv2d_292", "bias_regularizer": null, "bias_constraint": null, "activation": "linear", "trainable": false, "data_format": "channels_last", "padding": "same", "strides": [1, 1], "dilation_rate": [1, 1], "kernel_regularizer": null, "filters": 224, "bias_initializer": {"class_name": "Zeros", "config": {}}, "use_bias": false, "activity_regularizer": null, "kernel_size": [1, 3]}, "inbound_nodes": [[["activation_291", 0, 0, {}]]], "name": "conv2d_292"}, {"class_name": "BatchNormalization", "config": {"beta_constraint": null, "gamma_initializer": {"class_name": "Ones", "config": {}}, "moving_mean_initializer": {"class_name": "Zeros", "config": {}}, "name": "batch_normalization_292", "epsilon": 0.001, "trainable": false, "moving_variance_initializer": {"class_name": "Ones", "config": {}}, "beta_initializer": {"class_name": "Zeros", "config": {}}, "scale": false, "axis": 3, "gamma_constraint": null, "gamma_regularizer": null, "beta_regularizer": null, "momentum": 0.99, "center": true}, "inbound_nodes": [[["conv2d_292", 0, 0, {}]]], "name": "batch_normalization_292"}, {"class_name": "Activation", "config": {"activation": "relu", "trainable": false, "name": "activation_292"}, "inbound_nodes": [[["batch_normalization_292", 0, 0, {}]]], "name": "activation_292"}, {"class_name": "Conv2D", "config": {"kernel_constraint": null, "kernel_initializer": {"class_name": "VarianceScaling", "config": {"distribution": "uniform", "scale": 1.0, "seed": null, "mode": "fan_avg"}}, "name": "conv2d_290", "bias_regularizer": null, "bias_constraint": null, "activation": "linear", "trainable": false, "data_format": "channels_last", "padding": "same", "strides": [1, 1], "dilation_rate": [1, 1], "kernel_regularizer": null, "filters": 192, "bias_initializer": {"class_name": "Zeros", "config": {}}, "use_bias": false, "activity_regularizer": null, "kernel_size": [1, 1]}, "inbound_nodes": [[["block8_8_ac", 0, 0, {}]]], "name": "conv2d_290"}, {"class_name": "Conv2D", "config": {"kernel_constraint": null, "kernel_initializer": {"class_name": "VarianceScaling", "config": {"distribution": "uniform", "scale": 1.0, "seed": null, "mode": "fan_avg"}}, "name": "conv2d_293", "bias_regularizer": null, "bias_constraint": null, "activation": "linear", "trainable": false, "data_format": "channels_last", "padding": "same", "strides": [1, 1], "dilation_rate": [1, 1], "kernel_regularizer": null, "filters": 256, "bias_initializer": {"class_name": "Zeros", "config": {}}, "use_bias": false, "activity_regularizer": null, "kernel_size": [3, 1]}, "inbound_nodes": [[["activation_292", 0, 0, {}]]], "name": "conv2d_293"}, {"class_name": "BatchNormalization", "config": {"beta_constraint": null, "gamma_initializer": {"class_name": "Ones", "config": {}}, "moving_mean_initializer": {"class_name": "Zeros", "config": {}}, "name": "batch_normalization_290", "epsilon": 0.001, "trainable": false, "moving_variance_initializer": {"class_name": "Ones", "config": {}}, "beta_initializer": {"class_name": "Zeros", "config": {}}, "scale": false, "axis": 3, "gamma_constraint": null, "gamma_regularizer": null, "beta_regularizer": null, "momentum": 0.99, "center": true}, "inbound_nodes": [[["conv2d_290", 0, 0, {}]]], "name": "batch_normalization_290"}, {"class_name": "BatchNormalization", "config": {"beta_constraint": null, "gamma_initializer": {"class_name": "Ones", "config": {}}, "moving_mean_initializer": {"class_name": "Zeros", "config": {}}, "name": "batch_normalization_293", "epsilon": 0.001, "trainable": false, "moving_variance_initializer": {"class_name": "Ones", "config": {}}, "beta_initializer": {"class_name": "Zeros", "config": {}}, "scale": false, "axis": 3, "gamma_constraint": null, "gamma_regularizer": null, "beta_regularizer": null, "momentum": 0.99, "center": true}, "inbound_nodes": [[["conv2d_293", 0, 0, {}]]], "name": "batch_normalization_293"}, {"class_name": "Activation", "config": {"activation": "relu", "trainable": false, "name": "activation_290"}, "inbound_nodes": [[["batch_normalization_290", 0, 0, {}]]], "name": "activation_290"}, {"class_name": "Activation", "config": {"activation": "relu", "trainable": false, "name": "activation_293"}, "inbound_nodes": [[["batch_normalization_293", 0, 0, {}]]], "name": "activation_293"}, {"class_name": "Concatenate", "config": {"trainable": false, "name": "block8_9_mixed", "axis": 3}, "inbound_nodes": [[["activation_290", 0, 0, {}], ["activation_293", 0, 0, {}]]], "name": "block8_9_mixed"}, {"class_name": "Conv2D", "config": {"kernel_constraint": null, "kernel_initializer": {"class_name": "VarianceScaling", "config": {"distribution": "uniform", "scale": 1.0, "seed": null, "mode": "fan_avg"}}, "name": "block8_9_conv", "bias_regularizer": null, "bias_constraint": null, "activation": "linear", "trainable": false, "data_format": "channels_last", "padding": "same", "strides": [1, 1], "dilation_rate": [1, 1], "kernel_regularizer": null, "filters": 2080, "bias_initializer": {"class_name": "Zeros", "config": {}}, "use_bias": true, "activity_regularizer": null, "kernel_size": [1, 1]}, "inbound_nodes": [[["block8_9_mixed", 0, 0, {}]]], "name": "block8_9_conv"}, {"class_name": "Lambda", "config": {"function": ["YwIAAAACAAAAAwAAAFNgAQBzFAAAAHwAAGQBABl8AABkAgAZfAEAFBdTKAMAAABOaQAAAABpAQAA\nACgAAAAAKAIAAAB0BgAAAGlucHV0c3QFAAAAc2NhbGUoAAAAACgAAAAAc1AAAAAvdXNyL2xvY2Fs\nL2xpYi9weXRob24yLjcvZGlzdC1wYWNrYWdlcy9rZXJhc19hcHBsaWNhdGlvbnMvaW5jZXB0aW9u\nX3Jlc25ldF92Mi5weXQIAAAAPGxhbWJkYT6qAAAAdAAAAAA=\n", null, null], "name": "block8_9", "trainable": false, "function_type": "lambda", "arguments": {"scale": 0.2}, "output_shape": [4, 4, 2080], "output_shape_type": "raw"}, "inbound_nodes": [[["block8_8_ac", 0, 0, {}], ["block8_9_conv", 0, 0, {}]]], "name": "block8_9"}, {"class_name": "Activation", "config": {"activation": "relu", "trainable": false, "name": "block8_9_ac"}, "inbound_nodes": [[["block8_9", 0, 0, {}]]], "name": "block8_9_ac"}, {"class_name": "Conv2D", "config": {"kernel_constraint": null, "kernel_initializer": {"class_name": "VarianceScaling", "config": {"distribution": "uniform", "scale": 1.0, "seed": null, "mode": "fan_avg"}}, "name": "conv2d_295", "bias_regularizer": null, "bias_constraint": null, "activation": "linear", "trainable": false, "data_format": "channels_last", "padding": "same", "strides": [1, 1], "dilation_rate": [1, 1], "kernel_regularizer": null, "filters": 192, "bias_initializer": {"class_name": "Zeros", "config": {}}, "use_bias": false, "activity_regularizer": null, "kernel_size": [1, 1]}, "inbound_nodes": [[["block8_9_ac", 0, 0, {}]]], "name": "conv2d_295"}, {"class_name": "BatchNormalization", "config": {"beta_constraint": null, "gamma_initializer": {"class_name": "Ones", "config": {}}, "moving_mean_initializer": {"class_name": "Zeros", "config": {}}, "name": "batch_normalization_295", "epsilon": 0.001, "trainable": false, "moving_variance_initializer": {"class_name": "Ones", "config": {}}, "beta_initializer": {"class_name": "Zeros", "config": {}}, "scale": false, "axis": 3, "gamma_constraint": null, "gamma_regularizer": null, "beta_regularizer": null, "momentum": 0.99, "center": true}, "inbound_nodes": [[["conv2d_295", 0, 0, {}]]], "name": "batch_normalization_295"}, {"class_name": "Activation", "config": {"activation": "relu", "trainable": false, "name": "activation_295"}, "inbound_nodes": [[["batch_normalization_295", 0, 0, {}]]], "name": "activation_295"}, {"class_name": "Conv2D", "config": {"kernel_constraint": null, "kernel_initializer": {"class_name": "VarianceScaling", "config": {"distribution": "uniform", "scale": 1.0, "seed": null, "mode": "fan_avg"}}, "name": "conv2d_296", "bias_regularizer": null, "bias_constraint": null, "activation": "linear", "trainable": false, "data_format": "channels_last", "padding": "same", "strides": [1, 1], "dilation_rate": [1, 1], "kernel_regularizer": null, "filters": 224, "bias_initializer": {"class_name": "Zeros", "config": {}}, "use_bias": false, "activity_regularizer": null, "kernel_size": [1, 3]}, "inbound_nodes": [[["activation_295", 0, 0, {}]]], "name": "conv2d_296"}, {"class_name": "BatchNormalization", "config": {"beta_constraint": null, "gamma_initializer": {"class_name": "Ones", "config": {}}, "moving_mean_initializer": {"class_name": "Zeros", "config": {}}, "name": "batch_normalization_296", "epsilon": 0.001, "trainable": false, "moving_variance_initializer": {"class_name": "Ones", "config": {}}, "beta_initializer": {"class_name": "Zeros", "config": {}}, "scale": false, "axis": 3, "gamma_constraint": null, "gamma_regularizer": null, "beta_regularizer": null, "momentum": 0.99, "center": true}, "inbound_nodes": [[["conv2d_296", 0, 0, {}]]], "name": "batch_normalization_296"}, {"class_name": "Activation", "config": {"activation": "relu", "trainable": false, "name": "activation_296"}, "inbound_nodes": [[["batch_normalization_296", 0, 0, {}]]], "name": "activation_296"}, {"class_name": "Conv2D", "config": {"kernel_constraint": null, "kernel_initializer": {"class_name": "VarianceScaling", "config": {"distribution": "uniform", "scale": 1.0, "seed": null, "mode": "fan_avg"}}, "name": "conv2d_294", "bias_regularizer": null, "bias_constraint": null, "activation": "linear", "trainable": false, "data_format": "channels_last", "padding": "same", "strides": [1, 1], "dilation_rate": [1, 1], "kernel_regularizer": null, "filters": 192, "bias_initializer": {"class_name": "Zeros", "config": {}}, "use_bias": false, "activity_regularizer": null, "kernel_size": [1, 1]}, "inbound_nodes": [[["block8_9_ac", 0, 0, {}]]], "name": "conv2d_294"}, {"class_name": "Conv2D", "config": {"kernel_constraint": null, "kernel_initializer": {"class_name": "VarianceScaling", "config": {"distribution": "uniform", "scale": 1.0, "seed": null, "mode": "fan_avg"}}, "name": "conv2d_297", "bias_regularizer": null, "bias_constraint": null, "activation": "linear", "trainable": false, "data_format": "channels_last", "padding": "same", "strides": [1, 1], "dilation_rate": [1, 1], "kernel_regularizer": null, "filters": 256, "bias_initializer": {"class_name": "Zeros", "config": {}}, "use_bias": false, "activity_regularizer": null, "kernel_size": [3, 1]}, "inbound_nodes": [[["activation_296", 0, 0, {}]]], "name": "conv2d_297"}, {"class_name": "BatchNormalization", "config": {"beta_constraint": null, "gamma_initializer": {"class_name": "Ones", "config": {}}, "moving_mean_initializer": {"class_name": "Zeros", "config": {}}, "name": "batch_normalization_294", "epsilon": 0.001, "trainable": false, "moving_variance_initializer": {"class_name": "Ones", "config": {}}, "beta_initializer": {"class_name": "Zeros", "config": {}}, "scale": false, "axis": 3, "gamma_constraint": null, "gamma_regularizer": null, "beta_regularizer": null, "momentum": 0.99, "center": true}, "inbound_nodes": [[["conv2d_294", 0, 0, {}]]], "name": "batch_normalization_294"}, {"class_name": "BatchNormalization", "config": {"beta_constraint": null, "gamma_initializer": {"class_name": "Ones", "config": {}}, "moving_mean_initializer": {"class_name": "Zeros", "config": {}}, "name": "batch_normalization_297", "epsilon": 0.001, "trainable": false, "moving_variance_initializer": {"class_name": "Ones", "config": {}}, "beta_initializer": {"class_name": "Zeros", "config": {}}, "scale": false, "axis": 3, "gamma_constraint": null, "gamma_regularizer": null, "beta_regularizer": null, "momentum": 0.99, "center": true}, "inbound_nodes": [[["conv2d_297", 0, 0, {}]]], "name": "batch_normalization_297"}, {"class_name": "Activation", "config": {"activation": "relu", "trainable": false, "name": "activation_294"}, "inbound_nodes": [[["batch_normalization_294", 0, 0, {}]]], "name": "activation_294"}, {"class_name": "Activation", "config": {"activation": "relu", "trainable": false, "name": "activation_297"}, "inbound_nodes": [[["batch_normalization_297", 0, 0, {}]]], "name": "activation_297"}, {"class_name": "Concatenate", "config": {"trainable": false, "name": "block8_10_mixed", "axis": 3}, "inbound_nodes": [[["activation_294", 0, 0, {}], ["activation_297", 0, 0, {}]]], "name": "block8_10_mixed"}, {"class_name": "Conv2D", "config": {"kernel_constraint": null, "kernel_initializer": {"class_name": "VarianceScaling", "config": {"distribution": "uniform", "scale": 1.0, "seed": null, "mode": "fan_avg"}}, "name": "block8_10_conv", "bias_regularizer": null, "bias_constraint": null, "activation": "linear", "trainable": false, "data_format": "channels_last", "padding": "same", "strides": [1, 1], "dilation_rate": [1, 1], "kernel_regularizer": null, "filters": 2080, "bias_initializer": {"class_name": "Zeros", "config": {}}, "use_bias": true, "activity_regularizer": null, "kernel_size": [1, 1]}, "inbound_nodes": [[["block8_10_mixed", 0, 0, {}]]], "name": "block8_10_conv"}, {"class_name": "Lambda", "config": {"function": ["YwIAAAACAAAAAwAAAFNgAQBzFAAAAHwAAGQBABl8AABkAgAZfAEAFBdTKAMAAABOaQAAAABpAQAA\nACgAAAAAKAIAAAB0BgAAAGlucHV0c3QFAAAAc2NhbGUoAAAAACgAAAAAc1AAAAAvdXNyL2xvY2Fs\nL2xpYi9weXRob24yLjcvZGlzdC1wYWNrYWdlcy9rZXJhc19hcHBsaWNhdGlvbnMvaW5jZXB0aW9u\nX3Jlc25ldF92Mi5weXQIAAAAPGxhbWJkYT6qAAAAdAAAAAA=\n", null, null], "name": "block8_10", "trainable": false, "function_type": "lambda", "arguments": {"scale": 1.0}, "output_shape": [4, 4, 2080], "output_shape_type": "raw"}, "inbound_nodes": [[["block8_9_ac", 0, 0, {}], ["block8_10_conv", 0, 0, {}]]], "name": "block8_10"}, {"class_name": "Conv2D", "config": {"kernel_constraint": null, "kernel_initializer": {"class_name": "VarianceScaling", "config": {"distribution": "uniform", "scale": 1.0, "seed": null, "mode": "fan_avg"}}, "name": "conv_7b", "bias_regularizer": null, "bias_constraint": null, "activation": "linear", "trainable": false, "data_format": "channels_last", "padding": "same", "strides": [1, 1], "dilation_rate": [1, 1], "kernel_regularizer": null, "filters": 1536, "bias_initializer": {"class_name": "Zeros", "config": {}}, "use_bias": false, "activity_regularizer": null, "kernel_size": [1, 1]}, "inbound_nodes": [[["block8_10", 0, 0, {}]]], "name": "conv_7b"}, {"class_name": "BatchNormalization", "config": {"beta_constraint": null, "gamma_initializer": {"class_name": "Ones", "config": {}}, "moving_mean_initializer": {"class_name": "Zeros", "config": {}}, "name": "conv_7b_bn", "epsilon": 0.001, "trainable": false, "moving_variance_initializer": {"class_name": "Ones", "config": {}}, "beta_initializer": {"class_name": "Zeros", "config": {}}, "scale": false, "axis": 3, "gamma_constraint": null, "gamma_regularizer": null, "beta_regularizer": null, "momentum": 0.99, "center": true}, "inbound_nodes": [[["conv_7b", 0, 0, {}]]], "name": "conv_7b_bn"}, {"class_name": "Activation", "config": {"activation": "relu", "trainable": false, "name": "conv_7b_ac"}, "inbound_nodes": [[["conv_7b_bn", 0, 0, {}]]], "name": "conv_7b_ac"}, {"class_name": "GlobalAveragePooling2D", "config": {"trainable": true, "name": "global_average_pooling2d_4", "data_format": "channels_last"}, "inbound_nodes": [[["conv_7b_ac", 0, 0, {}]]], "name": "global_average_pooling2d_4"}, {"class_name": "Dense", "config": {"kernel_initializer": {"class_name": "VarianceScaling", "config": {"distribution": "uniform", "scale": 1.0, "seed": null, "mode": "fan_avg"}}, "name": "dense_4", "kernel_constraint": null, "bias_regularizer": null, "bias_constraint": null, "activation": "relu", "trainable": true, "kernel_regularizer": null, "bias_initializer": {"class_name": "Zeros", "config": {}}, "units": 1024, "use_bias": true, "activity_regularizer": null}, "inbound_nodes": [[["global_average_pooling2d_4", 0, 0, {}]]], "name": "dense_4"}, {"class_name": "Dropout", "config": {"rate": 0.5, "noise_shape": null, "trainable": true, "seed": null, "name": "dropout_4"}, "inbound_nodes": [[["dense_4", 0, 0, {}]]], "name": "dropout_4"}, {"class_name": "Dense", "config": {"kernel_initializer": {"class_name": "VarianceScaling", "config": {"distribution": "uniform", "scale": 1.0, "seed": null, "mode": "fan_avg"}}, "name": "logits", "kernel_constraint": null, "bias_regularizer": null, "bias_constraint": null, "activation": "linear", "trainable": true, "kernel_regularizer": null, "bias_initializer": {"class_name": "Zeros", "config": {}}, "units": 2, "use_bias": true, "activity_regularizer": null}, "inbound_nodes": [[["dropout_4", 0, 0, {}]]], "name": "logits"}, {"class_name": "Activation", "config": {"activation": "softmax", "trainable": true, "name": "absolute_output"}, "inbound_nodes": [[["logits", 0, 0, {}]]], "name": "absolute_output"}], "input_layers": [["absolute_input", 0, 0]], "output_layers": [["absolute_output", 0, 0]], "name": "model_4"}, "backend": "tensorflow"}