{"class_name": "Model", "keras_version": "2.2.2", "config": {"layers": [{"class_name": "InputLayer", "config": {"dtype": "float32", "batch_input_shape": [null, 139, 139, 3], "name": "absolute_input", "sparse": false}, "inbound_nodes": [], "name": "absolute_input"}, {"class_name": "Conv2D", "config": {"kernel_constraint": null, "kernel_initializer": {"class_name": "VarianceScaling", "config": {"distribution": "uniform", "scale": 1.0, "seed": null, "mode": "fan_avg"}}, "name": "conv2d_407", "bias_regularizer": null, "bias_constraint": null, "activation": "linear", "trainable": false, "data_format": "channels_last", "padding": "valid", "strides": [2, 2], "dilation_rate": [1, 1], "kernel_regularizer": null, "filters": 32, "bias_initializer": {"class_name": "Zeros", "config": {}}, "use_bias": false, "activity_regularizer": null, "kernel_size": [3, 3]}, "inbound_nodes": [[["absolute_input", 0, 0, {}]]], "name": "conv2d_407"}, {"class_name": "BatchNormalization", "config": {"beta_constraint": null, "gamma_initializer": {"class_name": "Ones", "config": {}}, "moving_mean_initializer": {"class_name": "Zeros", "config": {}}, "name": "batch_normalization_407", "epsilon": 0.001, "trainable": false, "moving_variance_initializer": {"class_name": "Ones", "config": {}}, "beta_initializer": {"class_name": "Zeros", "config": {}}, "scale": false, "axis": 3, "gamma_constraint": null, "gamma_regularizer": null, "beta_regularizer": null, "momentum": 0.99, "center": true}, "inbound_nodes": [[["conv2d_407", 0, 0, {}]]], "name": "batch_normalization_407"}, {"class_name": "Activation", "config": {"activation": "relu", "trainable": false, "name": "activation_407"}, "inbound_nodes": [[["batch_normalization_407", 0, 0, {}]]], "name": "activation_407"}, {"class_name": "Conv2D", "config": {"kernel_constraint": null, "kernel_initializer": {"class_name": "VarianceScaling", "config": {"distribution": "uniform", "scale": 1.0, "seed": null, "mode": "fan_avg"}}, "name": "conv2d_408", "bias_regularizer": null, "bias_constraint": null, "activation": "linear", "trainable": false, "data_format": "channels_last", "padding": "valid", "strides": [1, 1], "dilation_rate": [1, 1], "kernel_regularizer": null, "filters": 32, "bias_initializer": {"class_name": "Zeros", "config": {}}, "use_bias": false, "activity_regularizer": null, "kernel_size": [3, 3]}, "inbound_nodes": [[["activation_407", 0, 0, {}]]], "name": "conv2d_408"}, {"class_name": "BatchNormalization", "config": {"beta_constraint": null, "gamma_initializer": {"class_name": "Ones", "config": {}}, "moving_mean_initializer": {"class_name": "Zeros", "config": {}}, "name": "batch_normalization_408", "epsilon": 0.001, "trainable": false, "moving_variance_initializer": {"class_name": "Ones", "config": {}}, "beta_initializer": {"class_name": "Zeros", "config": {}}, "scale": false, "axis": 3, "gamma_constraint": null, "gamma_regularizer": null, "beta_regularizer": null, "momentum": 0.99, "center": true}, "inbound_nodes": [[["conv2d_408", 0, 0, {}]]], "name": "batch_normalization_408"}, {"class_name": "Activation", "config": {"activation": "relu", "trainable": false, "name": "activation_408"}, "inbound_nodes": [[["batch_normalization_408", 0, 0, {}]]], "name": "activation_408"}, {"class_name": "Conv2D", "config": {"kernel_constraint": null, "kernel_initializer": {"class_name": "VarianceScaling", "config": {"distribution": "uniform", "scale": 1.0, "seed": null, "mode": "fan_avg"}}, "name": "conv2d_409", "bias_regularizer": null, "bias_constraint": null, "activation": "linear", "trainable": false, "data_format": "channels_last", "padding": "same", "strides": [1, 1], "dilation_rate": [1, 1], "kernel_regularizer": null, "filters": 64, "bias_initializer": {"class_name": "Zeros", "config": {}}, "use_bias": false, "activity_regularizer": null, "kernel_size": [3, 3]}, "inbound_nodes": [[["activation_408", 0, 0, {}]]], "name": "conv2d_409"}, {"class_name": "BatchNormalization", "config": {"beta_constraint": null, "gamma_initializer": {"class_name": "Ones", "config": {}}, "moving_mean_initializer": {"class_name": "Zeros", "config": {}}, "name": "batch_normalization_409", "epsilon": 0.001, "trainable": false, "moving_variance_initializer": {"class_name": "Ones", "config": {}}, "beta_initializer": {"class_name": "Zeros", "config": {}}, "scale": false, "axis": 3, "gamma_constraint": null, "gamma_regularizer": null, "beta_regularizer": null, "momentum": 0.99, "center": true}, "inbound_nodes": [[["conv2d_409", 0, 0, {}]]], "name": "batch_normalization_409"}, {"class_name": "Activation", "config": {"activation": "relu", "trainable": false, "name": "activation_409"}, "inbound_nodes": [[["batch_normalization_409", 0, 0, {}]]], "name": "activation_409"}, {"class_name": "MaxPooling2D", "config": {"name": "max_pooling2d_9", "trainable": false, "data_format": "channels_last", "pool_size": [3, 3], "padding": "valid", "strides": [2, 2]}, "inbound_nodes": [[["activation_409", 0, 0, {}]]], "name": "max_pooling2d_9"}, {"class_name": "Conv2D", "config": {"kernel_constraint": null, "kernel_initializer": {"class_name": "VarianceScaling", "config": {"distribution": "uniform", "scale": 1.0, "seed": null, "mode": "fan_avg"}}, "name": "conv2d_410", "bias_regularizer": null, "bias_constraint": null, "activation": "linear", "trainable": false, "data_format": "channels_last", "padding": "valid", "strides": [1, 1], "dilation_rate": [1, 1], "kernel_regularizer": null, "filters": 80, "bias_initializer": {"class_name": "Zeros", "config": {}}, "use_bias": false, "activity_regularizer": null, "kernel_size": [1, 1]}, "inbound_nodes": [[["max_pooling2d_9", 0, 0, {}]]], "name": "conv2d_410"}, {"class_name": "BatchNormalization", "config": {"beta_constraint": null, "gamma_initializer": {"class_name": "Ones", "config": {}}, "moving_mean_initializer": {"class_name": "Zeros", "config": {}}, "name": "batch_normalization_410", "epsilon": 0.001, "trainable": false, "moving_variance_initializer": {"class_name": "Ones", "config": {}}, "beta_initializer": {"class_name": "Zeros", "config": {}}, "scale": false, "axis": 3, "gamma_constraint": null, "gamma_regularizer": null, "beta_regularizer": null, "momentum": 0.99, "center": true}, "inbound_nodes": [[["conv2d_410", 0, 0, {}]]], "name": "batch_normalization_410"}, {"class_name": "Activation", "config": {"activation": "relu", "trainable": false, "name": "activation_410"}, "inbound_nodes": [[["batch_normalization_410", 0, 0, {}]]], "name": "activation_410"}, {"class_name": "Conv2D", "config": {"kernel_constraint": null, "kernel_initializer": {"class_name": "VarianceScaling", "config": {"distribution": "uniform", "scale": 1.0, "seed": null, "mode": "fan_avg"}}, "name": "conv2d_411", "bias_regularizer": null, "bias_constraint": null, "activation": "linear", "trainable": false, "data_format": "channels_last", "padding": "valid", "strides": [1, 1], "dilation_rate": [1, 1], "kernel_regularizer": null, "filters": 192, "bias_initializer": {"class_name": "Zeros", "config": {}}, "use_bias": false, "activity_regularizer": null, "kernel_size": [3, 3]}, "inbound_nodes": [[["activation_410", 0, 0, {}]]], "name": "conv2d_411"}, {"class_name": "BatchNormalization", "config": {"beta_constraint": null, "gamma_initializer": {"class_name": "Ones", "config": {}}, "moving_mean_initializer": {"class_name": "Zeros", "config": {}}, "name": "batch_normalization_411", "epsilon": 0.001, "trainable": false, "moving_variance_initializer": {"class_name": "Ones", "config": {}}, "beta_initializer": {"class_name": "Zeros", "config": {}}, "scale": false, "axis": 3, "gamma_constraint": null, "gamma_regularizer": null, "beta_regularizer": null, "momentum": 0.99, "center": true}, "inbound_nodes": [[["conv2d_411", 0, 0, {}]]], "name": "batch_normalization_411"}, {"class_name": "Activation", "config": {"activation": "relu", "trainable": false, "name": "activation_411"}, "inbound_nodes": [[["batch_normalization_411", 0, 0, {}]]], "name": "activation_411"}, {"class_name": "MaxPooling2D", "config": {"name": "max_pooling2d_10", "trainable": false, "data_format": "channels_last", "pool_size": [3, 3], "padding": "valid", "strides": [2, 2]}, "inbound_nodes": [[["activation_411", 0, 0, {}]]], "name": "max_pooling2d_10"}, {"class_name": "Conv2D", "config": {"kernel_constraint": null, "kernel_initializer": {"class_name": "VarianceScaling", "config": {"distribution": "uniform", "scale": 1.0, "seed": null, "mode": "fan_avg"}}, "name": "conv2d_415", "bias_regularizer": null, "bias_constraint": null, "activation": "linear", "trainable": false, "data_format": "channels_last", "padding": "same", "strides": [1, 1], "dilation_rate": [1, 1], "kernel_regularizer": null, "filters": 64, "bias_initializer": {"class_name": "Zeros", "config": {}}, "use_bias": false, "activity_regularizer": null, "kernel_size": [1, 1]}, "inbound_nodes": [[["max_pooling2d_10", 0, 0, {}]]], "name": "conv2d_415"}, {"class_name": "BatchNormalization", "config": {"beta_constraint": null, "gamma_initializer": {"class_name": "Ones", "config": {}}, "moving_mean_initializer": {"class_name": "Zeros", "config": {}}, "name": "batch_normalization_415", "epsilon": 0.001, "trainable": false, "moving_variance_initializer": {"class_name": "Ones", "config": {}}, "beta_initializer": {"class_name": "Zeros", "config": {}}, "scale": false, "axis": 3, "gamma_constraint": null, "gamma_regularizer": null, "beta_regularizer": null, "momentum": 0.99, "center": true}, "inbound_nodes": [[["conv2d_415", 0, 0, {}]]], "name": "batch_normalization_415"}, {"class_name": "Activation", "config": {"activation": "relu", "trainable": false, "name": "activation_415"}, "inbound_nodes": [[["batch_normalization_415", 0, 0, {}]]], "name": "activation_415"}, {"class_name": "Conv2D", "config": {"kernel_constraint": null, "kernel_initializer": {"class_name": "VarianceScaling", "config": {"distribution": "uniform", "scale": 1.0, "seed": null, "mode": "fan_avg"}}, "name": "conv2d_413", "bias_regularizer": null, "bias_constraint": null, "activation": "linear", "trainable": false, "data_format": "channels_last", "padding": "same", "strides": [1, 1], "dilation_rate": [1, 1], "kernel_regularizer": null, "filters": 48, "bias_initializer": {"class_name": "Zeros", "config": {}}, "use_bias": false, "activity_regularizer": null, "kernel_size": [1, 1]}, "inbound_nodes": [[["max_pooling2d_10", 0, 0, {}]]], "name": "conv2d_413"}, {"class_name": "Conv2D", "config": {"kernel_constraint": null, "kernel_initializer": {"class_name": "VarianceScaling", "config": {"distribution": "uniform", "scale": 1.0, "seed": null, "mode": "fan_avg"}}, "name": "conv2d_416", "bias_regularizer": null, "bias_constraint": null, "activation": "linear", "trainable": false, "data_format": "channels_last", "padding": "same", "strides": [1, 1], "dilation_rate": [1, 1], "kernel_regularizer": null, "filters": 96, "bias_initializer": {"class_name": "Zeros", "config": {}}, "use_bias": false, "activity_regularizer": null, "kernel_size": [3, 3]}, "inbound_nodes": [[["activation_415", 0, 0, {}]]], "name": "conv2d_416"}, {"class_name": "BatchNormalization", "config": {"beta_constraint": null, "gamma_initializer": {"class_name": "Ones", "config": {}}, "moving_mean_initializer": {"class_name": "Zeros", "config": {}}, "name": "batch_normalization_413", "epsilon": 0.001, "trainable": false, "moving_variance_initializer": {"class_name": "Ones", "config": {}}, "beta_initializer": {"class_name": "Zeros", "config": {}}, "scale": false, "axis": 3, "gamma_constraint": null, "gamma_regularizer": null, "beta_regularizer": null, "momentum": 0.99, "center": true}, "inbound_nodes": [[["conv2d_413", 0, 0, {}]]], "name": "batch_normalization_413"}, {"class_name": "BatchNormalization", "config": {"beta_constraint": null, "gamma_initializer": {"class_name": "Ones", "config": {}}, "moving_mean_initializer": {"class_name": "Zeros", "config": {}}, "name": "batch_normalization_416", "epsilon": 0.001, "trainable": false, "moving_variance_initializer": {"class_name": "Ones", "config": {}}, "beta_initializer": {"class_name": "Zeros", "config": {}}, "scale": false, "axis": 3, "gamma_constraint": null, "gamma_regularizer": null, "beta_regularizer": null, "momentum": 0.99, "center": true}, "inbound_nodes": [[["conv2d_416", 0, 0, {}]]], "name": "batch_normalization_416"}, {"class_name": "Activation", "config": {"activation": "relu", "trainable": false, "name": "activation_413"}, "inbound_nodes": [[["batch_normalization_413", 0, 0, {}]]], "name": "activation_413"}, {"class_name": "Activation", "config": {"activation": "relu", "trainable": false, "name": "activation_416"}, "inbound_nodes": [[["batch_normalization_416", 0, 0, {}]]], "name": "activation_416"}, {"class_name": "AveragePooling2D", "config": {"name": "average_pooling2d_3", "trainable": false, "data_format": "channels_last", "pool_size": [3, 3], "padding": "same", "strides": [1, 1]}, "inbound_nodes": [[["max_pooling2d_10", 0, 0, {}]]], "name": "average_pooling2d_3"}, {"class_name": "Conv2D", "config": {"kernel_constraint": null, "kernel_initializer": {"class_name": "VarianceScaling", "config": {"distribution": "uniform", "scale": 1.0, "seed": null, "mode": "fan_avg"}}, "name": "conv2d_412", "bias_regularizer": null, "bias_constraint": null, "activation": "linear", "trainable": false, "data_format": "channels_last", "padding": "same", "strides": [1, 1], "dilation_rate": [1, 1], "kernel_regularizer": null, "filters": 96, "bias_initializer": {"class_name": "Zeros", "config": {}}, "use_bias": false, "activity_regularizer": null, "kernel_size": [1, 1]}, "inbound_nodes": [[["max_pooling2d_10", 0, 0, {}]]], "name": "conv2d_412"}, {"class_name": "Conv2D", "config": {"kernel_constraint": null, "kernel_initializer": {"class_name": "VarianceScaling", "config": {"distribution": "uniform", "scale": 1.0, "seed": null, "mode": "fan_avg"}}, "name": "conv2d_414", "bias_regularizer": null, "bias_constraint": null, "activation": "linear", "trainable": false, "data_format": "channels_last", "padding": "same", "strides": [1, 1], "dilation_rate": [1, 1], "kernel_regularizer": null, "filters": 64, "bias_initializer": {"class_name": "Zeros", "config": {}}, "use_bias": false, "activity_regularizer": null, "kernel_size": [5, 5]}, "inbound_nodes": [[["activation_413", 0, 0, {}]]], "name": "conv2d_414"}, {"class_name": "Conv2D", "config": {"kernel_constraint": null, "kernel_initializer": {"class_name": "VarianceScaling", "config": {"distribution": "uniform", "scale": 1.0, "seed": null, "mode": "fan_avg"}}, "name": "conv2d_417", "bias_regularizer": null, "bias_constraint": null, "activation": "linear", "trainable": false, "data_format": "channels_last", "padding": "same", "strides": [1, 1], "dilation_rate": [1, 1], "kernel_regularizer": null, "filters": 96, "bias_initializer": {"class_name": "Zeros", "config": {}}, "use_bias": false, "activity_regularizer": null, "kernel_size": [3, 3]}, "inbound_nodes": [[["activation_416", 0, 0, {}]]], "name": "conv2d_417"}, {"class_name": "Conv2D", "config": {"kernel_constraint": null, "kernel_initializer": {"class_name": "VarianceScaling", "config": {"distribution": "uniform", "scale": 1.0, "seed": null, "mode": "fan_avg"}}, "name": "conv2d_418", "bias_regularizer": null, "bias_constraint": null, "activation": "linear", "trainable": false, "data_format": "channels_last", "padding": "same", "strides": [1, 1], "dilation_rate": [1, 1], "kernel_regularizer": null, "filters": 64, "bias_initializer": {"class_name": "Zeros", "config": {}}, "use_bias": false, "activity_regularizer": null, "kernel_size": [1, 1]}, "inbound_nodes": [[["average_pooling2d_3", 0, 0, {}]]], "name": "conv2d_418"}, {"class_name": "BatchNormalization", "config": {"beta_constraint": null, "gamma_initializer": {"class_name": "Ones", "config": {}}, "moving_mean_initializer": {"class_name": "Zeros", "config": {}}, "name": "batch_normalization_412", "epsilon": 0.001, "trainable": false, "moving_variance_initializer": {"class_name": "Ones", "config": {}}, "beta_initializer": {"class_name": "Zeros", "config": {}}, "scale": false, "axis": 3, "gamma_constraint": null, "gamma_regularizer": null, "beta_regularizer": null, "momentum": 0.99, "center": true}, "inbound_nodes": [[["conv2d_412", 0, 0, {}]]], "name": "batch_normalization_412"}, {"class_name": "BatchNormalization", "config": {"beta_constraint": null, "gamma_initializer": {"class_name": "Ones", "config": {}}, "moving_mean_initializer": {"class_name": "Zeros", "config": {}}, "name": "batch_normalization_414", "epsilon": 0.001, "trainable": false, "moving_variance_initializer": {"class_name": "Ones", "config": {}}, "beta_initializer": {"class_name": "Zeros", "config": {}}, "scale": false, "axis": 3, "gamma_constraint": null, "gamma_regularizer": null, "beta_regularizer": null, "momentum": 0.99, "center": true}, "inbound_nodes": [[["conv2d_414", 0, 0, {}]]], "name": "batch_normalization_414"}, {"class_name": "BatchNormalization", "config": {"beta_constraint": null, "gamma_initializer": {"class_name": "Ones", "config": {}}, "moving_mean_initializer": {"class_name": "Zeros", "config": {}}, "name": "batch_normalization_417", "epsilon": 0.001, "trainable": false, "moving_variance_initializer": {"class_name": "Ones", "config": {}}, "beta_initializer": {"class_name": "Zeros", "config": {}}, "scale": false, "axis": 3, "gamma_constraint": null, "gamma_regularizer": null, "beta_regularizer": null, "momentum": 0.99, "center": true}, "inbound_nodes": [[["conv2d_417", 0, 0, {}]]], "name": "batch_normalization_417"}, {"class_name": "BatchNormalization", "config": {"beta_constraint": null, "gamma_initializer": {"class_name": "Ones", "config": {}}, "moving_mean_initializer": {"class_name": "Zeros", "config": {}}, "name": "batch_normalization_418", "epsilon": 0.001, "trainable": false, "moving_variance_initializer": {"class_name": "Ones", "config": {}}, "beta_initializer": {"class_name": "Zeros", "config": {}}, "scale": false, "axis": 3, "gamma_constraint": null, "gamma_regularizer": null, "beta_regularizer": null, "momentum": 0.99, "center": true}, "inbound_nodes": [[["conv2d_418", 0, 0, {}]]], "name": "batch_normalization_418"}, {"class_name": "Activation", "config": {"activation": "relu", "trainable": false, "name": "activation_412"}, "inbound_nodes": [[["batch_normalization_412", 0, 0, {}]]], "name": "activation_412"}, {"class_name": "Activation", "config": {"activation": "relu", "trainable": false, "name": "activation_414"}, "inbound_nodes": [[["batch_normalization_414", 0, 0, {}]]], "name": "activation_414"}, {"class_name": "Activation", "config": {"activation": "relu", "trainable": false, "name": "activation_417"}, "inbound_nodes": [[["batch_normalization_417", 0, 0, {}]]], "name": "activation_417"}, {"class_name": "Activation", "config": {"activation": "relu", "trainable": false, "name": "activation_418"}, "inbound_nodes": [[["batch_normalization_418", 0, 0, {}]]], "name": "activation_418"}, {"class_name": "Concatenate", "config": {"trainable": false, "name": "mixed_5b", "axis": 3}, "inbound_nodes": [[["activation_412", 0, 0, {}], ["activation_414", 0, 0, {}], ["activation_417", 0, 0, {}], ["activation_418", 0, 0, {}]]], "name": "mixed_5b"}, {"class_name": "Conv2D", "config": {"kernel_constraint": null, "kernel_initializer": {"class_name": "VarianceScaling", "config": {"distribution": "uniform", "scale": 1.0, "seed": null, "mode": "fan_avg"}}, "name": "conv2d_422", "bias_regularizer": null, "bias_constraint": null, "activation": "linear", "trainable": false, "data_format": "channels_last", "padding": "same", "strides": [1, 1], "dilation_rate": [1, 1], "kernel_regularizer": null, "filters": 32, "bias_initializer": {"class_name": "Zeros", "config": {}}, "use_bias": false, "activity_regularizer": null, "kernel_size": [1, 1]}, "inbound_nodes": [[["mixed_5b", 0, 0, {}]]], "name": "conv2d_422"}, {"class_name": "BatchNormalization", "config": {"beta_constraint": null, "gamma_initializer": {"class_name": "Ones", "config": {}}, "moving_mean_initializer": {"class_name": "Zeros", "config": {}}, "name": "batch_normalization_422", "epsilon": 0.001, "trainable": false, "moving_variance_initializer": {"class_name": "Ones", "config": {}}, "beta_initializer": {"class_name": "Zeros", "config": {}}, "scale": false, "axis": 3, "gamma_constraint": null, "gamma_regularizer": null, "beta_regularizer": null, "momentum": 0.99, "center": true}, "inbound_nodes": [[["conv2d_422", 0, 0, {}]]], "name": "batch_normalization_422"}, {"class_name": "Activation", "config": {"activation": "relu", "trainable": false, "name": "activation_422"}, "inbound_nodes": [[["batch_normalization_422", 0, 0, {}]]], "name": "activation_422"}, {"class_name": "Conv2D", "config": {"kernel_constraint": null, "kernel_initializer": {"class_name": "VarianceScaling", "config": {"distribution": "uniform", "scale": 1.0, "seed": null, "mode": "fan_avg"}}, "name": "conv2d_420", "bias_regularizer": null, "bias_constraint": null, "activation": "linear", "trainable": false, "data_format": "channels_last", "padding": "same", "strides": [1, 1], "dilation_rate": [1, 1], "kernel_regularizer": null, "filters": 32, "bias_initializer": {"class_name": "Zeros", "config": {}}, "use_bias": false, "activity_regularizer": null, "kernel_size": [1, 1]}, "inbound_nodes": [[["mixed_5b", 0, 0, {}]]], "name": "conv2d_420"}, {"class_name": "Conv2D", "config": {"kernel_constraint": null, "kernel_initializer": {"class_name": "VarianceScaling", "config": {"distribution": "uniform", "scale": 1.0, "seed": null, "mode": "fan_avg"}}, "name": "conv2d_423", "bias_regularizer": null, "bias_constraint": null, "activation": "linear", "trainable": false, "data_format": "channels_last", "padding": "same", "strides": [1, 1], "dilation_rate": [1, 1], "kernel_regularizer": null, "filters": 48, "bias_initializer": {"class_name": "Zeros", "config": {}}, "use_bias": false, "activity_regularizer": null, "kernel_size": [3, 3]}, "inbound_nodes": [[["activation_422", 0, 0, {}]]], "name": "conv2d_423"}, {"class_name": "BatchNormalization", "config": {"beta_constraint": null, "gamma_initializer": {"class_name": "Ones", "config": {}}, "moving_mean_initializer": {"class_name": "Zeros", "config": {}}, "name": "batch_normalization_420", "epsilon": 0.001, "trainable": false, "moving_variance_initializer": {"class_name": "Ones", "config": {}}, "beta_initializer": {"class_name": "Zeros", "config": {}}, "scale": false, "axis": 3, "gamma_constraint": null, "gamma_regularizer": null, "beta_regularizer": null, "momentum": 0.99, "center": true}, "inbound_nodes": [[["conv2d_420", 0, 0, {}]]], "name": "batch_normalization_420"}, {"class_name": "BatchNormalization", "config": {"beta_constraint": null, "gamma_initializer": {"class_name": "Ones", "config": {}}, "moving_mean_initializer": {"class_name": "Zeros", "config": {}}, "name": "batch_normalization_423", "epsilon": 0.001, "trainable": false, "moving_variance_initializer": {"class_name": "Ones", "config": {}}, "beta_initializer": {"class_name": "Zeros", "config": {}}, "scale": false, "axis": 3, "gamma_constraint": null, "gamma_regularizer": null, "beta_regularizer": null, "momentum": 0.99, "center": true}, "inbound_nodes": [[["conv2d_423", 0, 0, {}]]], "name": "batch_normalization_423"}, {"class_name": "Activation", "config": {"activation": "relu", "trainable": false, "name": "activation_420"}, "inbound_nodes": [[["batch_normalization_420", 0, 0, {}]]], "name": "activation_420"}, {"class_name": "Activation", "config": {"activation": "relu", "trainable": false, "name": "activation_423"}, "inbound_nodes": [[["batch_normalization_423", 0, 0, {}]]], "name": "activation_423"}, {"class_name": "Conv2D", "config": {"kernel_constraint": null, "kernel_initializer": {"class_name": "VarianceScaling", "config": {"distribution": "uniform", "scale": 1.0, "seed": null, "mode": "fan_avg"}}, "name": "conv2d_419", "bias_regularizer": null, "bias_constraint": null, "activation": "linear", "trainable": false, "data_format": "channels_last", "padding": "same", "strides": [1, 1], "dilation_rate": [1, 1], "kernel_regularizer": null, "filters": 32, "bias_initializer": {"class_name": "Zeros", "config": {}}, "use_bias": false, "activity_regularizer": null, "kernel_size": [1, 1]}, "inbound_nodes": [[["mixed_5b", 0, 0, {}]]], "name": "conv2d_419"}, {"class_name": "Conv2D", "config": {"kernel_constraint": null, "kernel_initializer": {"class_name": "VarianceScaling", "config": {"distribution": "uniform", "scale": 1.0, "seed": null, "mode": "fan_avg"}}, "name": "conv2d_421", "bias_regularizer": null, "bias_constraint": null, "activation": "linear", "trainable": false, "data_format": "channels_last", "padding": "same", "strides": [1, 1], "dilation_rate": [1, 1], "kernel_regularizer": null, "filters": 32, "bias_initializer": {"class_name": "Zeros", "config": {}}, "use_bias": false, "activity_regularizer": null, "kernel_size": [3, 3]}, "inbound_nodes": [[["activation_420", 0, 0, {}]]], "name": "conv2d_421"}, {"class_name": "Conv2D", "config": {"kernel_constraint": null, "kernel_initializer": {"class_name": "VarianceScaling", "config": {"distribution": "uniform", "scale": 1.0, "seed": null, "mode": "fan_avg"}}, "name": "conv2d_424", "bias_regularizer": null, "bias_constraint": null, "activation": "linear", "trainable": false, "data_format": "channels_last", "padding": "same", "strides": [1, 1], "dilation_rate": [1, 1], "kernel_regularizer": null, "filters": 64, "bias_initializer": {"class_name": "Zeros", "config": {}}, "use_bias": false, "activity_regularizer": null, "kernel_size": [3, 3]}, "inbound_nodes": [[["activation_423", 0, 0, {}]]], "name": "conv2d_424"}, {"class_name": "BatchNormalization", "config": {"beta_constraint": null, "gamma_initializer": {"class_name": "Ones", "config": {}}, "moving_mean_initializer": {"class_name": "Zeros", "config": {}}, "name": "batch_normalization_419", "epsilon": 0.001, "trainable": false, "moving_variance_initializer": {"class_name": "Ones", "config": {}}, "beta_initializer": {"class_name": "Zeros", "config": {}}, "scale": false, "axis": 3, "gamma_constraint": null, "gamma_regularizer": null, "beta_regularizer": null, "momentum": 0.99, "center": true}, "inbound_nodes": [[["conv2d_419", 0, 0, {}]]], "name": "batch_normalization_419"}, {"class_name": "BatchNormalization", "config": {"beta_constraint": null, "gamma_initializer": {"class_name": "Ones", "config": {}}, "moving_mean_initializer": {"class_name": "Zeros", "config": {}}, "name": "batch_normalization_421", "epsilon": 0.001, "trainable": false, "moving_variance_initializer": {"class_name": "Ones", "config": {}}, "beta_initializer": {"class_name": "Zeros", "config": {}}, "scale": false, "axis": 3, "gamma_constraint": null, "gamma_regularizer": null, "beta_regularizer": null, "momentum": 0.99, "center": true}, "inbound_nodes": [[["conv2d_421", 0, 0, {}]]], "name": "batch_normalization_421"}, {"class_name": "BatchNormalization", "config": {"beta_constraint": null, "gamma_initializer": {"class_name": "Ones", "config": {}}, "moving_mean_initializer": {"class_name": "Zeros", "config": {}}, "name": "batch_normalization_424", "epsilon": 0.001, "trainable": false, "moving_variance_initializer": {"class_name": "Ones", "config": {}}, "beta_initializer": {"class_name": "Zeros", "config": {}}, "scale": false, "axis": 3, "gamma_constraint": null, "gamma_regularizer": null, "beta_regularizer": null, "momentum": 0.99, "center": true}, "inbound_nodes": [[["conv2d_424", 0, 0, {}]]], "name": "batch_normalization_424"}, {"class_name": "Activation", "config": {"activation": "relu", "trainable": false, "name": "activation_419"}, "inbound_nodes": [[["batch_normalization_419", 0, 0, {}]]], "name": "activation_419"}, {"class_name": "Activation", "config": {"activation": "relu", "trainable": false, "name": "activation_421"}, "inbound_nodes": [[["batch_normalization_421", 0, 0, {}]]], "name": "activation_421"}, {"class_name": "Activation", "config": {"activation": "relu", "trainable": false, "name": "activation_424"}, "inbound_nodes": [[["batch_normalization_424", 0, 0, {}]]], "name": "activation_424"}, {"class_name": "Concatenate", "config": {"trainable": false, "name": "block35_1_mixed", "axis": 3}, "inbound_nodes": [[["activation_419", 0, 0, {}], ["activation_421", 0, 0, {}], ["activation_424", 0, 0, {}]]], "name": "block35_1_mixed"}, {"class_name": "Conv2D", "config": {"kernel_constraint": null, "kernel_initializer": {"class_name": "VarianceScaling", "config": {"distribution": "uniform", "scale": 1.0, "seed": null, "mode": "fan_avg"}}, "name": "block35_1_conv", "bias_regularizer": null, "bias_constraint": null, "activation": "linear", "trainable": false, "data_format": "channels_last", "padding": "same", "strides": [1, 1], "dilation_rate": [1, 1], "kernel_regularizer": null, "filters": 320, "bias_initializer": {"class_name": "Zeros", "config": {}}, "use_bias": true, "activity_regularizer": null, "kernel_size": [1, 1]}, "inbound_nodes": [[["block35_1_mixed", 0, 0, {}]]], "name": "block35_1_conv"}, {"class_name": "Lambda", "config": {"function": ["YwIAAAACAAAAAwAAAFNgAQBzFAAAAHwAAGQBABl8AABkAgAZfAEAFBdTKAMAAABOaQAAAABpAQAA\nACgAAAAAKAIAAAB0BgAAAGlucHV0c3QFAAAAc2NhbGUoAAAAACgAAAAAc1AAAAAvdXNyL2xvY2Fs\nL2xpYi9weXRob24yLjcvZGlzdC1wYWNrYWdlcy9rZXJhc19hcHBsaWNhdGlvbnMvaW5jZXB0aW9u\nX3Jlc25ldF92Mi5weXQIAAAAPGxhbWJkYT6qAAAAdAAAAAA=\n", null, null], "name": "block35_1", "trainable": false, "function_type": "lambda", "arguments": {"scale": 0.17}, "output_shape": [15, 15, 320], "output_shape_type": "raw"}, "inbound_nodes": [[["mixed_5b", 0, 0, {}], ["block35_1_conv", 0, 0, {}]]], "name": "block35_1"}, {"class_name": "Activation", "config": {"activation": "relu", "trainable": false, "name": "block35_1_ac"}, "inbound_nodes": [[["block35_1", 0, 0, {}]]], "name": "block35_1_ac"}, {"class_name": "Conv2D", "config": {"kernel_constraint": null, "kernel_initializer": {"class_name": "VarianceScaling", "config": {"distribution": "uniform", "scale": 1.0, "seed": null, "mode": "fan_avg"}}, "name": "conv2d_428", "bias_regularizer": null, "bias_constraint": null, "activation": "linear", "trainable": false, "data_format": "channels_last", "padding": "same", "strides": [1, 1], "dilation_rate": [1, 1], "kernel_regularizer": null, "filters": 32, "bias_initializer": {"class_name": "Zeros", "config": {}}, "use_bias": false, "activity_regularizer": null, "kernel_size": [1, 1]}, "inbound_nodes": [[["block35_1_ac", 0, 0, {}]]], "name": "conv2d_428"}, {"class_name": "BatchNormalization", "config": {"beta_constraint": null, "gamma_initializer": {"class_name": "Ones", "config": {}}, "moving_mean_initializer": {"class_name": "Zeros", "config": {}}, "name": "batch_normalization_428", "epsilon": 0.001, "trainable": false, "moving_variance_initializer": {"class_name": "Ones", "config": {}}, "beta_initializer": {"class_name": "Zeros", "config": {}}, "scale": false, "axis": 3, "gamma_constraint": null, "gamma_regularizer": null, "beta_regularizer": null, "momentum": 0.99, "center": true}, "inbound_nodes": [[["conv2d_428", 0, 0, {}]]], "name": "batch_normalization_428"}, {"class_name": "Activation", "config": {"activation": "relu", "trainable": false, "name": "activation_428"}, "inbound_nodes": [[["batch_normalization_428", 0, 0, {}]]], "name": "activation_428"}, {"class_name": "Conv2D", "config": {"kernel_constraint": null, "kernel_initializer": {"class_name": "VarianceScaling", "config": {"distribution": "uniform", "scale": 1.0, "seed": null, "mode": "fan_avg"}}, "name": "conv2d_426", "bias_regularizer": null, "bias_constraint": null, "activation": "linear", "trainable": false, "data_format": "channels_last", "padding": "same", "strides": [1, 1], "dilation_rate": [1, 1], "kernel_regularizer": null, "filters": 32, "bias_initializer": {"class_name": "Zeros", "config": {}}, "use_bias": false, "activity_regularizer": null, "kernel_size": [1, 1]}, "inbound_nodes": [[["block35_1_ac", 0, 0, {}]]], "name": "conv2d_426"}, {"class_name": "Conv2D", "config": {"kernel_constraint": null, "kernel_initializer": {"class_name": "VarianceScaling", "config": {"distribution": "uniform", "scale": 1.0, "seed": null, "mode": "fan_avg"}}, "name": "conv2d_429", "bias_regularizer": null, "bias_constraint": null, "activation": "linear", "trainable": false, "data_format": "channels_last", "padding": "same", "strides": [1, 1], "dilation_rate": [1, 1], "kernel_regularizer": null, "filters": 48, "bias_initializer": {"class_name": "Zeros", "config": {}}, "use_bias": false, "activity_regularizer": null, "kernel_size": [3, 3]}, "inbound_nodes": [[["activation_428", 0, 0, {}]]], "name": "conv2d_429"}, {"class_name": "BatchNormalization", "config": {"beta_constraint": null, "gamma_initializer": {"class_name": "Ones", "config": {}}, "moving_mean_initializer": {"class_name": "Zeros", "config": {}}, "name": "batch_normalization_426", "epsilon": 0.001, "trainable": false, "moving_variance_initializer": {"class_name": "Ones", "config": {}}, "beta_initializer": {"class_name": "Zeros", "config": {}}, "scale": false, "axis": 3, "gamma_constraint": null, "gamma_regularizer": null, "beta_regularizer": null, "momentum": 0.99, "center": true}, "inbound_nodes": [[["conv2d_426", 0, 0, {}]]], "name": "batch_normalization_426"}, {"class_name": "BatchNormalization", "config": {"beta_constraint": null, "gamma_initializer": {"class_name": "Ones", "config": {}}, "moving_mean_initializer": {"class_name": "Zeros", "config": {}}, "name": "batch_normalization_429", "epsilon": 0.001, "trainable": false, "moving_variance_initializer": {"class_name": "Ones", "config": {}}, "beta_initializer": {"class_name": "Zeros", "config": {}}, "scale": false, "axis": 3, "gamma_constraint": null, "gamma_regularizer": null, "beta_regularizer": null, "momentum": 0.99, "center": true}, "inbound_nodes": [[["conv2d_429", 0, 0, {}]]], "name": "batch_normalization_429"}, {"class_name": "Activation", "config": {"activation": "relu", "trainable": false, "name": "activation_426"}, "inbound_nodes": [[["batch_normalization_426", 0, 0, {}]]], "name": "activation_426"}, {"class_name": "Activation", "config": {"activation": "relu", "trainable": false, "name": "activation_429"}, "inbound_nodes": [[["batch_normalization_429", 0, 0, {}]]], "name": "activation_429"}, {"class_name": "Conv2D", "config": {"kernel_constraint": null, "kernel_initializer": {"class_name": "VarianceScaling", "config": {"distribution": "uniform", "scale": 1.0, "seed": null, "mode": "fan_avg"}}, "name": "conv2d_425", "bias_regularizer": null, "bias_constraint": null, "activation": "linear", "trainable": false, "data_format": "channels_last", "padding": "same", "strides": [1, 1], "dilation_rate": [1, 1], "kernel_regularizer": null, "filters": 32, "bias_initializer": {"class_name": "Zeros", "config": {}}, "use_bias": false, "activity_regularizer": null, "kernel_size": [1, 1]}, "inbound_nodes": [[["block35_1_ac", 0, 0, {}]]], "name": "conv2d_425"}, {"class_name": "Conv2D", "config": {"kernel_constraint": null, "kernel_initializer": {"class_name": "VarianceScaling", "config": {"distribution": "uniform", "scale": 1.0, "seed": null, "mode": "fan_avg"}}, "name": "conv2d_427", "bias_regularizer": null, "bias_constraint": null, "activation": "linear", "trainable": false, "data_format": "channels_last", "padding": "same", "strides": [1, 1], "dilation_rate": [1, 1], "kernel_regularizer": null, "filters": 32, "bias_initializer": {"class_name": "Zeros", "config": {}}, "use_bias": false, "activity_regularizer": null, "kernel_size": [3, 3]}, "inbound_nodes": [[["activation_426", 0, 0, {}]]], "name": "conv2d_427"}, {"class_name": "Conv2D", "config": {"kernel_constraint": null, "kernel_initializer": {"class_name": "VarianceScaling", "config": {"distribution": "uniform", "scale": 1.0, "seed": null, "mode": "fan_avg"}}, "name": "conv2d_430", "bias_regularizer": null, "bias_constraint": null, "activation": "linear", "trainable": false, "data_format": "channels_last", "padding": "same", "strides": [1, 1], "dilation_rate": [1, 1], "kernel_regularizer": null, "filters": 64, "bias_initializer": {"class_name": "Zeros", "config": {}}, "use_bias": false, "activity_regularizer": null, "kernel_size": [3, 3]}, "inbound_nodes": [[["activation_429", 0, 0, {}]]], "name": "conv2d_430"}, {"class_name": "BatchNormalization", "config": {"beta_constraint": null, "gamma_initializer": {"class_name": "Ones", "config": {}}, "moving_mean_initializer": {"class_name": "Zeros", "config": {}}, "name": "batch_normalization_425", "epsilon": 0.001, "trainable": false, "moving_variance_initializer": {"class_name": "Ones", "config": {}}, "beta_initializer": {"class_name": "Zeros", "config": {}}, "scale": false, "axis": 3, "gamma_constraint": null, "gamma_regularizer": null, "beta_regularizer": null, "momentum": 0.99, "center": true}, "inbound_nodes": [[["conv2d_425", 0, 0, {}]]], "name": "batch_normalization_425"}, {"class_name": "BatchNormalization", "config": {"beta_constraint": null, "gamma_initializer": {"class_name": "Ones", "config": {}}, "moving_mean_initializer": {"class_name": "Zeros", "config": {}}, "name": "batch_normalization_427", "epsilon": 0.001, "trainable": false, "moving_variance_initializer": {"class_name": "Ones", "config": {}}, "beta_initializer": {"class_name": "Zeros", "config": {}}, "scale": false, "axis": 3, "gamma_constraint": null, "gamma_regularizer": null, "beta_regularizer": null, "momentum": 0.99, "center": true}, "inbound_nodes": [[["conv2d_427", 0, 0, {}]]], "name": "batch_normalization_427"}, {"class_name": "BatchNormalization", "config": {"beta_constraint": null, "gamma_initializer": {"class_name": "Ones", "config": {}}, "moving_mean_initializer": {"class_name": "Zeros", "config": {}}, "name": "batch_normalization_430", "epsilon": 0.001, "trainable": false, "moving_variance_initializer": {"class_name": "Ones", "config": {}}, "beta_initializer": {"class_name": "Zeros", "config": {}}, "scale": false, "axis": 3, "gamma_constraint": null, "gamma_regularizer": null, "beta_regularizer": null, "momentum": 0.99, "center": true}, "inbound_nodes": [[["conv2d_430", 0, 0, {}]]], "name": "batch_normalization_430"}, {"class_name": "Activation", "config": {"activation": "relu", "trainable": false, "name": "activation_425"}, "inbound_nodes": [[["batch_normalization_425", 0, 0, {}]]], "name": "activation_425"}, {"class_name": "Activation", "config": {"activation": "relu", "trainable": false, "name": "activation_427"}, "inbound_nodes": [[["batch_normalization_427", 0, 0, {}]]], "name": "activation_427"}, {"class_name": "Activation", "config": {"activation": "relu", "trainable": false, "name": "activation_430"}, "inbound_nodes": [[["batch_normalization_430", 0, 0, {}]]], "name": "activation_430"}, {"class_name": "Concatenate", "config": {"trainable": false, "name": "block35_2_mixed", "axis": 3}, "inbound_nodes": [[["activation_425", 0, 0, {}], ["activation_427", 0, 0, {}], ["activation_430", 0, 0, {}]]], "name": "block35_2_mixed"}, {"class_name": "Conv2D", "config": {"kernel_constraint": null, "kernel_initializer": {"class_name": "VarianceScaling", "config": {"distribution": "uniform", "scale": 1.0, "seed": null, "mode": "fan_avg"}}, "name": "block35_2_conv", "bias_regularizer": null, "bias_constraint": null, "activation": "linear", "trainable": false, "data_format": "channels_last", "padding": "same", "strides": [1, 1], "dilation_rate": [1, 1], "kernel_regularizer": null, "filters": 320, "bias_initializer": {"class_name": "Zeros", "config": {}}, "use_bias": true, "activity_regularizer": null, "kernel_size": [1, 1]}, "inbound_nodes": [[["block35_2_mixed", 0, 0, {}]]], "name": "block35_2_conv"}, {"class_name": "Lambda", "config": {"function": ["YwIAAAACAAAAAwAAAFNgAQBzFAAAAHwAAGQBABl8AABkAgAZfAEAFBdTKAMAAABOaQAAAABpAQAA\nACgAAAAAKAIAAAB0BgAAAGlucHV0c3QFAAAAc2NhbGUoAAAAACgAAAAAc1AAAAAvdXNyL2xvY2Fs\nL2xpYi9weXRob24yLjcvZGlzdC1wYWNrYWdlcy9rZXJhc19hcHBsaWNhdGlvbnMvaW5jZXB0aW9u\nX3Jlc25ldF92Mi5weXQIAAAAPGxhbWJkYT6qAAAAdAAAAAA=\n", null, null], "name": "block35_2", "trainable": false, "function_type": "lambda", "arguments": {"scale": 0.17}, "output_shape": [15, 15, 320], "output_shape_type": "raw"}, "inbound_nodes": [[["block35_1_ac", 0, 0, {}], ["block35_2_conv", 0, 0, {}]]], "name": "block35_2"}, {"class_name": "Activation", "config": {"activation": "relu", "trainable": false, "name": "block35_2_ac"}, "inbound_nodes": [[["block35_2", 0, 0, {}]]], "name": "block35_2_ac"}, {"class_name": "Conv2D", "config": {"kernel_constraint": null, "kernel_initializer": {"class_name": "VarianceScaling", "config": {"distribution": "uniform", "scale": 1.0, "seed": null, "mode": "fan_avg"}}, "name": "conv2d_434", "bias_regularizer": null, "bias_constraint": null, "activation": "linear", "trainable": false, "data_format": "channels_last", "padding": "same", "strides": [1, 1], "dilation_rate": [1, 1], "kernel_regularizer": null, "filters": 32, "bias_initializer": {"class_name": "Zeros", "config": {}}, "use_bias": false, "activity_regularizer": null, "kernel_size": [1, 1]}, "inbound_nodes": [[["block35_2_ac", 0, 0, {}]]], "name": "conv2d_434"}, {"class_name": "BatchNormalization", "config": {"beta_constraint": null, "gamma_initializer": {"class_name": "Ones", "config": {}}, "moving_mean_initializer": {"class_name": "Zeros", "config": {}}, "name": "batch_normalization_434", "epsilon": 0.001, "trainable": false, "moving_variance_initializer": {"class_name": "Ones", "config": {}}, "beta_initializer": {"class_name": "Zeros", "config": {}}, "scale": false, "axis": 3, "gamma_constraint": null, "gamma_regularizer": null, "beta_regularizer": null, "momentum": 0.99, "center": true}, "inbound_nodes": [[["conv2d_434", 0, 0, {}]]], "name": "batch_normalization_434"}, {"class_name": "Activation", "config": {"activation": "relu", "trainable": false, "name": "activation_434"}, "inbound_nodes": [[["batch_normalization_434", 0, 0, {}]]], "name": "activation_434"}, {"class_name": "Conv2D", "config": {"kernel_constraint": null, "kernel_initializer": {"class_name": "VarianceScaling", "config": {"distribution": "uniform", "scale": 1.0, "seed": null, "mode": "fan_avg"}}, "name": "conv2d_432", "bias_regularizer": null, "bias_constraint": null, "activation": "linear", "trainable": false, "data_format": "channels_last", "padding": "same", "strides": [1, 1], "dilation_rate": [1, 1], "kernel_regularizer": null, "filters": 32, "bias_initializer": {"class_name": "Zeros", "config": {}}, "use_bias": false, "activity_regularizer": null, "kernel_size": [1, 1]}, "inbound_nodes": [[["block35_2_ac", 0, 0, {}]]], "name": "conv2d_432"}, {"class_name": "Conv2D", "config": {"kernel_constraint": null, "kernel_initializer": {"class_name": "VarianceScaling", "config": {"distribution": "uniform", "scale": 1.0, "seed": null, "mode": "fan_avg"}}, "name": "conv2d_435", "bias_regularizer": null, "bias_constraint": null, "activation": "linear", "trainable": false, "data_format": "channels_last", "padding": "same", "strides": [1, 1], "dilation_rate": [1, 1], "kernel_regularizer": null, "filters": 48, "bias_initializer": {"class_name": "Zeros", "config": {}}, "use_bias": false, "activity_regularizer": null, "kernel_size": [3, 3]}, "inbound_nodes": [[["activation_434", 0, 0, {}]]], "name": "conv2d_435"}, {"class_name": "BatchNormalization", "config": {"beta_constraint": null, "gamma_initializer": {"class_name": "Ones", "config": {}}, "moving_mean_initializer": {"class_name": "Zeros", "config": {}}, "name": "batch_normalization_432", "epsilon": 0.001, "trainable": false, "moving_variance_initializer": {"class_name": "Ones", "config": {}}, "beta_initializer": {"class_name": "Zeros", "config": {}}, "scale": false, "axis": 3, "gamma_constraint": null, "gamma_regularizer": null, "beta_regularizer": null, "momentum": 0.99, "center": true}, "inbound_nodes": [[["conv2d_432", 0, 0, {}]]], "name": "batch_normalization_432"}, {"class_name": "BatchNormalization", "config": {"beta_constraint": null, "gamma_initializer": {"class_name": "Ones", "config": {}}, "moving_mean_initializer": {"class_name": "Zeros", "config": {}}, "name": "batch_normalization_435", "epsilon": 0.001, "trainable": false, "moving_variance_initializer": {"class_name": "Ones", "config": {}}, "beta_initializer": {"class_name": "Zeros", "config": {}}, "scale": false, "axis": 3, "gamma_constraint": null, "gamma_regularizer": null, "beta_regularizer": null, "momentum": 0.99, "center": true}, "inbound_nodes": [[["conv2d_435", 0, 0, {}]]], "name": "batch_normalization_435"}, {"class_name": "Activation", "config": {"activation": "relu", "trainable": false, "name": "activation_432"}, "inbound_nodes": [[["batch_normalization_432", 0, 0, {}]]], "name": "activation_432"}, {"class_name": "Activation", "config": {"activation": "relu", "trainable": false, "name": "activation_435"}, "inbound_nodes": [[["batch_normalization_435", 0, 0, {}]]], "name": "activation_435"}, {"class_name": "Conv2D", "config": {"kernel_constraint": null, "kernel_initializer": {"class_name": "VarianceScaling", "config": {"distribution": "uniform", "scale": 1.0, "seed": null, "mode": "fan_avg"}}, "name": "conv2d_431", "bias_regularizer": null, "bias_constraint": null, "activation": "linear", "trainable": false, "data_format": "channels_last", "padding": "same", "strides": [1, 1], "dilation_rate": [1, 1], "kernel_regularizer": null, "filters": 32, "bias_initializer": {"class_name": "Zeros", "config": {}}, "use_bias": false, "activity_regularizer": null, "kernel_size": [1, 1]}, "inbound_nodes": [[["block35_2_ac", 0, 0, {}]]], "name": "conv2d_431"}, {"class_name": "Conv2D", "config": {"kernel_constraint": null, "kernel_initializer": {"class_name": "VarianceScaling", "config": {"distribution": "uniform", "scale": 1.0, "seed": null, "mode": "fan_avg"}}, "name": "conv2d_433", "bias_regularizer": null, "bias_constraint": null, "activation": "linear", "trainable": false, "data_format": "channels_last", "padding": "same", "strides": [1, 1], "dilation_rate": [1, 1], "kernel_regularizer": null, "filters": 32, "bias_initializer": {"class_name": "Zeros", "config": {}}, "use_bias": false, "activity_regularizer": null, "kernel_size": [3, 3]}, "inbound_nodes": [[["activation_432", 0, 0, {}]]], "name": "conv2d_433"}, {"class_name": "Conv2D", "config": {"kernel_constraint": null, "kernel_initializer": {"class_name": "VarianceScaling", "config": {"distribution": "uniform", "scale": 1.0, "seed": null, "mode": "fan_avg"}}, "name": "conv2d_436", "bias_regularizer": null, "bias_constraint": null, "activation": "linear", "trainable": false, "data_format": "channels_last", "padding": "same", "strides": [1, 1], "dilation_rate": [1, 1], "kernel_regularizer": null, "filters": 64, "bias_initializer": {"class_name": "Zeros", "config": {}}, "use_bias": false, "activity_regularizer": null, "kernel_size": [3, 3]}, "inbound_nodes": [[["activation_435", 0, 0, {}]]], "name": "conv2d_436"}, {"class_name": "BatchNormalization", "config": {"beta_constraint": null, "gamma_initializer": {"class_name": "Ones", "config": {}}, "moving_mean_initializer": {"class_name": "Zeros", "config": {}}, "name": "batch_normalization_431", "epsilon": 0.001, "trainable": false, "moving_variance_initializer": {"class_name": "Ones", "config": {}}, "beta_initializer": {"class_name": "Zeros", "config": {}}, "scale": false, "axis": 3, "gamma_constraint": null, "gamma_regularizer": null, "beta_regularizer": null, "momentum": 0.99, "center": true}, "inbound_nodes": [[["conv2d_431", 0, 0, {}]]], "name": "batch_normalization_431"}, {"class_name": "BatchNormalization", "config": {"beta_constraint": null, "gamma_initializer": {"class_name": "Ones", "config": {}}, "moving_mean_initializer": {"class_name": "Zeros", "config": {}}, "name": "batch_normalization_433", "epsilon": 0.001, "trainable": false, "moving_variance_initializer": {"class_name": "Ones", "config": {}}, "beta_initializer": {"class_name": "Zeros", "config": {}}, "scale": false, "axis": 3, "gamma_constraint": null, "gamma_regularizer": null, "beta_regularizer": null, "momentum": 0.99, "center": true}, "inbound_nodes": [[["conv2d_433", 0, 0, {}]]], "name": "batch_normalization_433"}, {"class_name": "BatchNormalization", "config": {"beta_constraint": null, "gamma_initializer": {"class_name": "Ones", "config": {}}, "moving_mean_initializer": {"class_name": "Zeros", "config": {}}, "name": "batch_normalization_436", "epsilon": 0.001, "trainable": false, "moving_variance_initializer": {"class_name": "Ones", "config": {}}, "beta_initializer": {"class_name": "Zeros", "config": {}}, "scale": false, "axis": 3, "gamma_constraint": null, "gamma_regularizer": null, "beta_regularizer": null, "momentum": 0.99, "center": true}, "inbound_nodes": [[["conv2d_436", 0, 0, {}]]], "name": "batch_normalization_436"}, {"class_name": "Activation", "config": {"activation": "relu", "trainable": false, "name": "activation_431"}, "inbound_nodes": [[["batch_normalization_431", 0, 0, {}]]], "name": "activation_431"}, {"class_name": "Activation", "config": {"activation": "relu", "trainable": false, "name": "activation_433"}, "inbound_nodes": [[["batch_normalization_433", 0, 0, {}]]], "name": "activation_433"}, {"class_name": "Activation", "config": {"activation": "relu", "trainable": false, "name": "activation_436"}, "inbound_nodes": [[["batch_normalization_436", 0, 0, {}]]], "name": "activation_436"}, {"class_name": "Concatenate", "config": {"trainable": false, "name": "block35_3_mixed", "axis": 3}, "inbound_nodes": [[["activation_431", 0, 0, {}], ["activation_433", 0, 0, {}], ["activation_436", 0, 0, {}]]], "name": "block35_3_mixed"}, {"class_name": "Conv2D", "config": {"kernel_constraint": null, "kernel_initializer": {"class_name": "VarianceScaling", "config": {"distribution": "uniform", "scale": 1.0, "seed": null, "mode": "fan_avg"}}, "name": "block35_3_conv", "bias_regularizer": null, "bias_constraint": null, "activation": "linear", "trainable": false, "data_format": "channels_last", "padding": "same", "strides": [1, 1], "dilation_rate": [1, 1], "kernel_regularizer": null, "filters": 320, "bias_initializer": {"class_name": "Zeros", "config": {}}, "use_bias": true, "activity_regularizer": null, "kernel_size": [1, 1]}, "inbound_nodes": [[["block35_3_mixed", 0, 0, {}]]], "name": "block35_3_conv"}, {"class_name": "Lambda", "config": {"function": ["YwIAAAACAAAAAwAAAFNgAQBzFAAAAHwAAGQBABl8AABkAgAZfAEAFBdTKAMAAABOaQAAAABpAQAA\nACgAAAAAKAIAAAB0BgAAAGlucHV0c3QFAAAAc2NhbGUoAAAAACgAAAAAc1AAAAAvdXNyL2xvY2Fs\nL2xpYi9weXRob24yLjcvZGlzdC1wYWNrYWdlcy9rZXJhc19hcHBsaWNhdGlvbnMvaW5jZXB0aW9u\nX3Jlc25ldF92Mi5weXQIAAAAPGxhbWJkYT6qAAAAdAAAAAA=\n", null, null], "name": "block35_3", "trainable": false, "function_type": "lambda", "arguments": {"scale": 0.17}, "output_shape": [15, 15, 320], "output_shape_type": "raw"}, "inbound_nodes": [[["block35_2_ac", 0, 0, {}], ["block35_3_conv", 0, 0, {}]]], "name": "block35_3"}, {"class_name": "Activation", "config": {"activation": "relu", "trainable": false, "name": "block35_3_ac"}, "inbound_nodes": [[["block35_3", 0, 0, {}]]], "name": "block35_3_ac"}, {"class_name": "Conv2D", "config": {"kernel_constraint": null, "kernel_initializer": {"class_name": "VarianceScaling", "config": {"distribution": "uniform", "scale": 1.0, "seed": null, "mode": "fan_avg"}}, "name": "conv2d_440", "bias_regularizer": null, "bias_constraint": null, "activation": "linear", "trainable": false, "data_format": "channels_last", "padding": "same", "strides": [1, 1], "dilation_rate": [1, 1], "kernel_regularizer": null, "filters": 32, "bias_initializer": {"class_name": "Zeros", "config": {}}, "use_bias": false, "activity_regularizer": null, "kernel_size": [1, 1]}, "inbound_nodes": [[["block35_3_ac", 0, 0, {}]]], "name": "conv2d_440"}, {"class_name": "BatchNormalization", "config": {"beta_constraint": null, "gamma_initializer": {"class_name": "Ones", "config": {}}, "moving_mean_initializer": {"class_name": "Zeros", "config": {}}, "name": "batch_normalization_440", "epsilon": 0.001, "trainable": false, "moving_variance_initializer": {"class_name": "Ones", "config": {}}, "beta_initializer": {"class_name": "Zeros", "config": {}}, "scale": false, "axis": 3, "gamma_constraint": null, "gamma_regularizer": null, "beta_regularizer": null, "momentum": 0.99, "center": true}, "inbound_nodes": [[["conv2d_440", 0, 0, {}]]], "name": "batch_normalization_440"}, {"class_name": "Activation", "config": {"activation": "relu", "trainable": false, "name": "activation_440"}, "inbound_nodes": [[["batch_normalization_440", 0, 0, {}]]], "name": "activation_440"}, {"class_name": "Conv2D", "config": {"kernel_constraint": null, "kernel_initializer": {"class_name": "VarianceScaling", "config": {"distribution": "uniform", "scale": 1.0, "seed": null, "mode": "fan_avg"}}, "name": "conv2d_438", "bias_regularizer": null, "bias_constraint": null, "activation": "linear", "trainable": false, "data_format": "channels_last", "padding": "same", "strides": [1, 1], "dilation_rate": [1, 1], "kernel_regularizer": null, "filters": 32, "bias_initializer": {"class_name": "Zeros", "config": {}}, "use_bias": false, "activity_regularizer": null, "kernel_size": [1, 1]}, "inbound_nodes": [[["block35_3_ac", 0, 0, {}]]], "name": "conv2d_438"}, {"class_name": "Conv2D", "config": {"kernel_constraint": null, "kernel_initializer": {"class_name": "VarianceScaling", "config": {"distribution": "uniform", "scale": 1.0, "seed": null, "mode": "fan_avg"}}, "name": "conv2d_441", "bias_regularizer": null, "bias_constraint": null, "activation": "linear", "trainable": false, "data_format": "channels_last", "padding": "same", "strides": [1, 1], "dilation_rate": [1, 1], "kernel_regularizer": null, "filters": 48, "bias_initializer": {"class_name": "Zeros", "config": {}}, "use_bias": false, "activity_regularizer": null, "kernel_size": [3, 3]}, "inbound_nodes": [[["activation_440", 0, 0, {}]]], "name": "conv2d_441"}, {"class_name": "BatchNormalization", "config": {"beta_constraint": null, "gamma_initializer": {"class_name": "Ones", "config": {}}, "moving_mean_initializer": {"class_name": "Zeros", "config": {}}, "name": "batch_normalization_438", "epsilon": 0.001, "trainable": false, "moving_variance_initializer": {"class_name": "Ones", "config": {}}, "beta_initializer": {"class_name": "Zeros", "config": {}}, "scale": false, "axis": 3, "gamma_constraint": null, "gamma_regularizer": null, "beta_regularizer": null, "momentum": 0.99, "center": true}, "inbound_nodes": [[["conv2d_438", 0, 0, {}]]], "name": "batch_normalization_438"}, {"class_name": "BatchNormalization", "config": {"beta_constraint": null, "gamma_initializer": {"class_name": "Ones", "config": {}}, "moving_mean_initializer": {"class_name": "Zeros", "config": {}}, "name": "batch_normalization_441", "epsilon": 0.001, "trainable": false, "moving_variance_initializer": {"class_name": "Ones", "config": {}}, "beta_initializer": {"class_name": "Zeros", "config": {}}, "scale": false, "axis": 3, "gamma_constraint": null, "gamma_regularizer": null, "beta_regularizer": null, "momentum": 0.99, "center": true}, "inbound_nodes": [[["conv2d_441", 0, 0, {}]]], "name": "batch_normalization_441"}, {"class_name": "Activation", "config": {"activation": "relu", "trainable": false, "name": "activation_438"}, "inbound_nodes": [[["batch_normalization_438", 0, 0, {}]]], "name": "activation_438"}, {"class_name": "Activation", "config": {"activation": "relu", "trainable": false, "name": "activation_441"}, "inbound_nodes": [[["batch_normalization_441", 0, 0, {}]]], "name": "activation_441"}, {"class_name": "Conv2D", "config": {"kernel_constraint": null, "kernel_initializer": {"class_name": "VarianceScaling", "config": {"distribution": "uniform", "scale": 1.0, "seed": null, "mode": "fan_avg"}}, "name": "conv2d_437", "bias_regularizer": null, "bias_constraint": null, "activation": "linear", "trainable": false, "data_format": "channels_last", "padding": "same", "strides": [1, 1], "dilation_rate": [1, 1], "kernel_regularizer": null, "filters": 32, "bias_initializer": {"class_name": "Zeros", "config": {}}, "use_bias": false, "activity_regularizer": null, "kernel_size": [1, 1]}, "inbound_nodes": [[["block35_3_ac", 0, 0, {}]]], "name": "conv2d_437"}, {"class_name": "Conv2D", "config": {"kernel_constraint": null, "kernel_initializer": {"class_name": "VarianceScaling", "config": {"distribution": "uniform", "scale": 1.0, "seed": null, "mode": "fan_avg"}}, "name": "conv2d_439", "bias_regularizer": null, "bias_constraint": null, "activation": "linear", "trainable": false, "data_format": "channels_last", "padding": "same", "strides": [1, 1], "dilation_rate": [1, 1], "kernel_regularizer": null, "filters": 32, "bias_initializer": {"class_name": "Zeros", "config": {}}, "use_bias": false, "activity_regularizer": null, "kernel_size": [3, 3]}, "inbound_nodes": [[["activation_438", 0, 0, {}]]], "name": "conv2d_439"}, {"class_name": "Conv2D", "config": {"kernel_constraint": null, "kernel_initializer": {"class_name": "VarianceScaling", "config": {"distribution": "uniform", "scale": 1.0, "seed": null, "mode": "fan_avg"}}, "name": "conv2d_442", "bias_regularizer": null, "bias_constraint": null, "activation": "linear", "trainable": false, "data_format": "channels_last", "padding": "same", "strides": [1, 1], "dilation_rate": [1, 1], "kernel_regularizer": null, "filters": 64, "bias_initializer": {"class_name": "Zeros", "config": {}}, "use_bias": false, "activity_regularizer": null, "kernel_size": [3, 3]}, "inbound_nodes": [[["activation_441", 0, 0, {}]]], "name": "conv2d_442"}, {"class_name": "BatchNormalization", "config": {"beta_constraint": null, "gamma_initializer": {"class_name": "Ones", "config": {}}, "moving_mean_initializer": {"class_name": "Zeros", "config": {}}, "name": "batch_normalization_437", "epsilon": 0.001, "trainable": false, "moving_variance_initializer": {"class_name": "Ones", "config": {}}, "beta_initializer": {"class_name": "Zeros", "config": {}}, "scale": false, "axis": 3, "gamma_constraint": null, "gamma_regularizer": null, "beta_regularizer": null, "momentum": 0.99, "center": true}, "inbound_nodes": [[["conv2d_437", 0, 0, {}]]], "name": "batch_normalization_437"}, {"class_name": "BatchNormalization", "config": {"beta_constraint": null, "gamma_initializer": {"class_name": "Ones", "config": {}}, "moving_mean_initializer": {"class_name": "Zeros", "config": {}}, "name": "batch_normalization_439", "epsilon": 0.001, "trainable": false, "moving_variance_initializer": {"class_name": "Ones", "config": {}}, "beta_initializer": {"class_name": "Zeros", "config": {}}, "scale": false, "axis": 3, "gamma_constraint": null, "gamma_regularizer": null, "beta_regularizer": null, "momentum": 0.99, "center": true}, "inbound_nodes": [[["conv2d_439", 0, 0, {}]]], "name": "batch_normalization_439"}, {"class_name": "BatchNormalization", "config": {"beta_constraint": null, "gamma_initializer": {"class_name": "Ones", "config": {}}, "moving_mean_initializer": {"class_name": "Zeros", "config": {}}, "name": "batch_normalization_442", "epsilon": 0.001, "trainable": false, "moving_variance_initializer": {"class_name": "Ones", "config": {}}, "beta_initializer": {"class_name": "Zeros", "config": {}}, "scale": false, "axis": 3, "gamma_constraint": null, "gamma_regularizer": null, "beta_regularizer": null, "momentum": 0.99, "center": true}, "inbound_nodes": [[["conv2d_442", 0, 0, {}]]], "name": "batch_normalization_442"}, {"class_name": "Activation", "config": {"activation": "relu", "trainable": false, "name": "activation_437"}, "inbound_nodes": [[["batch_normalization_437", 0, 0, {}]]], "name": "activation_437"}, {"class_name": "Activation", "config": {"activation": "relu", "trainable": false, "name": "activation_439"}, "inbound_nodes": [[["batch_normalization_439", 0, 0, {}]]], "name": "activation_439"}, {"class_name": "Activation", "config": {"activation": "relu", "trainable": false, "name": "activation_442"}, "inbound_nodes": [[["batch_normalization_442", 0, 0, {}]]], "name": "activation_442"}, {"class_name": "Concatenate", "config": {"trainable": false, "name": "block35_4_mixed", "axis": 3}, "inbound_nodes": [[["activation_437", 0, 0, {}], ["activation_439", 0, 0, {}], ["activation_442", 0, 0, {}]]], "name": "block35_4_mixed"}, {"class_name": "Conv2D", "config": {"kernel_constraint": null, "kernel_initializer": {"class_name": "VarianceScaling", "config": {"distribution": "uniform", "scale": 1.0, "seed": null, "mode": "fan_avg"}}, "name": "block35_4_conv", "bias_regularizer": null, "bias_constraint": null, "activation": "linear", "trainable": false, "data_format": "channels_last", "padding": "same", "strides": [1, 1], "dilation_rate": [1, 1], "kernel_regularizer": null, "filters": 320, "bias_initializer": {"class_name": "Zeros", "config": {}}, "use_bias": true, "activity_regularizer": null, "kernel_size": [1, 1]}, "inbound_nodes": [[["block35_4_mixed", 0, 0, {}]]], "name": "block35_4_conv"}, {"class_name": "Lambda", "config": {"function": ["YwIAAAACAAAAAwAAAFNgAQBzFAAAAHwAAGQBABl8AABkAgAZfAEAFBdTKAMAAABOaQAAAABpAQAA\nACgAAAAAKAIAAAB0BgAAAGlucHV0c3QFAAAAc2NhbGUoAAAAACgAAAAAc1AAAAAvdXNyL2xvY2Fs\nL2xpYi9weXRob24yLjcvZGlzdC1wYWNrYWdlcy9rZXJhc19hcHBsaWNhdGlvbnMvaW5jZXB0aW9u\nX3Jlc25ldF92Mi5weXQIAAAAPGxhbWJkYT6qAAAAdAAAAAA=\n", null, null], "name": "block35_4", "trainable": false, "function_type": "lambda", "arguments": {"scale": 0.17}, "output_shape": [15, 15, 320], "output_shape_type": "raw"}, "inbound_nodes": [[["block35_3_ac", 0, 0, {}], ["block35_4_conv", 0, 0, {}]]], "name": "block35_4"}, {"class_name": "Activation", "config": {"activation": "relu", "trainable": false, "name": "block35_4_ac"}, "inbound_nodes": [[["block35_4", 0, 0, {}]]], "name": "block35_4_ac"}, {"class_name": "Conv2D", "config": {"kernel_constraint": null, "kernel_initializer": {"class_name": "VarianceScaling", "config": {"distribution": "uniform", "scale": 1.0, "seed": null, "mode": "fan_avg"}}, "name": "conv2d_446", "bias_regularizer": null, "bias_constraint": null, "activation": "linear", "trainable": false, "data_format": "channels_last", "padding": "same", "strides": [1, 1], "dilation_rate": [1, 1], "kernel_regularizer": null, "filters": 32, "bias_initializer": {"class_name": "Zeros", "config": {}}, "use_bias": false, "activity_regularizer": null, "kernel_size": [1, 1]}, "inbound_nodes": [[["block35_4_ac", 0, 0, {}]]], "name": "conv2d_446"}, {"class_name": "BatchNormalization", "config": {"beta_constraint": null, "gamma_initializer": {"class_name": "Ones", "config": {}}, "moving_mean_initializer": {"class_name": "Zeros", "config": {}}, "name": "batch_normalization_446", "epsilon": 0.001, "trainable": false, "moving_variance_initializer": {"class_name": "Ones", "config": {}}, "beta_initializer": {"class_name": "Zeros", "config": {}}, "scale": false, "axis": 3, "gamma_constraint": null, "gamma_regularizer": null, "beta_regularizer": null, "momentum": 0.99, "center": true}, "inbound_nodes": [[["conv2d_446", 0, 0, {}]]], "name": "batch_normalization_446"}, {"class_name": "Activation", "config": {"activation": "relu", "trainable": false, "name": "activation_446"}, "inbound_nodes": [[["batch_normalization_446", 0, 0, {}]]], "name": "activation_446"}, {"class_name": "Conv2D", "config": {"kernel_constraint": null, "kernel_initializer": {"class_name": "VarianceScaling", "config": {"distribution": "uniform", "scale": 1.0, "seed": null, "mode": "fan_avg"}}, "name": "conv2d_444", "bias_regularizer": null, "bias_constraint": null, "activation": "linear", "trainable": false, "data_format": "channels_last", "padding": "same", "strides": [1, 1], "dilation_rate": [1, 1], "kernel_regularizer": null, "filters": 32, "bias_initializer": {"class_name": "Zeros", "config": {}}, "use_bias": false, "activity_regularizer": null, "kernel_size": [1, 1]}, "inbound_nodes": [[["block35_4_ac", 0, 0, {}]]], "name": "conv2d_444"}, {"class_name": "Conv2D", "config": {"kernel_constraint": null, "kernel_initializer": {"class_name": "VarianceScaling", "config": {"distribution": "uniform", "scale": 1.0, "seed": null, "mode": "fan_avg"}}, "name": "conv2d_447", "bias_regularizer": null, "bias_constraint": null, "activation": "linear", "trainable": false, "data_format": "channels_last", "padding": "same", "strides": [1, 1], "dilation_rate": [1, 1], "kernel_regularizer": null, "filters": 48, "bias_initializer": {"class_name": "Zeros", "config": {}}, "use_bias": false, "activity_regularizer": null, "kernel_size": [3, 3]}, "inbound_nodes": [[["activation_446", 0, 0, {}]]], "name": "conv2d_447"}, {"class_name": "BatchNormalization", "config": {"beta_constraint": null, "gamma_initializer": {"class_name": "Ones", "config": {}}, "moving_mean_initializer": {"class_name": "Zeros", "config": {}}, "name": "batch_normalization_444", "epsilon": 0.001, "trainable": false, "moving_variance_initializer": {"class_name": "Ones", "config": {}}, "beta_initializer": {"class_name": "Zeros", "config": {}}, "scale": false, "axis": 3, "gamma_constraint": null, "gamma_regularizer": null, "beta_regularizer": null, "momentum": 0.99, "center": true}, "inbound_nodes": [[["conv2d_444", 0, 0, {}]]], "name": "batch_normalization_444"}, {"class_name": "BatchNormalization", "config": {"beta_constraint": null, "gamma_initializer": {"class_name": "Ones", "config": {}}, "moving_mean_initializer": {"class_name": "Zeros", "config": {}}, "name": "batch_normalization_447", "epsilon": 0.001, "trainable": false, "moving_variance_initializer": {"class_name": "Ones", "config": {}}, "beta_initializer": {"class_name": "Zeros", "config": {}}, "scale": false, "axis": 3, "gamma_constraint": null, "gamma_regularizer": null, "beta_regularizer": null, "momentum": 0.99, "center": true}, "inbound_nodes": [[["conv2d_447", 0, 0, {}]]], "name": "batch_normalization_447"}, {"class_name": "Activation", "config": {"activation": "relu", "trainable": false, "name": "activation_444"}, "inbound_nodes": [[["batch_normalization_444", 0, 0, {}]]], "name": "activation_444"}, {"class_name": "Activation", "config": {"activation": "relu", "trainable": false, "name": "activation_447"}, "inbound_nodes": [[["batch_normalization_447", 0, 0, {}]]], "name": "activation_447"}, {"class_name": "Conv2D", "config": {"kernel_constraint": null, "kernel_initializer": {"class_name": "VarianceScaling", "config": {"distribution": "uniform", "scale": 1.0, "seed": null, "mode": "fan_avg"}}, "name": "conv2d_443", "bias_regularizer": null, "bias_constraint": null, "activation": "linear", "trainable": false, "data_format": "channels_last", "padding": "same", "strides": [1, 1], "dilation_rate": [1, 1], "kernel_regularizer": null, "filters": 32, "bias_initializer": {"class_name": "Zeros", "config": {}}, "use_bias": false, "activity_regularizer": null, "kernel_size": [1, 1]}, "inbound_nodes": [[["block35_4_ac", 0, 0, {}]]], "name": "conv2d_443"}, {"class_name": "Conv2D", "config": {"kernel_constraint": null, "kernel_initializer": {"class_name": "VarianceScaling", "config": {"distribution": "uniform", "scale": 1.0, "seed": null, "mode": "fan_avg"}}, "name": "conv2d_445", "bias_regularizer": null, "bias_constraint": null, "activation": "linear", "trainable": false, "data_format": "channels_last", "padding": "same", "strides": [1, 1], "dilation_rate": [1, 1], "kernel_regularizer": null, "filters": 32, "bias_initializer": {"class_name": "Zeros", "config": {}}, "use_bias": false, "activity_regularizer": null, "kernel_size": [3, 3]}, "inbound_nodes": [[["activation_444", 0, 0, {}]]], "name": "conv2d_445"}, {"class_name": "Conv2D", "config": {"kernel_constraint": null, "kernel_initializer": {"class_name": "VarianceScaling", "config": {"distribution": "uniform", "scale": 1.0, "seed": null, "mode": "fan_avg"}}, "name": "conv2d_448", "bias_regularizer": null, "bias_constraint": null, "activation": "linear", "trainable": false, "data_format": "channels_last", "padding": "same", "strides": [1, 1], "dilation_rate": [1, 1], "kernel_regularizer": null, "filters": 64, "bias_initializer": {"class_name": "Zeros", "config": {}}, "use_bias": false, "activity_regularizer": null, "kernel_size": [3, 3]}, "inbound_nodes": [[["activation_447", 0, 0, {}]]], "name": "conv2d_448"}, {"class_name": "BatchNormalization", "config": {"beta_constraint": null, "gamma_initializer": {"class_name": "Ones", "config": {}}, "moving_mean_initializer": {"class_name": "Zeros", "config": {}}, "name": "batch_normalization_443", "epsilon": 0.001, "trainable": false, "moving_variance_initializer": {"class_name": "Ones", "config": {}}, "beta_initializer": {"class_name": "Zeros", "config": {}}, "scale": false, "axis": 3, "gamma_constraint": null, "gamma_regularizer": null, "beta_regularizer": null, "momentum": 0.99, "center": true}, "inbound_nodes": [[["conv2d_443", 0, 0, {}]]], "name": "batch_normalization_443"}, {"class_name": "BatchNormalization", "config": {"beta_constraint": null, "gamma_initializer": {"class_name": "Ones", "config": {}}, "moving_mean_initializer": {"class_name": "Zeros", "config": {}}, "name": "batch_normalization_445", "epsilon": 0.001, "trainable": false, "moving_variance_initializer": {"class_name": "Ones", "config": {}}, "beta_initializer": {"class_name": "Zeros", "config": {}}, "scale": false, "axis": 3, "gamma_constraint": null, "gamma_regularizer": null, "beta_regularizer": null, "momentum": 0.99, "center": true}, "inbound_nodes": [[["conv2d_445", 0, 0, {}]]], "name": "batch_normalization_445"}, {"class_name": "BatchNormalization", "config": {"beta_constraint": null, "gamma_initializer": {"class_name": "Ones", "config": {}}, "moving_mean_initializer": {"class_name": "Zeros", "config": {}}, "name": "batch_normalization_448", "epsilon": 0.001, "trainable": false, "moving_variance_initializer": {"class_name": "Ones", "config": {}}, "beta_initializer": {"class_name": "Zeros", "config": {}}, "scale": false, "axis": 3, "gamma_constraint": null, "gamma_regularizer": null, "beta_regularizer": null, "momentum": 0.99, "center": true}, "inbound_nodes": [[["conv2d_448", 0, 0, {}]]], "name": "batch_normalization_448"}, {"class_name": "Activation", "config": {"activation": "relu", "trainable": false, "name": "activation_443"}, "inbound_nodes": [[["batch_normalization_443", 0, 0, {}]]], "name": "activation_443"}, {"class_name": "Activation", "config": {"activation": "relu", "trainable": false, "name": "activation_445"}, "inbound_nodes": [[["batch_normalization_445", 0, 0, {}]]], "name": "activation_445"}, {"class_name": "Activation", "config": {"activation": "relu", "trainable": false, "name": "activation_448"}, "inbound_nodes": [[["batch_normalization_448", 0, 0, {}]]], "name": "activation_448"}, {"class_name": "Concatenate", "config": {"trainable": false, "name": "block35_5_mixed", "axis": 3}, "inbound_nodes": [[["activation_443", 0, 0, {}], ["activation_445", 0, 0, {}], ["activation_448", 0, 0, {}]]], "name": "block35_5_mixed"}, {"class_name": "Conv2D", "config": {"kernel_constraint": null, "kernel_initializer": {"class_name": "VarianceScaling", "config": {"distribution": "uniform", "scale": 1.0, "seed": null, "mode": "fan_avg"}}, "name": "block35_5_conv", "bias_regularizer": null, "bias_constraint": null, "activation": "linear", "trainable": false, "data_format": "channels_last", "padding": "same", "strides": [1, 1], "dilation_rate": [1, 1], "kernel_regularizer": null, "filters": 320, "bias_initializer": {"class_name": "Zeros", "config": {}}, "use_bias": true, "activity_regularizer": null, "kernel_size": [1, 1]}, "inbound_nodes": [[["block35_5_mixed", 0, 0, {}]]], "name": "block35_5_conv"}, {"class_name": "Lambda", "config": {"function": ["YwIAAAACAAAAAwAAAFNgAQBzFAAAAHwAAGQBABl8AABkAgAZfAEAFBdTKAMAAABOaQAAAABpAQAA\nACgAAAAAKAIAAAB0BgAAAGlucHV0c3QFAAAAc2NhbGUoAAAAACgAAAAAc1AAAAAvdXNyL2xvY2Fs\nL2xpYi9weXRob24yLjcvZGlzdC1wYWNrYWdlcy9rZXJhc19hcHBsaWNhdGlvbnMvaW5jZXB0aW9u\nX3Jlc25ldF92Mi5weXQIAAAAPGxhbWJkYT6qAAAAdAAAAAA=\n", null, null], "name": "block35_5", "trainable": false, "function_type": "lambda", "arguments": {"scale": 0.17}, "output_shape": [15, 15, 320], "output_shape_type": "raw"}, "inbound_nodes": [[["block35_4_ac", 0, 0, {}], ["block35_5_conv", 0, 0, {}]]], "name": "block35_5"}, {"class_name": "Activation", "config": {"activation": "relu", "trainable": false, "name": "block35_5_ac"}, "inbound_nodes": [[["block35_5", 0, 0, {}]]], "name": "block35_5_ac"}, {"class_name": "Conv2D", "config": {"kernel_constraint": null, "kernel_initializer": {"class_name": "VarianceScaling", "config": {"distribution": "uniform", "scale": 1.0, "seed": null, "mode": "fan_avg"}}, "name": "conv2d_452", "bias_regularizer": null, "bias_constraint": null, "activation": "linear", "trainable": false, "data_format": "channels_last", "padding": "same", "strides": [1, 1], "dilation_rate": [1, 1], "kernel_regularizer": null, "filters": 32, "bias_initializer": {"class_name": "Zeros", "config": {}}, "use_bias": false, "activity_regularizer": null, "kernel_size": [1, 1]}, "inbound_nodes": [[["block35_5_ac", 0, 0, {}]]], "name": "conv2d_452"}, {"class_name": "BatchNormalization", "config": {"beta_constraint": null, "gamma_initializer": {"class_name": "Ones", "config": {}}, "moving_mean_initializer": {"class_name": "Zeros", "config": {}}, "name": "batch_normalization_452", "epsilon": 0.001, "trainable": false, "moving_variance_initializer": {"class_name": "Ones", "config": {}}, "beta_initializer": {"class_name": "Zeros", "config": {}}, "scale": false, "axis": 3, "gamma_constraint": null, "gamma_regularizer": null, "beta_regularizer": null, "momentum": 0.99, "center": true}, "inbound_nodes": [[["conv2d_452", 0, 0, {}]]], "name": "batch_normalization_452"}, {"class_name": "Activation", "config": {"activation": "relu", "trainable": false, "name": "activation_452"}, "inbound_nodes": [[["batch_normalization_452", 0, 0, {}]]], "name": "activation_452"}, {"class_name": "Conv2D", "config": {"kernel_constraint": null, "kernel_initializer": {"class_name": "VarianceScaling", "config": {"distribution": "uniform", "scale": 1.0, "seed": null, "mode": "fan_avg"}}, "name": "conv2d_450", "bias_regularizer": null, "bias_constraint": null, "activation": "linear", "trainable": false, "data_format": "channels_last", "padding": "same", "strides": [1, 1], "dilation_rate": [1, 1], "kernel_regularizer": null, "filters": 32, "bias_initializer": {"class_name": "Zeros", "config": {}}, "use_bias": false, "activity_regularizer": null, "kernel_size": [1, 1]}, "inbound_nodes": [[["block35_5_ac", 0, 0, {}]]], "name": "conv2d_450"}, {"class_name": "Conv2D", "config": {"kernel_constraint": null, "kernel_initializer": {"class_name": "VarianceScaling", "config": {"distribution": "uniform", "scale": 1.0, "seed": null, "mode": "fan_avg"}}, "name": "conv2d_453", "bias_regularizer": null, "bias_constraint": null, "activation": "linear", "trainable": false, "data_format": "channels_last", "padding": "same", "strides": [1, 1], "dilation_rate": [1, 1], "kernel_regularizer": null, "filters": 48, "bias_initializer": {"class_name": "Zeros", "config": {}}, "use_bias": false, "activity_regularizer": null, "kernel_size": [3, 3]}, "inbound_nodes": [[["activation_452", 0, 0, {}]]], "name": "conv2d_453"}, {"class_name": "BatchNormalization", "config": {"beta_constraint": null, "gamma_initializer": {"class_name": "Ones", "config": {}}, "moving_mean_initializer": {"class_name": "Zeros", "config": {}}, "name": "batch_normalization_450", "epsilon": 0.001, "trainable": false, "moving_variance_initializer": {"class_name": "Ones", "config": {}}, "beta_initializer": {"class_name": "Zeros", "config": {}}, "scale": false, "axis": 3, "gamma_constraint": null, "gamma_regularizer": null, "beta_regularizer": null, "momentum": 0.99, "center": true}, "inbound_nodes": [[["conv2d_450", 0, 0, {}]]], "name": "batch_normalization_450"}, {"class_name": "BatchNormalization", "config": {"beta_constraint": null, "gamma_initializer": {"class_name": "Ones", "config": {}}, "moving_mean_initializer": {"class_name": "Zeros", "config": {}}, "name": "batch_normalization_453", "epsilon": 0.001, "trainable": false, "moving_variance_initializer": {"class_name": "Ones", "config": {}}, "beta_initializer": {"class_name": "Zeros", "config": {}}, "scale": false, "axis": 3, "gamma_constraint": null, "gamma_regularizer": null, "beta_regularizer": null, "momentum": 0.99, "center": true}, "inbound_nodes": [[["conv2d_453", 0, 0, {}]]], "name": "batch_normalization_453"}, {"class_name": "Activation", "config": {"activation": "relu", "trainable": false, "name": "activation_450"}, "inbound_nodes": [[["batch_normalization_450", 0, 0, {}]]], "name": "activation_450"}, {"class_name": "Activation", "config": {"activation": "relu", "trainable": false, "name": "activation_453"}, "inbound_nodes": [[["batch_normalization_453", 0, 0, {}]]], "name": "activation_453"}, {"class_name": "Conv2D", "config": {"kernel_constraint": null, "kernel_initializer": {"class_name": "VarianceScaling", "config": {"distribution": "uniform", "scale": 1.0, "seed": null, "mode": "fan_avg"}}, "name": "conv2d_449", "bias_regularizer": null, "bias_constraint": null, "activation": "linear", "trainable": false, "data_format": "channels_last", "padding": "same", "strides": [1, 1], "dilation_rate": [1, 1], "kernel_regularizer": null, "filters": 32, "bias_initializer": {"class_name": "Zeros", "config": {}}, "use_bias": false, "activity_regularizer": null, "kernel_size": [1, 1]}, "inbound_nodes": [[["block35_5_ac", 0, 0, {}]]], "name": "conv2d_449"}, {"class_name": "Conv2D", "config": {"kernel_constraint": null, "kernel_initializer": {"class_name": "VarianceScaling", "config": {"distribution": "uniform", "scale": 1.0, "seed": null, "mode": "fan_avg"}}, "name": "conv2d_451", "bias_regularizer": null, "bias_constraint": null, "activation": "linear", "trainable": false, "data_format": "channels_last", "padding": "same", "strides": [1, 1], "dilation_rate": [1, 1], "kernel_regularizer": null, "filters": 32, "bias_initializer": {"class_name": "Zeros", "config": {}}, "use_bias": false, "activity_regularizer": null, "kernel_size": [3, 3]}, "inbound_nodes": [[["activation_450", 0, 0, {}]]], "name": "conv2d_451"}, {"class_name": "Conv2D", "config": {"kernel_constraint": null, "kernel_initializer": {"class_name": "VarianceScaling", "config": {"distribution": "uniform", "scale": 1.0, "seed": null, "mode": "fan_avg"}}, "name": "conv2d_454", "bias_regularizer": null, "bias_constraint": null, "activation": "linear", "trainable": false, "data_format": "channels_last", "padding": "same", "strides": [1, 1], "dilation_rate": [1, 1], "kernel_regularizer": null, "filters": 64, "bias_initializer": {"class_name": "Zeros", "config": {}}, "use_bias": false, "activity_regularizer": null, "kernel_size": [3, 3]}, "inbound_nodes": [[["activation_453", 0, 0, {}]]], "name": "conv2d_454"}, {"class_name": "BatchNormalization", "config": {"beta_constraint": null, "gamma_initializer": {"class_name": "Ones", "config": {}}, "moving_mean_initializer": {"class_name": "Zeros", "config": {}}, "name": "batch_normalization_449", "epsilon": 0.001, "trainable": false, "moving_variance_initializer": {"class_name": "Ones", "config": {}}, "beta_initializer": {"class_name": "Zeros", "config": {}}, "scale": false, "axis": 3, "gamma_constraint": null, "gamma_regularizer": null, "beta_regularizer": null, "momentum": 0.99, "center": true}, "inbound_nodes": [[["conv2d_449", 0, 0, {}]]], "name": "batch_normalization_449"}, {"class_name": "BatchNormalization", "config": {"beta_constraint": null, "gamma_initializer": {"class_name": "Ones", "config": {}}, "moving_mean_initializer": {"class_name": "Zeros", "config": {}}, "name": "batch_normalization_451", "epsilon": 0.001, "trainable": false, "moving_variance_initializer": {"class_name": "Ones", "config": {}}, "beta_initializer": {"class_name": "Zeros", "config": {}}, "scale": false, "axis": 3, "gamma_constraint": null, "gamma_regularizer": null, "beta_regularizer": null, "momentum": 0.99, "center": true}, "inbound_nodes": [[["conv2d_451", 0, 0, {}]]], "name": "batch_normalization_451"}, {"class_name": "BatchNormalization", "config": {"beta_constraint": null, "gamma_initializer": {"class_name": "Ones", "config": {}}, "moving_mean_initializer": {"class_name": "Zeros", "config": {}}, "name": "batch_normalization_454", "epsilon": 0.001, "trainable": false, "moving_variance_initializer": {"class_name": "Ones", "config": {}}, "beta_initializer": {"class_name": "Zeros", "config": {}}, "scale": false, "axis": 3, "gamma_constraint": null, "gamma_regularizer": null, "beta_regularizer": null, "momentum": 0.99, "center": true}, "inbound_nodes": [[["conv2d_454", 0, 0, {}]]], "name": "batch_normalization_454"}, {"class_name": "Activation", "config": {"activation": "relu", "trainable": false, "name": "activation_449"}, "inbound_nodes": [[["batch_normalization_449", 0, 0, {}]]], "name": "activation_449"}, {"class_name": "Activation", "config": {"activation": "relu", "trainable": false, "name": "activation_451"}, "inbound_nodes": [[["batch_normalization_451", 0, 0, {}]]], "name": "activation_451"}, {"class_name": "Activation", "config": {"activation": "relu", "trainable": false, "name": "activation_454"}, "inbound_nodes": [[["batch_normalization_454", 0, 0, {}]]], "name": "activation_454"}, {"class_name": "Concatenate", "config": {"trainable": false, "name": "block35_6_mixed", "axis": 3}, "inbound_nodes": [[["activation_449", 0, 0, {}], ["activation_451", 0, 0, {}], ["activation_454", 0, 0, {}]]], "name": "block35_6_mixed"}, {"class_name": "Conv2D", "config": {"kernel_constraint": null, "kernel_initializer": {"class_name": "VarianceScaling", "config": {"distribution": "uniform", "scale": 1.0, "seed": null, "mode": "fan_avg"}}, "name": "block35_6_conv", "bias_regularizer": null, "bias_constraint": null, "activation": "linear", "trainable": false, "data_format": "channels_last", "padding": "same", "strides": [1, 1], "dilation_rate": [1, 1], "kernel_regularizer": null, "filters": 320, "bias_initializer": {"class_name": "Zeros", "config": {}}, "use_bias": true, "activity_regularizer": null, "kernel_size": [1, 1]}, "inbound_nodes": [[["block35_6_mixed", 0, 0, {}]]], "name": "block35_6_conv"}, {"class_name": "Lambda", "config": {"function": ["YwIAAAACAAAAAwAAAFNgAQBzFAAAAHwAAGQBABl8AABkAgAZfAEAFBdTKAMAAABOaQAAAABpAQAA\nACgAAAAAKAIAAAB0BgAAAGlucHV0c3QFAAAAc2NhbGUoAAAAACgAAAAAc1AAAAAvdXNyL2xvY2Fs\nL2xpYi9weXRob24yLjcvZGlzdC1wYWNrYWdlcy9rZXJhc19hcHBsaWNhdGlvbnMvaW5jZXB0aW9u\nX3Jlc25ldF92Mi5weXQIAAAAPGxhbWJkYT6qAAAAdAAAAAA=\n", null, null], "name": "block35_6", "trainable": false, "function_type": "lambda", "arguments": {"scale": 0.17}, "output_shape": [15, 15, 320], "output_shape_type": "raw"}, "inbound_nodes": [[["block35_5_ac", 0, 0, {}], ["block35_6_conv", 0, 0, {}]]], "name": "block35_6"}, {"class_name": "Activation", "config": {"activation": "relu", "trainable": false, "name": "block35_6_ac"}, "inbound_nodes": [[["block35_6", 0, 0, {}]]], "name": "block35_6_ac"}, {"class_name": "Conv2D", "config": {"kernel_constraint": null, "kernel_initializer": {"class_name": "VarianceScaling", "config": {"distribution": "uniform", "scale": 1.0, "seed": null, "mode": "fan_avg"}}, "name": "conv2d_458", "bias_regularizer": null, "bias_constraint": null, "activation": "linear", "trainable": false, "data_format": "channels_last", "padding": "same", "strides": [1, 1], "dilation_rate": [1, 1], "kernel_regularizer": null, "filters": 32, "bias_initializer": {"class_name": "Zeros", "config": {}}, "use_bias": false, "activity_regularizer": null, "kernel_size": [1, 1]}, "inbound_nodes": [[["block35_6_ac", 0, 0, {}]]], "name": "conv2d_458"}, {"class_name": "BatchNormalization", "config": {"beta_constraint": null, "gamma_initializer": {"class_name": "Ones", "config": {}}, "moving_mean_initializer": {"class_name": "Zeros", "config": {}}, "name": "batch_normalization_458", "epsilon": 0.001, "trainable": false, "moving_variance_initializer": {"class_name": "Ones", "config": {}}, "beta_initializer": {"class_name": "Zeros", "config": {}}, "scale": false, "axis": 3, "gamma_constraint": null, "gamma_regularizer": null, "beta_regularizer": null, "momentum": 0.99, "center": true}, "inbound_nodes": [[["conv2d_458", 0, 0, {}]]], "name": "batch_normalization_458"}, {"class_name": "Activation", "config": {"activation": "relu", "trainable": false, "name": "activation_458"}, "inbound_nodes": [[["batch_normalization_458", 0, 0, {}]]], "name": "activation_458"}, {"class_name": "Conv2D", "config": {"kernel_constraint": null, "kernel_initializer": {"class_name": "VarianceScaling", "config": {"distribution": "uniform", "scale": 1.0, "seed": null, "mode": "fan_avg"}}, "name": "conv2d_456", "bias_regularizer": null, "bias_constraint": null, "activation": "linear", "trainable": false, "data_format": "channels_last", "padding": "same", "strides": [1, 1], "dilation_rate": [1, 1], "kernel_regularizer": null, "filters": 32, "bias_initializer": {"class_name": "Zeros", "config": {}}, "use_bias": false, "activity_regularizer": null, "kernel_size": [1, 1]}, "inbound_nodes": [[["block35_6_ac", 0, 0, {}]]], "name": "conv2d_456"}, {"class_name": "Conv2D", "config": {"kernel_constraint": null, "kernel_initializer": {"class_name": "VarianceScaling", "config": {"distribution": "uniform", "scale": 1.0, "seed": null, "mode": "fan_avg"}}, "name": "conv2d_459", "bias_regularizer": null, "bias_constraint": null, "activation": "linear", "trainable": false, "data_format": "channels_last", "padding": "same", "strides": [1, 1], "dilation_rate": [1, 1], "kernel_regularizer": null, "filters": 48, "bias_initializer": {"class_name": "Zeros", "config": {}}, "use_bias": false, "activity_regularizer": null, "kernel_size": [3, 3]}, "inbound_nodes": [[["activation_458", 0, 0, {}]]], "name": "conv2d_459"}, {"class_name": "BatchNormalization", "config": {"beta_constraint": null, "gamma_initializer": {"class_name": "Ones", "config": {}}, "moving_mean_initializer": {"class_name": "Zeros", "config": {}}, "name": "batch_normalization_456", "epsilon": 0.001, "trainable": false, "moving_variance_initializer": {"class_name": "Ones", "config": {}}, "beta_initializer": {"class_name": "Zeros", "config": {}}, "scale": false, "axis": 3, "gamma_constraint": null, "gamma_regularizer": null, "beta_regularizer": null, "momentum": 0.99, "center": true}, "inbound_nodes": [[["conv2d_456", 0, 0, {}]]], "name": "batch_normalization_456"}, {"class_name": "BatchNormalization", "config": {"beta_constraint": null, "gamma_initializer": {"class_name": "Ones", "config": {}}, "moving_mean_initializer": {"class_name": "Zeros", "config": {}}, "name": "batch_normalization_459", "epsilon": 0.001, "trainable": false, "moving_variance_initializer": {"class_name": "Ones", "config": {}}, "beta_initializer": {"class_name": "Zeros", "config": {}}, "scale": false, "axis": 3, "gamma_constraint": null, "gamma_regularizer": null, "beta_regularizer": null, "momentum": 0.99, "center": true}, "inbound_nodes": [[["conv2d_459", 0, 0, {}]]], "name": "batch_normalization_459"}, {"class_name": "Activation", "config": {"activation": "relu", "trainable": false, "name": "activation_456"}, "inbound_nodes": [[["batch_normalization_456", 0, 0, {}]]], "name": "activation_456"}, {"class_name": "Activation", "config": {"activation": "relu", "trainable": false, "name": "activation_459"}, "inbound_nodes": [[["batch_normalization_459", 0, 0, {}]]], "name": "activation_459"}, {"class_name": "Conv2D", "config": {"kernel_constraint": null, "kernel_initializer": {"class_name": "VarianceScaling", "config": {"distribution": "uniform", "scale": 1.0, "seed": null, "mode": "fan_avg"}}, "name": "conv2d_455", "bias_regularizer": null, "bias_constraint": null, "activation": "linear", "trainable": false, "data_format": "channels_last", "padding": "same", "strides": [1, 1], "dilation_rate": [1, 1], "kernel_regularizer": null, "filters": 32, "bias_initializer": {"class_name": "Zeros", "config": {}}, "use_bias": false, "activity_regularizer": null, "kernel_size": [1, 1]}, "inbound_nodes": [[["block35_6_ac", 0, 0, {}]]], "name": "conv2d_455"}, {"class_name": "Conv2D", "config": {"kernel_constraint": null, "kernel_initializer": {"class_name": "VarianceScaling", "config": {"distribution": "uniform", "scale": 1.0, "seed": null, "mode": "fan_avg"}}, "name": "conv2d_457", "bias_regularizer": null, "bias_constraint": null, "activation": "linear", "trainable": false, "data_format": "channels_last", "padding": "same", "strides": [1, 1], "dilation_rate": [1, 1], "kernel_regularizer": null, "filters": 32, "bias_initializer": {"class_name": "Zeros", "config": {}}, "use_bias": false, "activity_regularizer": null, "kernel_size": [3, 3]}, "inbound_nodes": [[["activation_456", 0, 0, {}]]], "name": "conv2d_457"}, {"class_name": "Conv2D", "config": {"kernel_constraint": null, "kernel_initializer": {"class_name": "VarianceScaling", "config": {"distribution": "uniform", "scale": 1.0, "seed": null, "mode": "fan_avg"}}, "name": "conv2d_460", "bias_regularizer": null, "bias_constraint": null, "activation": "linear", "trainable": false, "data_format": "channels_last", "padding": "same", "strides": [1, 1], "dilation_rate": [1, 1], "kernel_regularizer": null, "filters": 64, "bias_initializer": {"class_name": "Zeros", "config": {}}, "use_bias": false, "activity_regularizer": null, "kernel_size": [3, 3]}, "inbound_nodes": [[["activation_459", 0, 0, {}]]], "name": "conv2d_460"}, {"class_name": "BatchNormalization", "config": {"beta_constraint": null, "gamma_initializer": {"class_name": "Ones", "config": {}}, "moving_mean_initializer": {"class_name": "Zeros", "config": {}}, "name": "batch_normalization_455", "epsilon": 0.001, "trainable": false, "moving_variance_initializer": {"class_name": "Ones", "config": {}}, "beta_initializer": {"class_name": "Zeros", "config": {}}, "scale": false, "axis": 3, "gamma_constraint": null, "gamma_regularizer": null, "beta_regularizer": null, "momentum": 0.99, "center": true}, "inbound_nodes": [[["conv2d_455", 0, 0, {}]]], "name": "batch_normalization_455"}, {"class_name": "BatchNormalization", "config": {"beta_constraint": null, "gamma_initializer": {"class_name": "Ones", "config": {}}, "moving_mean_initializer": {"class_name": "Zeros", "config": {}}, "name": "batch_normalization_457", "epsilon": 0.001, "trainable": false, "moving_variance_initializer": {"class_name": "Ones", "config": {}}, "beta_initializer": {"class_name": "Zeros", "config": {}}, "scale": false, "axis": 3, "gamma_constraint": null, "gamma_regularizer": null, "beta_regularizer": null, "momentum": 0.99, "center": true}, "inbound_nodes": [[["conv2d_457", 0, 0, {}]]], "name": "batch_normalization_457"}, {"class_name": "BatchNormalization", "config": {"beta_constraint": null, "gamma_initializer": {"class_name": "Ones", "config": {}}, "moving_mean_initializer": {"class_name": "Zeros", "config": {}}, "name": "batch_normalization_460", "epsilon": 0.001, "trainable": false, "moving_variance_initializer": {"class_name": "Ones", "config": {}}, "beta_initializer": {"class_name": "Zeros", "config": {}}, "scale": false, "axis": 3, "gamma_constraint": null, "gamma_regularizer": null, "beta_regularizer": null, "momentum": 0.99, "center": true}, "inbound_nodes": [[["conv2d_460", 0, 0, {}]]], "name": "batch_normalization_460"}, {"class_name": "Activation", "config": {"activation": "relu", "trainable": false, "name": "activation_455"}, "inbound_nodes": [[["batch_normalization_455", 0, 0, {}]]], "name": "activation_455"}, {"class_name": "Activation", "config": {"activation": "relu", "trainable": false, "name": "activation_457"}, "inbound_nodes": [[["batch_normalization_457", 0, 0, {}]]], "name": "activation_457"}, {"class_name": "Activation", "config": {"activation": "relu", "trainable": false, "name": "activation_460"}, "inbound_nodes": [[["batch_normalization_460", 0, 0, {}]]], "name": "activation_460"}, {"class_name": "Concatenate", "config": {"trainable": false, "name": "block35_7_mixed", "axis": 3}, "inbound_nodes": [[["activation_455", 0, 0, {}], ["activation_457", 0, 0, {}], ["activation_460", 0, 0, {}]]], "name": "block35_7_mixed"}, {"class_name": "Conv2D", "config": {"kernel_constraint": null, "kernel_initializer": {"class_name": "VarianceScaling", "config": {"distribution": "uniform", "scale": 1.0, "seed": null, "mode": "fan_avg"}}, "name": "block35_7_conv", "bias_regularizer": null, "bias_constraint": null, "activation": "linear", "trainable": false, "data_format": "channels_last", "padding": "same", "strides": [1, 1], "dilation_rate": [1, 1], "kernel_regularizer": null, "filters": 320, "bias_initializer": {"class_name": "Zeros", "config": {}}, "use_bias": true, "activity_regularizer": null, "kernel_size": [1, 1]}, "inbound_nodes": [[["block35_7_mixed", 0, 0, {}]]], "name": "block35_7_conv"}, {"class_name": "Lambda", "config": {"function": ["YwIAAAACAAAAAwAAAFNgAQBzFAAAAHwAAGQBABl8AABkAgAZfAEAFBdTKAMAAABOaQAAAABpAQAA\nACgAAAAAKAIAAAB0BgAAAGlucHV0c3QFAAAAc2NhbGUoAAAAACgAAAAAc1AAAAAvdXNyL2xvY2Fs\nL2xpYi9weXRob24yLjcvZGlzdC1wYWNrYWdlcy9rZXJhc19hcHBsaWNhdGlvbnMvaW5jZXB0aW9u\nX3Jlc25ldF92Mi5weXQIAAAAPGxhbWJkYT6qAAAAdAAAAAA=\n", null, null], "name": "block35_7", "trainable": false, "function_type": "lambda", "arguments": {"scale": 0.17}, "output_shape": [15, 15, 320], "output_shape_type": "raw"}, "inbound_nodes": [[["block35_6_ac", 0, 0, {}], ["block35_7_conv", 0, 0, {}]]], "name": "block35_7"}, {"class_name": "Activation", "config": {"activation": "relu", "trainable": false, "name": "block35_7_ac"}, "inbound_nodes": [[["block35_7", 0, 0, {}]]], "name": "block35_7_ac"}, {"class_name": "Conv2D", "config": {"kernel_constraint": null, "kernel_initializer": {"class_name": "VarianceScaling", "config": {"distribution": "uniform", "scale": 1.0, "seed": null, "mode": "fan_avg"}}, "name": "conv2d_464", "bias_regularizer": null, "bias_constraint": null, "activation": "linear", "trainable": false, "data_format": "channels_last", "padding": "same", "strides": [1, 1], "dilation_rate": [1, 1], "kernel_regularizer": null, "filters": 32, "bias_initializer": {"class_name": "Zeros", "config": {}}, "use_bias": false, "activity_regularizer": null, "kernel_size": [1, 1]}, "inbound_nodes": [[["block35_7_ac", 0, 0, {}]]], "name": "conv2d_464"}, {"class_name": "BatchNormalization", "config": {"beta_constraint": null, "gamma_initializer": {"class_name": "Ones", "config": {}}, "moving_mean_initializer": {"class_name": "Zeros", "config": {}}, "name": "batch_normalization_464", "epsilon": 0.001, "trainable": false, "moving_variance_initializer": {"class_name": "Ones", "config": {}}, "beta_initializer": {"class_name": "Zeros", "config": {}}, "scale": false, "axis": 3, "gamma_constraint": null, "gamma_regularizer": null, "beta_regularizer": null, "momentum": 0.99, "center": true}, "inbound_nodes": [[["conv2d_464", 0, 0, {}]]], "name": "batch_normalization_464"}, {"class_name": "Activation", "config": {"activation": "relu", "trainable": false, "name": "activation_464"}, "inbound_nodes": [[["batch_normalization_464", 0, 0, {}]]], "name": "activation_464"}, {"class_name": "Conv2D", "config": {"kernel_constraint": null, "kernel_initializer": {"class_name": "VarianceScaling", "config": {"distribution": "uniform", "scale": 1.0, "seed": null, "mode": "fan_avg"}}, "name": "conv2d_462", "bias_regularizer": null, "bias_constraint": null, "activation": "linear", "trainable": false, "data_format": "channels_last", "padding": "same", "strides": [1, 1], "dilation_rate": [1, 1], "kernel_regularizer": null, "filters": 32, "bias_initializer": {"class_name": "Zeros", "config": {}}, "use_bias": false, "activity_regularizer": null, "kernel_size": [1, 1]}, "inbound_nodes": [[["block35_7_ac", 0, 0, {}]]], "name": "conv2d_462"}, {"class_name": "Conv2D", "config": {"kernel_constraint": null, "kernel_initializer": {"class_name": "VarianceScaling", "config": {"distribution": "uniform", "scale": 1.0, "seed": null, "mode": "fan_avg"}}, "name": "conv2d_465", "bias_regularizer": null, "bias_constraint": null, "activation": "linear", "trainable": false, "data_format": "channels_last", "padding": "same", "strides": [1, 1], "dilation_rate": [1, 1], "kernel_regularizer": null, "filters": 48, "bias_initializer": {"class_name": "Zeros", "config": {}}, "use_bias": false, "activity_regularizer": null, "kernel_size": [3, 3]}, "inbound_nodes": [[["activation_464", 0, 0, {}]]], "name": "conv2d_465"}, {"class_name": "BatchNormalization", "config": {"beta_constraint": null, "gamma_initializer": {"class_name": "Ones", "config": {}}, "moving_mean_initializer": {"class_name": "Zeros", "config": {}}, "name": "batch_normalization_462", "epsilon": 0.001, "trainable": false, "moving_variance_initializer": {"class_name": "Ones", "config": {}}, "beta_initializer": {"class_name": "Zeros", "config": {}}, "scale": false, "axis": 3, "gamma_constraint": null, "gamma_regularizer": null, "beta_regularizer": null, "momentum": 0.99, "center": true}, "inbound_nodes": [[["conv2d_462", 0, 0, {}]]], "name": "batch_normalization_462"}, {"class_name": "BatchNormalization", "config": {"beta_constraint": null, "gamma_initializer": {"class_name": "Ones", "config": {}}, "moving_mean_initializer": {"class_name": "Zeros", "config": {}}, "name": "batch_normalization_465", "epsilon": 0.001, "trainable": false, "moving_variance_initializer": {"class_name": "Ones", "config": {}}, "beta_initializer": {"class_name": "Zeros", "config": {}}, "scale": false, "axis": 3, "gamma_constraint": null, "gamma_regularizer": null, "beta_regularizer": null, "momentum": 0.99, "center": true}, "inbound_nodes": [[["conv2d_465", 0, 0, {}]]], "name": "batch_normalization_465"}, {"class_name": "Activation", "config": {"activation": "relu", "trainable": false, "name": "activation_462"}, "inbound_nodes": [[["batch_normalization_462", 0, 0, {}]]], "name": "activation_462"}, {"class_name": "Activation", "config": {"activation": "relu", "trainable": false, "name": "activation_465"}, "inbound_nodes": [[["batch_normalization_465", 0, 0, {}]]], "name": "activation_465"}, {"class_name": "Conv2D", "config": {"kernel_constraint": null, "kernel_initializer": {"class_name": "VarianceScaling", "config": {"distribution": "uniform", "scale": 1.0, "seed": null, "mode": "fan_avg"}}, "name": "conv2d_461", "bias_regularizer": null, "bias_constraint": null, "activation": "linear", "trainable": false, "data_format": "channels_last", "padding": "same", "strides": [1, 1], "dilation_rate": [1, 1], "kernel_regularizer": null, "filters": 32, "bias_initializer": {"class_name": "Zeros", "config": {}}, "use_bias": false, "activity_regularizer": null, "kernel_size": [1, 1]}, "inbound_nodes": [[["block35_7_ac", 0, 0, {}]]], "name": "conv2d_461"}, {"class_name": "Conv2D", "config": {"kernel_constraint": null, "kernel_initializer": {"class_name": "VarianceScaling", "config": {"distribution": "uniform", "scale": 1.0, "seed": null, "mode": "fan_avg"}}, "name": "conv2d_463", "bias_regularizer": null, "bias_constraint": null, "activation": "linear", "trainable": false, "data_format": "channels_last", "padding": "same", "strides": [1, 1], "dilation_rate": [1, 1], "kernel_regularizer": null, "filters": 32, "bias_initializer": {"class_name": "Zeros", "config": {}}, "use_bias": false, "activity_regularizer": null, "kernel_size": [3, 3]}, "inbound_nodes": [[["activation_462", 0, 0, {}]]], "name": "conv2d_463"}, {"class_name": "Conv2D", "config": {"kernel_constraint": null, "kernel_initializer": {"class_name": "VarianceScaling", "config": {"distribution": "uniform", "scale": 1.0, "seed": null, "mode": "fan_avg"}}, "name": "conv2d_466", "bias_regularizer": null, "bias_constraint": null, "activation": "linear", "trainable": false, "data_format": "channels_last", "padding": "same", "strides": [1, 1], "dilation_rate": [1, 1], "kernel_regularizer": null, "filters": 64, "bias_initializer": {"class_name": "Zeros", "config": {}}, "use_bias": false, "activity_regularizer": null, "kernel_size": [3, 3]}, "inbound_nodes": [[["activation_465", 0, 0, {}]]], "name": "conv2d_466"}, {"class_name": "BatchNormalization", "config": {"beta_constraint": null, "gamma_initializer": {"class_name": "Ones", "config": {}}, "moving_mean_initializer": {"class_name": "Zeros", "config": {}}, "name": "batch_normalization_461", "epsilon": 0.001, "trainable": false, "moving_variance_initializer": {"class_name": "Ones", "config": {}}, "beta_initializer": {"class_name": "Zeros", "config": {}}, "scale": false, "axis": 3, "gamma_constraint": null, "gamma_regularizer": null, "beta_regularizer": null, "momentum": 0.99, "center": true}, "inbound_nodes": [[["conv2d_461", 0, 0, {}]]], "name": "batch_normalization_461"}, {"class_name": "BatchNormalization", "config": {"beta_constraint": null, "gamma_initializer": {"class_name": "Ones", "config": {}}, "moving_mean_initializer": {"class_name": "Zeros", "config": {}}, "name": "batch_normalization_463", "epsilon": 0.001, "trainable": false, "moving_variance_initializer": {"class_name": "Ones", "config": {}}, "beta_initializer": {"class_name": "Zeros", "config": {}}, "scale": false, "axis": 3, "gamma_constraint": null, "gamma_regularizer": null, "beta_regularizer": null, "momentum": 0.99, "center": true}, "inbound_nodes": [[["conv2d_463", 0, 0, {}]]], "name": "batch_normalization_463"}, {"class_name": "BatchNormalization", "config": {"beta_constraint": null, "gamma_initializer": {"class_name": "Ones", "config": {}}, "moving_mean_initializer": {"class_name": "Zeros", "config": {}}, "name": "batch_normalization_466", "epsilon": 0.001, "trainable": false, "moving_variance_initializer": {"class_name": "Ones", "config": {}}, "beta_initializer": {"class_name": "Zeros", "config": {}}, "scale": false, "axis": 3, "gamma_constraint": null, "gamma_regularizer": null, "beta_regularizer": null, "momentum": 0.99, "center": true}, "inbound_nodes": [[["conv2d_466", 0, 0, {}]]], "name": "batch_normalization_466"}, {"class_name": "Activation", "config": {"activation": "relu", "trainable": false, "name": "activation_461"}, "inbound_nodes": [[["batch_normalization_461", 0, 0, {}]]], "name": "activation_461"}, {"class_name": "Activation", "config": {"activation": "relu", "trainable": false, "name": "activation_463"}, "inbound_nodes": [[["batch_normalization_463", 0, 0, {}]]], "name": "activation_463"}, {"class_name": "Activation", "config": {"activation": "relu", "trainable": false, "name": "activation_466"}, "inbound_nodes": [[["batch_normalization_466", 0, 0, {}]]], "name": "activation_466"}, {"class_name": "Concatenate", "config": {"trainable": false, "name": "block35_8_mixed", "axis": 3}, "inbound_nodes": [[["activation_461", 0, 0, {}], ["activation_463", 0, 0, {}], ["activation_466", 0, 0, {}]]], "name": "block35_8_mixed"}, {"class_name": "Conv2D", "config": {"kernel_constraint": null, "kernel_initializer": {"class_name": "VarianceScaling", "config": {"distribution": "uniform", "scale": 1.0, "seed": null, "mode": "fan_avg"}}, "name": "block35_8_conv", "bias_regularizer": null, "bias_constraint": null, "activation": "linear", "trainable": false, "data_format": "channels_last", "padding": "same", "strides": [1, 1], "dilation_rate": [1, 1], "kernel_regularizer": null, "filters": 320, "bias_initializer": {"class_name": "Zeros", "config": {}}, "use_bias": true, "activity_regularizer": null, "kernel_size": [1, 1]}, "inbound_nodes": [[["block35_8_mixed", 0, 0, {}]]], "name": "block35_8_conv"}, {"class_name": "Lambda", "config": {"function": ["YwIAAAACAAAAAwAAAFNgAQBzFAAAAHwAAGQBABl8AABkAgAZfAEAFBdTKAMAAABOaQAAAABpAQAA\nACgAAAAAKAIAAAB0BgAAAGlucHV0c3QFAAAAc2NhbGUoAAAAACgAAAAAc1AAAAAvdXNyL2xvY2Fs\nL2xpYi9weXRob24yLjcvZGlzdC1wYWNrYWdlcy9rZXJhc19hcHBsaWNhdGlvbnMvaW5jZXB0aW9u\nX3Jlc25ldF92Mi5weXQIAAAAPGxhbWJkYT6qAAAAdAAAAAA=\n", null, null], "name": "block35_8", "trainable": false, "function_type": "lambda", "arguments": {"scale": 0.17}, "output_shape": [15, 15, 320], "output_shape_type": "raw"}, "inbound_nodes": [[["block35_7_ac", 0, 0, {}], ["block35_8_conv", 0, 0, {}]]], "name": "block35_8"}, {"class_name": "Activation", "config": {"activation": "relu", "trainable": false, "name": "block35_8_ac"}, "inbound_nodes": [[["block35_8", 0, 0, {}]]], "name": "block35_8_ac"}, {"class_name": "Conv2D", "config": {"kernel_constraint": null, "kernel_initializer": {"class_name": "VarianceScaling", "config": {"distribution": "uniform", "scale": 1.0, "seed": null, "mode": "fan_avg"}}, "name": "conv2d_470", "bias_regularizer": null, "bias_constraint": null, "activation": "linear", "trainable": false, "data_format": "channels_last", "padding": "same", "strides": [1, 1], "dilation_rate": [1, 1], "kernel_regularizer": null, "filters": 32, "bias_initializer": {"class_name": "Zeros", "config": {}}, "use_bias": false, "activity_regularizer": null, "kernel_size": [1, 1]}, "inbound_nodes": [[["block35_8_ac", 0, 0, {}]]], "name": "conv2d_470"}, {"class_name": "BatchNormalization", "config": {"beta_constraint": null, "gamma_initializer": {"class_name": "Ones", "config": {}}, "moving_mean_initializer": {"class_name": "Zeros", "config": {}}, "name": "batch_normalization_470", "epsilon": 0.001, "trainable": false, "moving_variance_initializer": {"class_name": "Ones", "config": {}}, "beta_initializer": {"class_name": "Zeros", "config": {}}, "scale": false, "axis": 3, "gamma_constraint": null, "gamma_regularizer": null, "beta_regularizer": null, "momentum": 0.99, "center": true}, "inbound_nodes": [[["conv2d_470", 0, 0, {}]]], "name": "batch_normalization_470"}, {"class_name": "Activation", "config": {"activation": "relu", "trainable": false, "name": "activation_470"}, "inbound_nodes": [[["batch_normalization_470", 0, 0, {}]]], "name": "activation_470"}, {"class_name": "Conv2D", "config": {"kernel_constraint": null, "kernel_initializer": {"class_name": "VarianceScaling", "config": {"distribution": "uniform", "scale": 1.0, "seed": null, "mode": "fan_avg"}}, "name": "conv2d_468", "bias_regularizer": null, "bias_constraint": null, "activation": "linear", "trainable": false, "data_format": "channels_last", "padding": "same", "strides": [1, 1], "dilation_rate": [1, 1], "kernel_regularizer": null, "filters": 32, "bias_initializer": {"class_name": "Zeros", "config": {}}, "use_bias": false, "activity_regularizer": null, "kernel_size": [1, 1]}, "inbound_nodes": [[["block35_8_ac", 0, 0, {}]]], "name": "conv2d_468"}, {"class_name": "Conv2D", "config": {"kernel_constraint": null, "kernel_initializer": {"class_name": "VarianceScaling", "config": {"distribution": "uniform", "scale": 1.0, "seed": null, "mode": "fan_avg"}}, "name": "conv2d_471", "bias_regularizer": null, "bias_constraint": null, "activation": "linear", "trainable": false, "data_format": "channels_last", "padding": "same", "strides": [1, 1], "dilation_rate": [1, 1], "kernel_regularizer": null, "filters": 48, "bias_initializer": {"class_name": "Zeros", "config": {}}, "use_bias": false, "activity_regularizer": null, "kernel_size": [3, 3]}, "inbound_nodes": [[["activation_470", 0, 0, {}]]], "name": "conv2d_471"}, {"class_name": "BatchNormalization", "config": {"beta_constraint": null, "gamma_initializer": {"class_name": "Ones", "config": {}}, "moving_mean_initializer": {"class_name": "Zeros", "config": {}}, "name": "batch_normalization_468", "epsilon": 0.001, "trainable": false, "moving_variance_initializer": {"class_name": "Ones", "config": {}}, "beta_initializer": {"class_name": "Zeros", "config": {}}, "scale": false, "axis": 3, "gamma_constraint": null, "gamma_regularizer": null, "beta_regularizer": null, "momentum": 0.99, "center": true}, "inbound_nodes": [[["conv2d_468", 0, 0, {}]]], "name": "batch_normalization_468"}, {"class_name": "BatchNormalization", "config": {"beta_constraint": null, "gamma_initializer": {"class_name": "Ones", "config": {}}, "moving_mean_initializer": {"class_name": "Zeros", "config": {}}, "name": "batch_normalization_471", "epsilon": 0.001, "trainable": false, "moving_variance_initializer": {"class_name": "Ones", "config": {}}, "beta_initializer": {"class_name": "Zeros", "config": {}}, "scale": false, "axis": 3, "gamma_constraint": null, "gamma_regularizer": null, "beta_regularizer": null, "momentum": 0.99, "center": true}, "inbound_nodes": [[["conv2d_471", 0, 0, {}]]], "name": "batch_normalization_471"}, {"class_name": "Activation", "config": {"activation": "relu", "trainable": false, "name": "activation_468"}, "inbound_nodes": [[["batch_normalization_468", 0, 0, {}]]], "name": "activation_468"}, {"class_name": "Activation", "config": {"activation": "relu", "trainable": false, "name": "activation_471"}, "inbound_nodes": [[["batch_normalization_471", 0, 0, {}]]], "name": "activation_471"}, {"class_name": "Conv2D", "config": {"kernel_constraint": null, "kernel_initializer": {"class_name": "VarianceScaling", "config": {"distribution": "uniform", "scale": 1.0, "seed": null, "mode": "fan_avg"}}, "name": "conv2d_467", "bias_regularizer": null, "bias_constraint": null, "activation": "linear", "trainable": false, "data_format": "channels_last", "padding": "same", "strides": [1, 1], "dilation_rate": [1, 1], "kernel_regularizer": null, "filters": 32, "bias_initializer": {"class_name": "Zeros", "config": {}}, "use_bias": false, "activity_regularizer": null, "kernel_size": [1, 1]}, "inbound_nodes": [[["block35_8_ac", 0, 0, {}]]], "name": "conv2d_467"}, {"class_name": "Conv2D", "config": {"kernel_constraint": null, "kernel_initializer": {"class_name": "VarianceScaling", "config": {"distribution": "uniform", "scale": 1.0, "seed": null, "mode": "fan_avg"}}, "name": "conv2d_469", "bias_regularizer": null, "bias_constraint": null, "activation": "linear", "trainable": false, "data_format": "channels_last", "padding": "same", "strides": [1, 1], "dilation_rate": [1, 1], "kernel_regularizer": null, "filters": 32, "bias_initializer": {"class_name": "Zeros", "config": {}}, "use_bias": false, "activity_regularizer": null, "kernel_size": [3, 3]}, "inbound_nodes": [[["activation_468", 0, 0, {}]]], "name": "conv2d_469"}, {"class_name": "Conv2D", "config": {"kernel_constraint": null, "kernel_initializer": {"class_name": "VarianceScaling", "config": {"distribution": "uniform", "scale": 1.0, "seed": null, "mode": "fan_avg"}}, "name": "conv2d_472", "bias_regularizer": null, "bias_constraint": null, "activation": "linear", "trainable": false, "data_format": "channels_last", "padding": "same", "strides": [1, 1], "dilation_rate": [1, 1], "kernel_regularizer": null, "filters": 64, "bias_initializer": {"class_name": "Zeros", "config": {}}, "use_bias": false, "activity_regularizer": null, "kernel_size": [3, 3]}, "inbound_nodes": [[["activation_471", 0, 0, {}]]], "name": "conv2d_472"}, {"class_name": "BatchNormalization", "config": {"beta_constraint": null, "gamma_initializer": {"class_name": "Ones", "config": {}}, "moving_mean_initializer": {"class_name": "Zeros", "config": {}}, "name": "batch_normalization_467", "epsilon": 0.001, "trainable": false, "moving_variance_initializer": {"class_name": "Ones", "config": {}}, "beta_initializer": {"class_name": "Zeros", "config": {}}, "scale": false, "axis": 3, "gamma_constraint": null, "gamma_regularizer": null, "beta_regularizer": null, "momentum": 0.99, "center": true}, "inbound_nodes": [[["conv2d_467", 0, 0, {}]]], "name": "batch_normalization_467"}, {"class_name": "BatchNormalization", "config": {"beta_constraint": null, "gamma_initializer": {"class_name": "Ones", "config": {}}, "moving_mean_initializer": {"class_name": "Zeros", "config": {}}, "name": "batch_normalization_469", "epsilon": 0.001, "trainable": false, "moving_variance_initializer": {"class_name": "Ones", "config": {}}, "beta_initializer": {"class_name": "Zeros", "config": {}}, "scale": false, "axis": 3, "gamma_constraint": null, "gamma_regularizer": null, "beta_regularizer": null, "momentum": 0.99, "center": true}, "inbound_nodes": [[["conv2d_469", 0, 0, {}]]], "name": "batch_normalization_469"}, {"class_name": "BatchNormalization", "config": {"beta_constraint": null, "gamma_initializer": {"class_name": "Ones", "config": {}}, "moving_mean_initializer": {"class_name": "Zeros", "config": {}}, "name": "batch_normalization_472", "epsilon": 0.001, "trainable": false, "moving_variance_initializer": {"class_name": "Ones", "config": {}}, "beta_initializer": {"class_name": "Zeros", "config": {}}, "scale": false, "axis": 3, "gamma_constraint": null, "gamma_regularizer": null, "beta_regularizer": null, "momentum": 0.99, "center": true}, "inbound_nodes": [[["conv2d_472", 0, 0, {}]]], "name": "batch_normalization_472"}, {"class_name": "Activation", "config": {"activation": "relu", "trainable": false, "name": "activation_467"}, "inbound_nodes": [[["batch_normalization_467", 0, 0, {}]]], "name": "activation_467"}, {"class_name": "Activation", "config": {"activation": "relu", "trainable": false, "name": "activation_469"}, "inbound_nodes": [[["batch_normalization_469", 0, 0, {}]]], "name": "activation_469"}, {"class_name": "Activation", "config": {"activation": "relu", "trainable": false, "name": "activation_472"}, "inbound_nodes": [[["batch_normalization_472", 0, 0, {}]]], "name": "activation_472"}, {"class_name": "Concatenate", "config": {"trainable": false, "name": "block35_9_mixed", "axis": 3}, "inbound_nodes": [[["activation_467", 0, 0, {}], ["activation_469", 0, 0, {}], ["activation_472", 0, 0, {}]]], "name": "block35_9_mixed"}, {"class_name": "Conv2D", "config": {"kernel_constraint": null, "kernel_initializer": {"class_name": "VarianceScaling", "config": {"distribution": "uniform", "scale": 1.0, "seed": null, "mode": "fan_avg"}}, "name": "block35_9_conv", "bias_regularizer": null, "bias_constraint": null, "activation": "linear", "trainable": false, "data_format": "channels_last", "padding": "same", "strides": [1, 1], "dilation_rate": [1, 1], "kernel_regularizer": null, "filters": 320, "bias_initializer": {"class_name": "Zeros", "config": {}}, "use_bias": true, "activity_regularizer": null, "kernel_size": [1, 1]}, "inbound_nodes": [[["block35_9_mixed", 0, 0, {}]]], "name": "block35_9_conv"}, {"class_name": "Lambda", "config": {"function": ["YwIAAAACAAAAAwAAAFNgAQBzFAAAAHwAAGQBABl8AABkAgAZfAEAFBdTKAMAAABOaQAAAABpAQAA\nACgAAAAAKAIAAAB0BgAAAGlucHV0c3QFAAAAc2NhbGUoAAAAACgAAAAAc1AAAAAvdXNyL2xvY2Fs\nL2xpYi9weXRob24yLjcvZGlzdC1wYWNrYWdlcy9rZXJhc19hcHBsaWNhdGlvbnMvaW5jZXB0aW9u\nX3Jlc25ldF92Mi5weXQIAAAAPGxhbWJkYT6qAAAAdAAAAAA=\n", null, null], "name": "block35_9", "trainable": false, "function_type": "lambda", "arguments": {"scale": 0.17}, "output_shape": [15, 15, 320], "output_shape_type": "raw"}, "inbound_nodes": [[["block35_8_ac", 0, 0, {}], ["block35_9_conv", 0, 0, {}]]], "name": "block35_9"}, {"class_name": "Activation", "config": {"activation": "relu", "trainable": false, "name": "block35_9_ac"}, "inbound_nodes": [[["block35_9", 0, 0, {}]]], "name": "block35_9_ac"}, {"class_name": "Conv2D", "config": {"kernel_constraint": null, "kernel_initializer": {"class_name": "VarianceScaling", "config": {"distribution": "uniform", "scale": 1.0, "seed": null, "mode": "fan_avg"}}, "name": "conv2d_476", "bias_regularizer": null, "bias_constraint": null, "activation": "linear", "trainable": false, "data_format": "channels_last", "padding": "same", "strides": [1, 1], "dilation_rate": [1, 1], "kernel_regularizer": null, "filters": 32, "bias_initializer": {"class_name": "Zeros", "config": {}}, "use_bias": false, "activity_regularizer": null, "kernel_size": [1, 1]}, "inbound_nodes": [[["block35_9_ac", 0, 0, {}]]], "name": "conv2d_476"}, {"class_name": "BatchNormalization", "config": {"beta_constraint": null, "gamma_initializer": {"class_name": "Ones", "config": {}}, "moving_mean_initializer": {"class_name": "Zeros", "config": {}}, "name": "batch_normalization_476", "epsilon": 0.001, "trainable": false, "moving_variance_initializer": {"class_name": "Ones", "config": {}}, "beta_initializer": {"class_name": "Zeros", "config": {}}, "scale": false, "axis": 3, "gamma_constraint": null, "gamma_regularizer": null, "beta_regularizer": null, "momentum": 0.99, "center": true}, "inbound_nodes": [[["conv2d_476", 0, 0, {}]]], "name": "batch_normalization_476"}, {"class_name": "Activation", "config": {"activation": "relu", "trainable": false, "name": "activation_476"}, "inbound_nodes": [[["batch_normalization_476", 0, 0, {}]]], "name": "activation_476"}, {"class_name": "Conv2D", "config": {"kernel_constraint": null, "kernel_initializer": {"class_name": "VarianceScaling", "config": {"distribution": "uniform", "scale": 1.0, "seed": null, "mode": "fan_avg"}}, "name": "conv2d_474", "bias_regularizer": null, "bias_constraint": null, "activation": "linear", "trainable": false, "data_format": "channels_last", "padding": "same", "strides": [1, 1], "dilation_rate": [1, 1], "kernel_regularizer": null, "filters": 32, "bias_initializer": {"class_name": "Zeros", "config": {}}, "use_bias": false, "activity_regularizer": null, "kernel_size": [1, 1]}, "inbound_nodes": [[["block35_9_ac", 0, 0, {}]]], "name": "conv2d_474"}, {"class_name": "Conv2D", "config": {"kernel_constraint": null, "kernel_initializer": {"class_name": "VarianceScaling", "config": {"distribution": "uniform", "scale": 1.0, "seed": null, "mode": "fan_avg"}}, "name": "conv2d_477", "bias_regularizer": null, "bias_constraint": null, "activation": "linear", "trainable": false, "data_format": "channels_last", "padding": "same", "strides": [1, 1], "dilation_rate": [1, 1], "kernel_regularizer": null, "filters": 48, "bias_initializer": {"class_name": "Zeros", "config": {}}, "use_bias": false, "activity_regularizer": null, "kernel_size": [3, 3]}, "inbound_nodes": [[["activation_476", 0, 0, {}]]], "name": "conv2d_477"}, {"class_name": "BatchNormalization", "config": {"beta_constraint": null, "gamma_initializer": {"class_name": "Ones", "config": {}}, "moving_mean_initializer": {"class_name": "Zeros", "config": {}}, "name": "batch_normalization_474", "epsilon": 0.001, "trainable": false, "moving_variance_initializer": {"class_name": "Ones", "config": {}}, "beta_initializer": {"class_name": "Zeros", "config": {}}, "scale": false, "axis": 3, "gamma_constraint": null, "gamma_regularizer": null, "beta_regularizer": null, "momentum": 0.99, "center": true}, "inbound_nodes": [[["conv2d_474", 0, 0, {}]]], "name": "batch_normalization_474"}, {"class_name": "BatchNormalization", "config": {"beta_constraint": null, "gamma_initializer": {"class_name": "Ones", "config": {}}, "moving_mean_initializer": {"class_name": "Zeros", "config": {}}, "name": "batch_normalization_477", "epsilon": 0.001, "trainable": false, "moving_variance_initializer": {"class_name": "Ones", "config": {}}, "beta_initializer": {"class_name": "Zeros", "config": {}}, "scale": false, "axis": 3, "gamma_constraint": null, "gamma_regularizer": null, "beta_regularizer": null, "momentum": 0.99, "center": true}, "inbound_nodes": [[["conv2d_477", 0, 0, {}]]], "name": "batch_normalization_477"}, {"class_name": "Activation", "config": {"activation": "relu", "trainable": false, "name": "activation_474"}, "inbound_nodes": [[["batch_normalization_474", 0, 0, {}]]], "name": "activation_474"}, {"class_name": "Activation", "config": {"activation": "relu", "trainable": false, "name": "activation_477"}, "inbound_nodes": [[["batch_normalization_477", 0, 0, {}]]], "name": "activation_477"}, {"class_name": "Conv2D", "config": {"kernel_constraint": null, "kernel_initializer": {"class_name": "VarianceScaling", "config": {"distribution": "uniform", "scale": 1.0, "seed": null, "mode": "fan_avg"}}, "name": "conv2d_473", "bias_regularizer": null, "bias_constraint": null, "activation": "linear", "trainable": false, "data_format": "channels_last", "padding": "same", "strides": [1, 1], "dilation_rate": [1, 1], "kernel_regularizer": null, "filters": 32, "bias_initializer": {"class_name": "Zeros", "config": {}}, "use_bias": false, "activity_regularizer": null, "kernel_size": [1, 1]}, "inbound_nodes": [[["block35_9_ac", 0, 0, {}]]], "name": "conv2d_473"}, {"class_name": "Conv2D", "config": {"kernel_constraint": null, "kernel_initializer": {"class_name": "VarianceScaling", "config": {"distribution": "uniform", "scale": 1.0, "seed": null, "mode": "fan_avg"}}, "name": "conv2d_475", "bias_regularizer": null, "bias_constraint": null, "activation": "linear", "trainable": false, "data_format": "channels_last", "padding": "same", "strides": [1, 1], "dilation_rate": [1, 1], "kernel_regularizer": null, "filters": 32, "bias_initializer": {"class_name": "Zeros", "config": {}}, "use_bias": false, "activity_regularizer": null, "kernel_size": [3, 3]}, "inbound_nodes": [[["activation_474", 0, 0, {}]]], "name": "conv2d_475"}, {"class_name": "Conv2D", "config": {"kernel_constraint": null, "kernel_initializer": {"class_name": "VarianceScaling", "config": {"distribution": "uniform", "scale": 1.0, "seed": null, "mode": "fan_avg"}}, "name": "conv2d_478", "bias_regularizer": null, "bias_constraint": null, "activation": "linear", "trainable": false, "data_format": "channels_last", "padding": "same", "strides": [1, 1], "dilation_rate": [1, 1], "kernel_regularizer": null, "filters": 64, "bias_initializer": {"class_name": "Zeros", "config": {}}, "use_bias": false, "activity_regularizer": null, "kernel_size": [3, 3]}, "inbound_nodes": [[["activation_477", 0, 0, {}]]], "name": "conv2d_478"}, {"class_name": "BatchNormalization", "config": {"beta_constraint": null, "gamma_initializer": {"class_name": "Ones", "config": {}}, "moving_mean_initializer": {"class_name": "Zeros", "config": {}}, "name": "batch_normalization_473", "epsilon": 0.001, "trainable": false, "moving_variance_initializer": {"class_name": "Ones", "config": {}}, "beta_initializer": {"class_name": "Zeros", "config": {}}, "scale": false, "axis": 3, "gamma_constraint": null, "gamma_regularizer": null, "beta_regularizer": null, "momentum": 0.99, "center": true}, "inbound_nodes": [[["conv2d_473", 0, 0, {}]]], "name": "batch_normalization_473"}, {"class_name": "BatchNormalization", "config": {"beta_constraint": null, "gamma_initializer": {"class_name": "Ones", "config": {}}, "moving_mean_initializer": {"class_name": "Zeros", "config": {}}, "name": "batch_normalization_475", "epsilon": 0.001, "trainable": false, "moving_variance_initializer": {"class_name": "Ones", "config": {}}, "beta_initializer": {"class_name": "Zeros", "config": {}}, "scale": false, "axis": 3, "gamma_constraint": null, "gamma_regularizer": null, "beta_regularizer": null, "momentum": 0.99, "center": true}, "inbound_nodes": [[["conv2d_475", 0, 0, {}]]], "name": "batch_normalization_475"}, {"class_name": "BatchNormalization", "config": {"beta_constraint": null, "gamma_initializer": {"class_name": "Ones", "config": {}}, "moving_mean_initializer": {"class_name": "Zeros", "config": {}}, "name": "batch_normalization_478", "epsilon": 0.001, "trainable": false, "moving_variance_initializer": {"class_name": "Ones", "config": {}}, "beta_initializer": {"class_name": "Zeros", "config": {}}, "scale": false, "axis": 3, "gamma_constraint": null, "gamma_regularizer": null, "beta_regularizer": null, "momentum": 0.99, "center": true}, "inbound_nodes": [[["conv2d_478", 0, 0, {}]]], "name": "batch_normalization_478"}, {"class_name": "Activation", "config": {"activation": "relu", "trainable": false, "name": "activation_473"}, "inbound_nodes": [[["batch_normalization_473", 0, 0, {}]]], "name": "activation_473"}, {"class_name": "Activation", "config": {"activation": "relu", "trainable": false, "name": "activation_475"}, "inbound_nodes": [[["batch_normalization_475", 0, 0, {}]]], "name": "activation_475"}, {"class_name": "Activation", "config": {"activation": "relu", "trainable": false, "name": "activation_478"}, "inbound_nodes": [[["batch_normalization_478", 0, 0, {}]]], "name": "activation_478"}, {"class_name": "Concatenate", "config": {"trainable": false, "name": "block35_10_mixed", "axis": 3}, "inbound_nodes": [[["activation_473", 0, 0, {}], ["activation_475", 0, 0, {}], ["activation_478", 0, 0, {}]]], "name": "block35_10_mixed"}, {"class_name": "Conv2D", "config": {"kernel_constraint": null, "kernel_initializer": {"class_name": "VarianceScaling", "config": {"distribution": "uniform", "scale": 1.0, "seed": null, "mode": "fan_avg"}}, "name": "block35_10_conv", "bias_regularizer": null, "bias_constraint": null, "activation": "linear", "trainable": false, "data_format": "channels_last", "padding": "same", "strides": [1, 1], "dilation_rate": [1, 1], "kernel_regularizer": null, "filters": 320, "bias_initializer": {"class_name": "Zeros", "config": {}}, "use_bias": true, "activity_regularizer": null, "kernel_size": [1, 1]}, "inbound_nodes": [[["block35_10_mixed", 0, 0, {}]]], "name": "block35_10_conv"}, {"class_name": "Lambda", "config": {"function": ["YwIAAAACAAAAAwAAAFNgAQBzFAAAAHwAAGQBABl8AABkAgAZfAEAFBdTKAMAAABOaQAAAABpAQAA\nACgAAAAAKAIAAAB0BgAAAGlucHV0c3QFAAAAc2NhbGUoAAAAACgAAAAAc1AAAAAvdXNyL2xvY2Fs\nL2xpYi9weXRob24yLjcvZGlzdC1wYWNrYWdlcy9rZXJhc19hcHBsaWNhdGlvbnMvaW5jZXB0aW9u\nX3Jlc25ldF92Mi5weXQIAAAAPGxhbWJkYT6qAAAAdAAAAAA=\n", null, null], "name": "block35_10", "trainable": false, "function_type": "lambda", "arguments": {"scale": 0.17}, "output_shape": [15, 15, 320], "output_shape_type": "raw"}, "inbound_nodes": [[["block35_9_ac", 0, 0, {}], ["block35_10_conv", 0, 0, {}]]], "name": "block35_10"}, {"class_name": "Activation", "config": {"activation": "relu", "trainable": false, "name": "block35_10_ac"}, "inbound_nodes": [[["block35_10", 0, 0, {}]]], "name": "block35_10_ac"}, {"class_name": "Conv2D", "config": {"kernel_constraint": null, "kernel_initializer": {"class_name": "VarianceScaling", "config": {"distribution": "uniform", "scale": 1.0, "seed": null, "mode": "fan_avg"}}, "name": "conv2d_480", "bias_regularizer": null, "bias_constraint": null, "activation": "linear", "trainable": false, "data_format": "channels_last", "padding": "same", "strides": [1, 1], "dilation_rate": [1, 1], "kernel_regularizer": null, "filters": 256, "bias_initializer": {"class_name": "Zeros", "config": {}}, "use_bias": false, "activity_regularizer": null, "kernel_size": [1, 1]}, "inbound_nodes": [[["block35_10_ac", 0, 0, {}]]], "name": "conv2d_480"}, {"class_name": "BatchNormalization", "config": {"beta_constraint": null, "gamma_initializer": {"class_name": "Ones", "config": {}}, "moving_mean_initializer": {"class_name": "Zeros", "config": {}}, "name": "batch_normalization_480", "epsilon": 0.001, "trainable": false, "moving_variance_initializer": {"class_name": "Ones", "config": {}}, "beta_initializer": {"class_name": "Zeros", "config": {}}, "scale": false, "axis": 3, "gamma_constraint": null, "gamma_regularizer": null, "beta_regularizer": null, "momentum": 0.99, "center": true}, "inbound_nodes": [[["conv2d_480", 0, 0, {}]]], "name": "batch_normalization_480"}, {"class_name": "Activation", "config": {"activation": "relu", "trainable": false, "name": "activation_480"}, "inbound_nodes": [[["batch_normalization_480", 0, 0, {}]]], "name": "activation_480"}, {"class_name": "Conv2D", "config": {"kernel_constraint": null, "kernel_initializer": {"class_name": "VarianceScaling", "config": {"distribution": "uniform", "scale": 1.0, "seed": null, "mode": "fan_avg"}}, "name": "conv2d_481", "bias_regularizer": null, "bias_constraint": null, "activation": "linear", "trainable": false, "data_format": "channels_last", "padding": "same", "strides": [1, 1], "dilation_rate": [1, 1], "kernel_regularizer": null, "filters": 256, "bias_initializer": {"class_name": "Zeros", "config": {}}, "use_bias": false, "activity_regularizer": null, "kernel_size": [3, 3]}, "inbound_nodes": [[["activation_480", 0, 0, {}]]], "name": "conv2d_481"}, {"class_name": "BatchNormalization", "config": {"beta_constraint": null, "gamma_initializer": {"class_name": "Ones", "config": {}}, "moving_mean_initializer": {"class_name": "Zeros", "config": {}}, "name": "batch_normalization_481", "epsilon": 0.001, "trainable": false, "moving_variance_initializer": {"class_name": "Ones", "config": {}}, "beta_initializer": {"class_name": "Zeros", "config": {}}, "scale": false, "axis": 3, "gamma_constraint": null, "gamma_regularizer": null, "beta_regularizer": null, "momentum": 0.99, "center": true}, "inbound_nodes": [[["conv2d_481", 0, 0, {}]]], "name": "batch_normalization_481"}, {"class_name": "Activation", "config": {"activation": "relu", "trainable": false, "name": "activation_481"}, "inbound_nodes": [[["batch_normalization_481", 0, 0, {}]]], "name": "activation_481"}, {"class_name": "Conv2D", "config": {"kernel_constraint": null, "kernel_initializer": {"class_name": "VarianceScaling", "config": {"distribution": "uniform", "scale": 1.0, "seed": null, "mode": "fan_avg"}}, "name": "conv2d_479", "bias_regularizer": null, "bias_constraint": null, "activation": "linear", "trainable": false, "data_format": "channels_last", "padding": "valid", "strides": [2, 2], "dilation_rate": [1, 1], "kernel_regularizer": null, "filters": 384, "bias_initializer": {"class_name": "Zeros", "config": {}}, "use_bias": false, "activity_regularizer": null, "kernel_size": [3, 3]}, "inbound_nodes": [[["block35_10_ac", 0, 0, {}]]], "name": "conv2d_479"}, {"class_name": "Conv2D", "config": {"kernel_constraint": null, "kernel_initializer": {"class_name": "VarianceScaling", "config": {"distribution": "uniform", "scale": 1.0, "seed": null, "mode": "fan_avg"}}, "name": "conv2d_482", "bias_regularizer": null, "bias_constraint": null, "activation": "linear", "trainable": false, "data_format": "channels_last", "padding": "valid", "strides": [2, 2], "dilation_rate": [1, 1], "kernel_regularizer": null, "filters": 384, "bias_initializer": {"class_name": "Zeros", "config": {}}, "use_bias": false, "activity_regularizer": null, "kernel_size": [3, 3]}, "inbound_nodes": [[["activation_481", 0, 0, {}]]], "name": "conv2d_482"}, {"class_name": "BatchNormalization", "config": {"beta_constraint": null, "gamma_initializer": {"class_name": "Ones", "config": {}}, "moving_mean_initializer": {"class_name": "Zeros", "config": {}}, "name": "batch_normalization_479", "epsilon": 0.001, "trainable": false, "moving_variance_initializer": {"class_name": "Ones", "config": {}}, "beta_initializer": {"class_name": "Zeros", "config": {}}, "scale": false, "axis": 3, "gamma_constraint": null, "gamma_regularizer": null, "beta_regularizer": null, "momentum": 0.99, "center": true}, "inbound_nodes": [[["conv2d_479", 0, 0, {}]]], "name": "batch_normalization_479"}, {"class_name": "BatchNormalization", "config": {"beta_constraint": null, "gamma_initializer": {"class_name": "Ones", "config": {}}, "moving_mean_initializer": {"class_name": "Zeros", "config": {}}, "name": "batch_normalization_482", "epsilon": 0.001, "trainable": false, "moving_variance_initializer": {"class_name": "Ones", "config": {}}, "beta_initializer": {"class_name": "Zeros", "config": {}}, "scale": false, "axis": 3, "gamma_constraint": null, "gamma_regularizer": null, "beta_regularizer": null, "momentum": 0.99, "center": true}, "inbound_nodes": [[["conv2d_482", 0, 0, {}]]], "name": "batch_normalization_482"}, {"class_name": "Activation", "config": {"activation": "relu", "trainable": false, "name": "activation_479"}, "inbound_nodes": [[["batch_normalization_479", 0, 0, {}]]], "name": "activation_479"}, {"class_name": "Activation", "config": {"activation": "relu", "trainable": false, "name": "activation_482"}, "inbound_nodes": [[["batch_normalization_482", 0, 0, {}]]], "name": "activation_482"}, {"class_name": "MaxPooling2D", "config": {"name": "max_pooling2d_11", "trainable": false, "data_format": "channels_last", "pool_size": [3, 3], "padding": "valid", "strides": [2, 2]}, "inbound_nodes": [[["block35_10_ac", 0, 0, {}]]], "name": "max_pooling2d_11"}, {"class_name": "Concatenate", "config": {"trainable": false, "name": "mixed_6a", "axis": 3}, "inbound_nodes": [[["activation_479", 0, 0, {}], ["activation_482", 0, 0, {}], ["max_pooling2d_11", 0, 0, {}]]], "name": "mixed_6a"}, {"class_name": "Conv2D", "config": {"kernel_constraint": null, "kernel_initializer": {"class_name": "VarianceScaling", "config": {"distribution": "uniform", "scale": 1.0, "seed": null, "mode": "fan_avg"}}, "name": "conv2d_484", "bias_regularizer": null, "bias_constraint": null, "activation": "linear", "trainable": false, "data_format": "channels_last", "padding": "same", "strides": [1, 1], "dilation_rate": [1, 1], "kernel_regularizer": null, "filters": 128, "bias_initializer": {"class_name": "Zeros", "config": {}}, "use_bias": false, "activity_regularizer": null, "kernel_size": [1, 1]}, "inbound_nodes": [[["mixed_6a", 0, 0, {}]]], "name": "conv2d_484"}, {"class_name": "BatchNormalization", "config": {"beta_constraint": null, "gamma_initializer": {"class_name": "Ones", "config": {}}, "moving_mean_initializer": {"class_name": "Zeros", "config": {}}, "name": "batch_normalization_484", "epsilon": 0.001, "trainable": false, "moving_variance_initializer": {"class_name": "Ones", "config": {}}, "beta_initializer": {"class_name": "Zeros", "config": {}}, "scale": false, "axis": 3, "gamma_constraint": null, "gamma_regularizer": null, "beta_regularizer": null, "momentum": 0.99, "center": true}, "inbound_nodes": [[["conv2d_484", 0, 0, {}]]], "name": "batch_normalization_484"}, {"class_name": "Activation", "config": {"activation": "relu", "trainable": false, "name": "activation_484"}, "inbound_nodes": [[["batch_normalization_484", 0, 0, {}]]], "name": "activation_484"}, {"class_name": "Conv2D", "config": {"kernel_constraint": null, "kernel_initializer": {"class_name": "VarianceScaling", "config": {"distribution": "uniform", "scale": 1.0, "seed": null, "mode": "fan_avg"}}, "name": "conv2d_485", "bias_regularizer": null, "bias_constraint": null, "activation": "linear", "trainable": false, "data_format": "channels_last", "padding": "same", "strides": [1, 1], "dilation_rate": [1, 1], "kernel_regularizer": null, "filters": 160, "bias_initializer": {"class_name": "Zeros", "config": {}}, "use_bias": false, "activity_regularizer": null, "kernel_size": [1, 7]}, "inbound_nodes": [[["activation_484", 0, 0, {}]]], "name": "conv2d_485"}, {"class_name": "BatchNormalization", "config": {"beta_constraint": null, "gamma_initializer": {"class_name": "Ones", "config": {}}, "moving_mean_initializer": {"class_name": "Zeros", "config": {}}, "name": "batch_normalization_485", "epsilon": 0.001, "trainable": false, "moving_variance_initializer": {"class_name": "Ones", "config": {}}, "beta_initializer": {"class_name": "Zeros", "config": {}}, "scale": false, "axis": 3, "gamma_constraint": null, "gamma_regularizer": null, "beta_regularizer": null, "momentum": 0.99, "center": true}, "inbound_nodes": [[["conv2d_485", 0, 0, {}]]], "name": "batch_normalization_485"}, {"class_name": "Activation", "config": {"activation": "relu", "trainable": false, "name": "activation_485"}, "inbound_nodes": [[["batch_normalization_485", 0, 0, {}]]], "name": "activation_485"}, {"class_name": "Conv2D", "config": {"kernel_constraint": null, "kernel_initializer": {"class_name": "VarianceScaling", "config": {"distribution": "uniform", "scale": 1.0, "seed": null, "mode": "fan_avg"}}, "name": "conv2d_483", "bias_regularizer": null, "bias_constraint": null, "activation": "linear", "trainable": false, "data_format": "channels_last", "padding": "same", "strides": [1, 1], "dilation_rate": [1, 1], "kernel_regularizer": null, "filters": 192, "bias_initializer": {"class_name": "Zeros", "config": {}}, "use_bias": false, "activity_regularizer": null, "kernel_size": [1, 1]}, "inbound_nodes": [[["mixed_6a", 0, 0, {}]]], "name": "conv2d_483"}, {"class_name": "Conv2D", "config": {"kernel_constraint": null, "kernel_initializer": {"class_name": "VarianceScaling", "config": {"distribution": "uniform", "scale": 1.0, "seed": null, "mode": "fan_avg"}}, "name": "conv2d_486", "bias_regularizer": null, "bias_constraint": null, "activation": "linear", "trainable": false, "data_format": "channels_last", "padding": "same", "strides": [1, 1], "dilation_rate": [1, 1], "kernel_regularizer": null, "filters": 192, "bias_initializer": {"class_name": "Zeros", "config": {}}, "use_bias": false, "activity_regularizer": null, "kernel_size": [7, 1]}, "inbound_nodes": [[["activation_485", 0, 0, {}]]], "name": "conv2d_486"}, {"class_name": "BatchNormalization", "config": {"beta_constraint": null, "gamma_initializer": {"class_name": "Ones", "config": {}}, "moving_mean_initializer": {"class_name": "Zeros", "config": {}}, "name": "batch_normalization_483", "epsilon": 0.001, "trainable": false, "moving_variance_initializer": {"class_name": "Ones", "config": {}}, "beta_initializer": {"class_name": "Zeros", "config": {}}, "scale": false, "axis": 3, "gamma_constraint": null, "gamma_regularizer": null, "beta_regularizer": null, "momentum": 0.99, "center": true}, "inbound_nodes": [[["conv2d_483", 0, 0, {}]]], "name": "batch_normalization_483"}, {"class_name": "BatchNormalization", "config": {"beta_constraint": null, "gamma_initializer": {"class_name": "Ones", "config": {}}, "moving_mean_initializer": {"class_name": "Zeros", "config": {}}, "name": "batch_normalization_486", "epsilon": 0.001, "trainable": false, "moving_variance_initializer": {"class_name": "Ones", "config": {}}, "beta_initializer": {"class_name": "Zeros", "config": {}}, "scale": false, "axis": 3, "gamma_constraint": null, "gamma_regularizer": null, "beta_regularizer": null, "momentum": 0.99, "center": true}, "inbound_nodes": [[["conv2d_486", 0, 0, {}]]], "name": "batch_normalization_486"}, {"class_name": "Activation", "config": {"activation": "relu", "trainable": false, "name": "activation_483"}, "inbound_nodes": [[["batch_normalization_483", 0, 0, {}]]], "name": "activation_483"}, {"class_name": "Activation", "config": {"activation": "relu", "trainable": false, "name": "activation_486"}, "inbound_nodes": [[["batch_normalization_486", 0, 0, {}]]], "name": "activation_486"}, {"class_name": "Concatenate", "config": {"trainable": false, "name": "block17_1_mixed", "axis": 3}, "inbound_nodes": [[["activation_483", 0, 0, {}], ["activation_486", 0, 0, {}]]], "name": "block17_1_mixed"}, {"class_name": "Conv2D", "config": {"kernel_constraint": null, "kernel_initializer": {"class_name": "VarianceScaling", "config": {"distribution": "uniform", "scale": 1.0, "seed": null, "mode": "fan_avg"}}, "name": "block17_1_conv", "bias_regularizer": null, "bias_constraint": null, "activation": "linear", "trainable": false, "data_format": "channels_last", "padding": "same", "strides": [1, 1], "dilation_rate": [1, 1], "kernel_regularizer": null, "filters": 1088, "bias_initializer": {"class_name": "Zeros", "config": {}}, "use_bias": true, "activity_regularizer": null, "kernel_size": [1, 1]}, "inbound_nodes": [[["block17_1_mixed", 0, 0, {}]]], "name": "block17_1_conv"}, {"class_name": "Lambda", "config": {"function": ["YwIAAAACAAAAAwAAAFNgAQBzFAAAAHwAAGQBABl8AABkAgAZfAEAFBdTKAMAAABOaQAAAABpAQAA\nACgAAAAAKAIAAAB0BgAAAGlucHV0c3QFAAAAc2NhbGUoAAAAACgAAAAAc1AAAAAvdXNyL2xvY2Fs\nL2xpYi9weXRob24yLjcvZGlzdC1wYWNrYWdlcy9rZXJhc19hcHBsaWNhdGlvbnMvaW5jZXB0aW9u\nX3Jlc25ldF92Mi5weXQIAAAAPGxhbWJkYT6qAAAAdAAAAAA=\n", null, null], "name": "block17_1", "trainable": false, "function_type": "lambda", "arguments": {"scale": 0.1}, "output_shape": [7, 7, 1088], "output_shape_type": "raw"}, "inbound_nodes": [[["mixed_6a", 0, 0, {}], ["block17_1_conv", 0, 0, {}]]], "name": "block17_1"}, {"class_name": "Activation", "config": {"activation": "relu", "trainable": false, "name": "block17_1_ac"}, "inbound_nodes": [[["block17_1", 0, 0, {}]]], "name": "block17_1_ac"}, {"class_name": "Conv2D", "config": {"kernel_constraint": null, "kernel_initializer": {"class_name": "VarianceScaling", "config": {"distribution": "uniform", "scale": 1.0, "seed": null, "mode": "fan_avg"}}, "name": "conv2d_488", "bias_regularizer": null, "bias_constraint": null, "activation": "linear", "trainable": false, "data_format": "channels_last", "padding": "same", "strides": [1, 1], "dilation_rate": [1, 1], "kernel_regularizer": null, "filters": 128, "bias_initializer": {"class_name": "Zeros", "config": {}}, "use_bias": false, "activity_regularizer": null, "kernel_size": [1, 1]}, "inbound_nodes": [[["block17_1_ac", 0, 0, {}]]], "name": "conv2d_488"}, {"class_name": "BatchNormalization", "config": {"beta_constraint": null, "gamma_initializer": {"class_name": "Ones", "config": {}}, "moving_mean_initializer": {"class_name": "Zeros", "config": {}}, "name": "batch_normalization_488", "epsilon": 0.001, "trainable": false, "moving_variance_initializer": {"class_name": "Ones", "config": {}}, "beta_initializer": {"class_name": "Zeros", "config": {}}, "scale": false, "axis": 3, "gamma_constraint": null, "gamma_regularizer": null, "beta_regularizer": null, "momentum": 0.99, "center": true}, "inbound_nodes": [[["conv2d_488", 0, 0, {}]]], "name": "batch_normalization_488"}, {"class_name": "Activation", "config": {"activation": "relu", "trainable": false, "name": "activation_488"}, "inbound_nodes": [[["batch_normalization_488", 0, 0, {}]]], "name": "activation_488"}, {"class_name": "Conv2D", "config": {"kernel_constraint": null, "kernel_initializer": {"class_name": "VarianceScaling", "config": {"distribution": "uniform", "scale": 1.0, "seed": null, "mode": "fan_avg"}}, "name": "conv2d_489", "bias_regularizer": null, "bias_constraint": null, "activation": "linear", "trainable": false, "data_format": "channels_last", "padding": "same", "strides": [1, 1], "dilation_rate": [1, 1], "kernel_regularizer": null, "filters": 160, "bias_initializer": {"class_name": "Zeros", "config": {}}, "use_bias": false, "activity_regularizer": null, "kernel_size": [1, 7]}, "inbound_nodes": [[["activation_488", 0, 0, {}]]], "name": "conv2d_489"}, {"class_name": "BatchNormalization", "config": {"beta_constraint": null, "gamma_initializer": {"class_name": "Ones", "config": {}}, "moving_mean_initializer": {"class_name": "Zeros", "config": {}}, "name": "batch_normalization_489", "epsilon": 0.001, "trainable": false, "moving_variance_initializer": {"class_name": "Ones", "config": {}}, "beta_initializer": {"class_name": "Zeros", "config": {}}, "scale": false, "axis": 3, "gamma_constraint": null, "gamma_regularizer": null, "beta_regularizer": null, "momentum": 0.99, "center": true}, "inbound_nodes": [[["conv2d_489", 0, 0, {}]]], "name": "batch_normalization_489"}, {"class_name": "Activation", "config": {"activation": "relu", "trainable": false, "name": "activation_489"}, "inbound_nodes": [[["batch_normalization_489", 0, 0, {}]]], "name": "activation_489"}, {"class_name": "Conv2D", "config": {"kernel_constraint": null, "kernel_initializer": {"class_name": "VarianceScaling", "config": {"distribution": "uniform", "scale": 1.0, "seed": null, "mode": "fan_avg"}}, "name": "conv2d_487", "bias_regularizer": null, "bias_constraint": null, "activation": "linear", "trainable": false, "data_format": "channels_last", "padding": "same", "strides": [1, 1], "dilation_rate": [1, 1], "kernel_regularizer": null, "filters": 192, "bias_initializer": {"class_name": "Zeros", "config": {}}, "use_bias": false, "activity_regularizer": null, "kernel_size": [1, 1]}, "inbound_nodes": [[["block17_1_ac", 0, 0, {}]]], "name": "conv2d_487"}, {"class_name": "Conv2D", "config": {"kernel_constraint": null, "kernel_initializer": {"class_name": "VarianceScaling", "config": {"distribution": "uniform", "scale": 1.0, "seed": null, "mode": "fan_avg"}}, "name": "conv2d_490", "bias_regularizer": null, "bias_constraint": null, "activation": "linear", "trainable": false, "data_format": "channels_last", "padding": "same", "strides": [1, 1], "dilation_rate": [1, 1], "kernel_regularizer": null, "filters": 192, "bias_initializer": {"class_name": "Zeros", "config": {}}, "use_bias": false, "activity_regularizer": null, "kernel_size": [7, 1]}, "inbound_nodes": [[["activation_489", 0, 0, {}]]], "name": "conv2d_490"}, {"class_name": "BatchNormalization", "config": {"beta_constraint": null, "gamma_initializer": {"class_name": "Ones", "config": {}}, "moving_mean_initializer": {"class_name": "Zeros", "config": {}}, "name": "batch_normalization_487", "epsilon": 0.001, "trainable": false, "moving_variance_initializer": {"class_name": "Ones", "config": {}}, "beta_initializer": {"class_name": "Zeros", "config": {}}, "scale": false, "axis": 3, "gamma_constraint": null, "gamma_regularizer": null, "beta_regularizer": null, "momentum": 0.99, "center": true}, "inbound_nodes": [[["conv2d_487", 0, 0, {}]]], "name": "batch_normalization_487"}, {"class_name": "BatchNormalization", "config": {"beta_constraint": null, "gamma_initializer": {"class_name": "Ones", "config": {}}, "moving_mean_initializer": {"class_name": "Zeros", "config": {}}, "name": "batch_normalization_490", "epsilon": 0.001, "trainable": false, "moving_variance_initializer": {"class_name": "Ones", "config": {}}, "beta_initializer": {"class_name": "Zeros", "config": {}}, "scale": false, "axis": 3, "gamma_constraint": null, "gamma_regularizer": null, "beta_regularizer": null, "momentum": 0.99, "center": true}, "inbound_nodes": [[["conv2d_490", 0, 0, {}]]], "name": "batch_normalization_490"}, {"class_name": "Activation", "config": {"activation": "relu", "trainable": false, "name": "activation_487"}, "inbound_nodes": [[["batch_normalization_487", 0, 0, {}]]], "name": "activation_487"}, {"class_name": "Activation", "config": {"activation": "relu", "trainable": false, "name": "activation_490"}, "inbound_nodes": [[["batch_normalization_490", 0, 0, {}]]], "name": "activation_490"}, {"class_name": "Concatenate", "config": {"trainable": false, "name": "block17_2_mixed", "axis": 3}, "inbound_nodes": [[["activation_487", 0, 0, {}], ["activation_490", 0, 0, {}]]], "name": "block17_2_mixed"}, {"class_name": "Conv2D", "config": {"kernel_constraint": null, "kernel_initializer": {"class_name": "VarianceScaling", "config": {"distribution": "uniform", "scale": 1.0, "seed": null, "mode": "fan_avg"}}, "name": "block17_2_conv", "bias_regularizer": null, "bias_constraint": null, "activation": "linear", "trainable": false, "data_format": "channels_last", "padding": "same", "strides": [1, 1], "dilation_rate": [1, 1], "kernel_regularizer": null, "filters": 1088, "bias_initializer": {"class_name": "Zeros", "config": {}}, "use_bias": true, "activity_regularizer": null, "kernel_size": [1, 1]}, "inbound_nodes": [[["block17_2_mixed", 0, 0, {}]]], "name": "block17_2_conv"}, {"class_name": "Lambda", "config": {"function": ["YwIAAAACAAAAAwAAAFNgAQBzFAAAAHwAAGQBABl8AABkAgAZfAEAFBdTKAMAAABOaQAAAABpAQAA\nACgAAAAAKAIAAAB0BgAAAGlucHV0c3QFAAAAc2NhbGUoAAAAACgAAAAAc1AAAAAvdXNyL2xvY2Fs\nL2xpYi9weXRob24yLjcvZGlzdC1wYWNrYWdlcy9rZXJhc19hcHBsaWNhdGlvbnMvaW5jZXB0aW9u\nX3Jlc25ldF92Mi5weXQIAAAAPGxhbWJkYT6qAAAAdAAAAAA=\n", null, null], "name": "block17_2", "trainable": false, "function_type": "lambda", "arguments": {"scale": 0.1}, "output_shape": [7, 7, 1088], "output_shape_type": "raw"}, "inbound_nodes": [[["block17_1_ac", 0, 0, {}], ["block17_2_conv", 0, 0, {}]]], "name": "block17_2"}, {"class_name": "Activation", "config": {"activation": "relu", "trainable": false, "name": "block17_2_ac"}, "inbound_nodes": [[["block17_2", 0, 0, {}]]], "name": "block17_2_ac"}, {"class_name": "Conv2D", "config": {"kernel_constraint": null, "kernel_initializer": {"class_name": "VarianceScaling", "config": {"distribution": "uniform", "scale": 1.0, "seed": null, "mode": "fan_avg"}}, "name": "conv2d_492", "bias_regularizer": null, "bias_constraint": null, "activation": "linear", "trainable": false, "data_format": "channels_last", "padding": "same", "strides": [1, 1], "dilation_rate": [1, 1], "kernel_regularizer": null, "filters": 128, "bias_initializer": {"class_name": "Zeros", "config": {}}, "use_bias": false, "activity_regularizer": null, "kernel_size": [1, 1]}, "inbound_nodes": [[["block17_2_ac", 0, 0, {}]]], "name": "conv2d_492"}, {"class_name": "BatchNormalization", "config": {"beta_constraint": null, "gamma_initializer": {"class_name": "Ones", "config": {}}, "moving_mean_initializer": {"class_name": "Zeros", "config": {}}, "name": "batch_normalization_492", "epsilon": 0.001, "trainable": false, "moving_variance_initializer": {"class_name": "Ones", "config": {}}, "beta_initializer": {"class_name": "Zeros", "config": {}}, "scale": false, "axis": 3, "gamma_constraint": null, "gamma_regularizer": null, "beta_regularizer": null, "momentum": 0.99, "center": true}, "inbound_nodes": [[["conv2d_492", 0, 0, {}]]], "name": "batch_normalization_492"}, {"class_name": "Activation", "config": {"activation": "relu", "trainable": false, "name": "activation_492"}, "inbound_nodes": [[["batch_normalization_492", 0, 0, {}]]], "name": "activation_492"}, {"class_name": "Conv2D", "config": {"kernel_constraint": null, "kernel_initializer": {"class_name": "VarianceScaling", "config": {"distribution": "uniform", "scale": 1.0, "seed": null, "mode": "fan_avg"}}, "name": "conv2d_493", "bias_regularizer": null, "bias_constraint": null, "activation": "linear", "trainable": false, "data_format": "channels_last", "padding": "same", "strides": [1, 1], "dilation_rate": [1, 1], "kernel_regularizer": null, "filters": 160, "bias_initializer": {"class_name": "Zeros", "config": {}}, "use_bias": false, "activity_regularizer": null, "kernel_size": [1, 7]}, "inbound_nodes": [[["activation_492", 0, 0, {}]]], "name": "conv2d_493"}, {"class_name": "BatchNormalization", "config": {"beta_constraint": null, "gamma_initializer": {"class_name": "Ones", "config": {}}, "moving_mean_initializer": {"class_name": "Zeros", "config": {}}, "name": "batch_normalization_493", "epsilon": 0.001, "trainable": false, "moving_variance_initializer": {"class_name": "Ones", "config": {}}, "beta_initializer": {"class_name": "Zeros", "config": {}}, "scale": false, "axis": 3, "gamma_constraint": null, "gamma_regularizer": null, "beta_regularizer": null, "momentum": 0.99, "center": true}, "inbound_nodes": [[["conv2d_493", 0, 0, {}]]], "name": "batch_normalization_493"}, {"class_name": "Activation", "config": {"activation": "relu", "trainable": false, "name": "activation_493"}, "inbound_nodes": [[["batch_normalization_493", 0, 0, {}]]], "name": "activation_493"}, {"class_name": "Conv2D", "config": {"kernel_constraint": null, "kernel_initializer": {"cla…
ibution": "uniform", "scale": 1.0, "seed": null, "mode": "fan_avg"}}, "name": "block8_4_conv", "bias_regularizer": null, "bias_constraint": null, "activation": "linear", "trainable": false, "data_format": "channels_last", "padding": "same", "strides": [1, 1], "dilation_rate": [1, 1], "kernel_regularizer": null, "filters": 2080, "bias_initializer": {"class_name": "Zeros", "config": {}}, "use_bias": true, "activity_regularizer": null, "kernel_size": [1, 1]}, "inbound_nodes": [[["block8_4_mixed", 0, 0, {}]]], "name": "block8_4_conv"}, {"class_name": "Lambda", "config": {"function": ["YwIAAAACAAAAAwAAAFNgAQBzFAAAAHwAAGQBABl8AABkAgAZfAEAFBdTKAMAAABOaQAAAABpAQAA\nACgAAAAAKAIAAAB0BgAAAGlucHV0c3QFAAAAc2NhbGUoAAAAACgAAAAAc1AAAAAvdXNyL2xvY2Fs\nL2xpYi9weXRob24yLjcvZGlzdC1wYWNrYWdlcy9rZXJhc19hcHBsaWNhdGlvbnMvaW5jZXB0aW9u\nX3Jlc25ldF92Mi5weXQIAAAAPGxhbWJkYT6qAAAAdAAAAAA=\n", null, null], "name": "block8_4", "trainable": false, "function_type": "lambda", "arguments": {"scale": 0.2}, "output_shape": [3, 3, 2080], "output_shape_type": "raw"}, "inbound_nodes": [[["block8_3_ac", 0, 0, {}], ["block8_4_conv", 0, 0, {}]]], "name": "block8_4"}, {"class_name": "Activation", "config": {"activation": "relu", "trainable": false, "name": "block8_4_ac"}, "inbound_nodes": [[["block8_4", 0, 0, {}]]], "name": "block8_4_ac"}, {"class_name": "Conv2D", "config": {"kernel_constraint": null, "kernel_initializer": {"class_name": "VarianceScaling", "config": {"distribution": "uniform", "scale": 1.0, "seed": null, "mode": "fan_avg"}}, "name": "conv2d_587", "bias_regularizer": null, "bias_constraint": null, "activation": "linear", "trainable": false, "data_format": "channels_last", "padding": "same", "strides": [1, 1], "dilation_rate": [1, 1], "kernel_regularizer": null, "filters": 192, "bias_initializer": {"class_name": "Zeros", "config": {}}, "use_bias": false, "activity_regularizer": null, "kernel_size": [1, 1]}, "inbound_nodes": [[["block8_4_ac", 0, 0, {}]]], "name": "conv2d_587"}, {"class_name": "BatchNormalization", "config": {"beta_constraint": null, "gamma_initializer": {"class_name": "Ones", "config": {}}, "moving_mean_initializer": {"class_name": "Zeros", "config": {}}, "name": "batch_normalization_587", "epsilon": 0.001, "trainable": false, "moving_variance_initializer": {"class_name": "Ones", "config": {}}, "beta_initializer": {"class_name": "Zeros", "config": {}}, "scale": false, "axis": 3, "gamma_constraint": null, "gamma_regularizer": null, "beta_regularizer": null, "momentum": 0.99, "center": true}, "inbound_nodes": [[["conv2d_587", 0, 0, {}]]], "name": "batch_normalization_587"}, {"class_name": "Activation", "config": {"activation": "relu", "trainable": false, "name": "activation_587"}, "inbound_nodes": [[["batch_normalization_587", 0, 0, {}]]], "name": "activation_587"}, {"class_name": "Conv2D", "config": {"kernel_constraint": null, "kernel_initializer": {"class_name": "VarianceScaling", "config": {"distribution": "uniform", "scale": 1.0, "seed": null, "mode": "fan_avg"}}, "name": "conv2d_588", "bias_regularizer": null, "bias_constraint": null, "activation": "linear", "trainable": false, "data_format": "channels_last", "padding": "same", "strides": [1, 1], "dilation_rate": [1, 1], "kernel_regularizer": null, "filters": 224, "bias_initializer": {"class_name": "Zeros", "config": {}}, "use_bias": false, "activity_regularizer": null, "kernel_size": [1, 3]}, "inbound_nodes": [[["activation_587", 0, 0, {}]]], "name": "conv2d_588"}, {"class_name": "BatchNormalization", "config": {"beta_constraint": null, "gamma_initializer": {"class_name": "Ones", "config": {}}, "moving_mean_initializer": {"class_name": "Zeros", "config": {}}, "name": "batch_normalization_588", "epsilon": 0.001, "trainable": false, "moving_variance_initializer": {"class_name": "Ones", "config": {}}, "beta_initializer": {"class_name": "Zeros", "config": {}}, "scale": false, "axis": 3, "gamma_constraint": null, "gamma_regularizer": null, "beta_regularizer": null, "momentum": 0.99, "center": true}, "inbound_nodes": [[["conv2d_588", 0, 0, {}]]], "name": "batch_normalization_588"}, {"class_name": "Activation", "config": {"activation": "relu", "trainable": false, "name": "activation_588"}, "inbound_nodes": [[["batch_normalization_588", 0, 0, {}]]], "name": "activation_588"}, {"class_name": "Conv2D", "config": {"kernel_constraint": null, "kernel_initializer": {"class_name": "VarianceScaling", "config": {"distribution": "uniform", "scale": 1.0, "seed": null, "mode": "fan_avg"}}, "name": "conv2d_586", "bias_regularizer": null, "bias_constraint": null, "activation": "linear", "trainable": false, "data_format": "channels_last", "padding": "same", "strides": [1, 1], "dilation_rate": [1, 1], "kernel_regularizer": null, "filters": 192, "bias_initializer": {"class_name": "Zeros", "config": {}}, "use_bias": false, "activity_regularizer": null, "kernel_size": [1, 1]}, "inbound_nodes": [[["block8_4_ac", 0, 0, {}]]], "name": "conv2d_586"}, {"class_name": "Conv2D", "config": {"kernel_constraint": null, "kernel_initializer": {"class_name": "VarianceScaling", "config": {"distribution": "uniform", "scale": 1.0, "seed": null, "mode": "fan_avg"}}, "name": "conv2d_589", "bias_regularizer": null, "bias_constraint": null, "activation": "linear", "trainable": false, "data_format": "channels_last", "padding": "same", "strides": [1, 1], "dilation_rate": [1, 1], "kernel_regularizer": null, "filters": 256, "bias_initializer": {"class_name": "Zeros", "config": {}}, "use_bias": false, "activity_regularizer": null, "kernel_size": [3, 1]}, "inbound_nodes": [[["activation_588", 0, 0, {}]]], "name": "conv2d_589"}, {"class_name": "BatchNormalization", "config": {"beta_constraint": null, "gamma_initializer": {"class_name": "Ones", "config": {}}, "moving_mean_initializer": {"class_name": "Zeros", "config": {}}, "name": "batch_normalization_586", "epsilon": 0.001, "trainable": false, "moving_variance_initializer": {"class_name": "Ones", "config": {}}, "beta_initializer": {"class_name": "Zeros", "config": {}}, "scale": false, "axis": 3, "gamma_constraint": null, "gamma_regularizer": null, "beta_regularizer": null, "momentum": 0.99, "center": true}, "inbound_nodes": [[["conv2d_586", 0, 0, {}]]], "name": "batch_normalization_586"}, {"class_name": "BatchNormalization", "config": {"beta_constraint": null, "gamma_initializer": {"class_name": "Ones", "config": {}}, "moving_mean_initializer": {"class_name": "Zeros", "config": {}}, "name": "batch_normalization_589", "epsilon": 0.001, "trainable": false, "moving_variance_initializer": {"class_name": "Ones", "config": {}}, "beta_initializer": {"class_name": "Zeros", "config": {}}, "scale": false, "axis": 3, "gamma_constraint": null, "gamma_regularizer": null, "beta_regularizer": null, "momentum": 0.99, "center": true}, "inbound_nodes": [[["conv2d_589", 0, 0, {}]]], "name": "batch_normalization_589"}, {"class_name": "Activation", "config": {"activation": "relu", "trainable": false, "name": "activation_586"}, "inbound_nodes": [[["batch_normalization_586", 0, 0, {}]]], "name": "activation_586"}, {"class_name": "Activation", "config": {"activation": "relu", "trainable": false, "name": "activation_589"}, "inbound_nodes": [[["batch_normalization_589", 0, 0, {}]]], "name": "activation_589"}, {"class_name": "Concatenate", "config": {"trainable": false, "name": "block8_5_mixed", "axis": 3}, "inbound_nodes": [[["activation_586", 0, 0, {}], ["activation_589", 0, 0, {}]]], "name": "block8_5_mixed"}, {"class_name": "Conv2D", "config": {"kernel_constraint": null, "kernel_initializer": {"class_name": "VarianceScaling", "config": {"distribution": "uniform", "scale": 1.0, "seed": null, "mode": "fan_avg"}}, "name": "block8_5_conv", "bias_regularizer": null, "bias_constraint": null, "activation": "linear", "trainable": false, "data_format": "channels_last", "padding": "same", "strides": [1, 1], "dilation_rate": [1, 1], "kernel_regularizer": null, "filters": 2080, "bias_initializer": {"class_name": "Zeros", "config": {}}, "use_bias": true, "activity_regularizer": null, "kernel_size": [1, 1]}, "inbound_nodes": [[["block8_5_mixed", 0, 0, {}]]], "name": "block8_5_conv"}, {"class_name": "Lambda", "config": {"function": ["YwIAAAACAAAAAwAAAFNgAQBzFAAAAHwAAGQBABl8AABkAgAZfAEAFBdTKAMAAABOaQAAAABpAQAA\nACgAAAAAKAIAAAB0BgAAAGlucHV0c3QFAAAAc2NhbGUoAAAAACgAAAAAc1AAAAAvdXNyL2xvY2Fs\nL2xpYi9weXRob24yLjcvZGlzdC1wYWNrYWdlcy9rZXJhc19hcHBsaWNhdGlvbnMvaW5jZXB0aW9u\nX3Jlc25ldF92Mi5weXQIAAAAPGxhbWJkYT6qAAAAdAAAAAA=\n", null, null], "name": "block8_5", "trainable": false, "function_type": "lambda", "arguments": {"scale": 0.2}, "output_shape": [3, 3, 2080], "output_shape_type": "raw"}, "inbound_nodes": [[["block8_4_ac", 0, 0, {}], ["block8_5_conv", 0, 0, {}]]], "name": "block8_5"}, {"class_name": "Activation", "config": {"activation": "relu", "trainable": false, "name": "block8_5_ac"}, "inbound_nodes": [[["block8_5", 0, 0, {}]]], "name": "block8_5_ac"}, {"class_name": "Conv2D", "config": {"kernel_constraint": null, "kernel_initializer": {"class_name": "VarianceScaling", "config": {"distribution": "uniform", "scale": 1.0, "seed": null, "mode": "fan_avg"}}, "name": "conv2d_591", "bias_regularizer": null, "bias_constraint": null, "activation": "linear", "trainable": false, "data_format": "channels_last", "padding": "same", "strides": [1, 1], "dilation_rate": [1, 1], "kernel_regularizer": null, "filters": 192, "bias_initializer": {"class_name": "Zeros", "config": {}}, "use_bias": false, "activity_regularizer": null, "kernel_size": [1, 1]}, "inbound_nodes": [[["block8_5_ac", 0, 0, {}]]], "name": "conv2d_591"}, {"class_name": "BatchNormalization", "config": {"beta_constraint": null, "gamma_initializer": {"class_name": "Ones", "config": {}}, "moving_mean_initializer": {"class_name": "Zeros", "config": {}}, "name": "batch_normalization_591", "epsilon": 0.001, "trainable": false, "moving_variance_initializer": {"class_name": "Ones", "config": {}}, "beta_initializer": {"class_name": "Zeros", "config": {}}, "scale": false, "axis": 3, "gamma_constraint": null, "gamma_regularizer": null, "beta_regularizer": null, "momentum": 0.99, "center": true}, "inbound_nodes": [[["conv2d_591", 0, 0, {}]]], "name": "batch_normalization_591"}, {"class_name": "Activation", "config": {"activation": "relu", "trainable": false, "name": "activation_591"}, "inbound_nodes": [[["batch_normalization_591", 0, 0, {}]]], "name": "activation_591"}, {"class_name": "Conv2D", "config": {"kernel_constraint": null, "kernel_initializer": {"class_name": "VarianceScaling", "config": {"distribution": "uniform", "scale": 1.0, "seed": null, "mode": "fan_avg"}}, "name": "conv2d_592", "bias_regularizer": null, "bias_constraint": null, "activation": "linear", "trainable": false, "data_format": "channels_last", "padding": "same", "strides": [1, 1], "dilation_rate": [1, 1], "kernel_regularizer": null, "filters": 224, "bias_initializer": {"class_name": "Zeros", "config": {}}, "use_bias": false, "activity_regularizer": null, "kernel_size": [1, 3]}, "inbound_nodes": [[["activation_591", 0, 0, {}]]], "name": "conv2d_592"}, {"class_name": "BatchNormalization", "config": {"beta_constraint": null, "gamma_initializer": {"class_name": "Ones", "config": {}}, "moving_mean_initializer": {"class_name": "Zeros", "config": {}}, "name": "batch_normalization_592", "epsilon": 0.001, "trainable": false, "moving_variance_initializer": {"class_name": "Ones", "config": {}}, "beta_initializer": {"class_name": "Zeros", "config": {}}, "scale": false, "axis": 3, "gamma_constraint": null, "gamma_regularizer": null, "beta_regularizer": null, "momentum": 0.99, "center": true}, "inbound_nodes": [[["conv2d_592", 0, 0, {}]]], "name": "batch_normalization_592"}, {"class_name": "Activation", "config": {"activation": "relu", "trainable": false, "name": "activation_592"}, "inbound_nodes": [[["batch_normalization_592", 0, 0, {}]]], "name": "activation_592"}, {"class_name": "Conv2D", "config": {"kernel_constraint": null, "kernel_initializer": {"class_name": "VarianceScaling", "config": {"distribution": "uniform", "scale": 1.0, "seed": null, "mode": "fan_avg"}}, "name": "conv2d_590", "bias_regularizer": null, "bias_constraint": null, "activation": "linear", "trainable": false, "data_format": "channels_last", "padding": "same", "strides": [1, 1], "dilation_rate": [1, 1], "kernel_regularizer": null, "filters": 192, "bias_initializer": {"class_name": "Zeros", "config": {}}, "use_bias": false, "activity_regularizer": null, "kernel_size": [1, 1]}, "inbound_nodes": [[["block8_5_ac", 0, 0, {}]]], "name": "conv2d_590"}, {"class_name": "Conv2D", "config": {"kernel_constraint": null, "kernel_initializer": {"class_name": "VarianceScaling", "config": {"distribution": "uniform", "scale": 1.0, "seed": null, "mode": "fan_avg"}}, "name": "conv2d_593", "bias_regularizer": null, "bias_constraint": null, "activation": "linear", "trainable": false, "data_format": "channels_last", "padding": "same", "strides": [1, 1], "dilation_rate": [1, 1], "kernel_regularizer": null, "filters": 256, "bias_initializer": {"class_name": "Zeros", "config": {}}, "use_bias": false, "activity_regularizer": null, "kernel_size": [3, 1]}, "inbound_nodes": [[["activation_592", 0, 0, {}]]], "name": "conv2d_593"}, {"class_name": "BatchNormalization", "config": {"beta_constraint": null, "gamma_initializer": {"class_name": "Ones", "config": {}}, "moving_mean_initializer": {"class_name": "Zeros", "config": {}}, "name": "batch_normalization_590", "epsilon": 0.001, "trainable": false, "moving_variance_initializer": {"class_name": "Ones", "config": {}}, "beta_initializer": {"class_name": "Zeros", "config": {}}, "scale": false, "axis": 3, "gamma_constraint": null, "gamma_regularizer": null, "beta_regularizer": null, "momentum": 0.99, "center": true}, "inbound_nodes": [[["conv2d_590", 0, 0, {}]]], "name": "batch_normalization_590"}, {"class_name": "BatchNormalization", "config": {"beta_constraint": null, "gamma_initializer": {"class_name": "Ones", "config": {}}, "moving_mean_initializer": {"class_name": "Zeros", "config": {}}, "name": "batch_normalization_593", "epsilon": 0.001, "trainable": false, "moving_variance_initializer": {"class_name": "Ones", "config": {}}, "beta_initializer": {"class_name": "Zeros", "config": {}}, "scale": false, "axis": 3, "gamma_constraint": null, "gamma_regularizer": null, "beta_regularizer": null, "momentum": 0.99, "center": true}, "inbound_nodes": [[["conv2d_593", 0, 0, {}]]], "name": "batch_normalization_593"}, {"class_name": "Activation", "config": {"activation": "relu", "trainable": false, "name": "activation_590"}, "inbound_nodes": [[["batch_normalization_590", 0, 0, {}]]], "name": "activation_590"}, {"class_name": "Activation", "config": {"activation": "relu", "trainable": false, "name": "activation_593"}, "inbound_nodes": [[["batch_normalization_593", 0, 0, {}]]], "name": "activation_593"}, {"class_name": "Concatenate", "config": {"trainable": false, "name": "block8_6_mixed", "axis": 3}, "inbound_nodes": [[["activation_590", 0, 0, {}], ["activation_593", 0, 0, {}]]], "name": "block8_6_mixed"}, {"class_name": "Conv2D", "config": {"kernel_constraint": null, "kernel_initializer": {"class_name": "VarianceScaling", "config": {"distribution": "uniform", "scale": 1.0, "seed": null, "mode": "fan_avg"}}, "name": "block8_6_conv", "bias_regularizer": null, "bias_constraint": null, "activation": "linear", "trainable": false, "data_format": "channels_last", "padding": "same", "strides": [1, 1], "dilation_rate": [1, 1], "kernel_regularizer": null, "filters": 2080, "bias_initializer": {"class_name": "Zeros", "config": {}}, "use_bias": true, "activity_regularizer": null, "kernel_size": [1, 1]}, "inbound_nodes": [[["block8_6_mixed", 0, 0, {}]]], "name": "block8_6_conv"}, {"class_name": "Lambda", "config": {"function": ["YwIAAAACAAAAAwAAAFNgAQBzFAAAAHwAAGQBABl8AABkAgAZfAEAFBdTKAMAAABOaQAAAABpAQAA\nACgAAAAAKAIAAAB0BgAAAGlucHV0c3QFAAAAc2NhbGUoAAAAACgAAAAAc1AAAAAvdXNyL2xvY2Fs\nL2xpYi9weXRob24yLjcvZGlzdC1wYWNrYWdlcy9rZXJhc19hcHBsaWNhdGlvbnMvaW5jZXB0aW9u\nX3Jlc25ldF92Mi5weXQIAAAAPGxhbWJkYT6qAAAAdAAAAAA=\n", null, null], "name": "block8_6", "trainable": false, "function_type": "lambda", "arguments": {"scale": 0.2}, "output_shape": [3, 3, 2080], "output_shape_type": "raw"}, "inbound_nodes": [[["block8_5_ac", 0, 0, {}], ["block8_6_conv", 0, 0, {}]]], "name": "block8_6"}, {"class_name": "Activation", "config": {"activation": "relu", "trainable": false, "name": "block8_6_ac"}, "inbound_nodes": [[["block8_6", 0, 0, {}]]], "name": "block8_6_ac"}, {"class_name": "Conv2D", "config": {"kernel_constraint": null, "kernel_initializer": {"class_name": "VarianceScaling", "config": {"distribution": "uniform", "scale": 1.0, "seed": null, "mode": "fan_avg"}}, "name": "conv2d_595", "bias_regularizer": null, "bias_constraint": null, "activation": "linear", "trainable": false, "data_format": "channels_last", "padding": "same", "strides": [1, 1], "dilation_rate": [1, 1], "kernel_regularizer": null, "filters": 192, "bias_initializer": {"class_name": "Zeros", "config": {}}, "use_bias": false, "activity_regularizer": null, "kernel_size": [1, 1]}, "inbound_nodes": [[["block8_6_ac", 0, 0, {}]]], "name": "conv2d_595"}, {"class_name": "BatchNormalization", "config": {"beta_constraint": null, "gamma_initializer": {"class_name": "Ones", "config": {}}, "moving_mean_initializer": {"class_name": "Zeros", "config": {}}, "name": "batch_normalization_595", "epsilon": 0.001, "trainable": false, "moving_variance_initializer": {"class_name": "Ones", "config": {}}, "beta_initializer": {"class_name": "Zeros", "config": {}}, "scale": false, "axis": 3, "gamma_constraint": null, "gamma_regularizer": null, "beta_regularizer": null, "momentum": 0.99, "center": true}, "inbound_nodes": [[["conv2d_595", 0, 0, {}]]], "name": "batch_normalization_595"}, {"class_name": "Activation", "config": {"activation": "relu", "trainable": false, "name": "activation_595"}, "inbound_nodes": [[["batch_normalization_595", 0, 0, {}]]], "name": "activation_595"}, {"class_name": "Conv2D", "config": {"kernel_constraint": null, "kernel_initializer": {"class_name": "VarianceScaling", "config": {"distribution": "uniform", "scale": 1.0, "seed": null, "mode": "fan_avg"}}, "name": "conv2d_596", "bias_regularizer": null, "bias_constraint": null, "activation": "linear", "trainable": false, "data_format": "channels_last", "padding": "same", "strides": [1, 1], "dilation_rate": [1, 1], "kernel_regularizer": null, "filters": 224, "bias_initializer": {"class_name": "Zeros", "config": {}}, "use_bias": false, "activity_regularizer": null, "kernel_size": [1, 3]}, "inbound_nodes": [[["activation_595", 0, 0, {}]]], "name": "conv2d_596"}, {"class_name": "BatchNormalization", "config": {"beta_constraint": null, "gamma_initializer": {"class_name": "Ones", "config": {}}, "moving_mean_initializer": {"class_name": "Zeros", "config": {}}, "name": "batch_normalization_596", "epsilon": 0.001, "trainable": false, "moving_variance_initializer": {"class_name": "Ones", "config": {}}, "beta_initializer": {"class_name": "Zeros", "config": {}}, "scale": false, "axis": 3, "gamma_constraint": null, "gamma_regularizer": null, "beta_regularizer": null, "momentum": 0.99, "center": true}, "inbound_nodes": [[["conv2d_596", 0, 0, {}]]], "name": "batch_normalization_596"}, {"class_name": "Activation", "config": {"activation": "relu", "trainable": false, "name": "activation_596"}, "inbound_nodes": [[["batch_normalization_596", 0, 0, {}]]], "name": "activation_596"}, {"class_name": "Conv2D", "config": {"kernel_constraint": null, "kernel_initializer": {"class_name": "VarianceScaling", "config": {"distribution": "uniform", "scale": 1.0, "seed": null, "mode": "fan_avg"}}, "name": "conv2d_594", "bias_regularizer": null, "bias_constraint": null, "activation": "linear", "trainable": false, "data_format": "channels_last", "padding": "same", "strides": [1, 1], "dilation_rate": [1, 1], "kernel_regularizer": null, "filters": 192, "bias_initializer": {"class_name": "Zeros", "config": {}}, "use_bias": false, "activity_regularizer": null, "kernel_size": [1, 1]}, "inbound_nodes": [[["block8_6_ac", 0, 0, {}]]], "name": "conv2d_594"}, {"class_name": "Conv2D", "config": {"kernel_constraint": null, "kernel_initializer": {"class_name": "VarianceScaling", "config": {"distribution": "uniform", "scale": 1.0, "seed": null, "mode": "fan_avg"}}, "name": "conv2d_597", "bias_regularizer": null, "bias_constraint": null, "activation": "linear", "trainable": false, "data_format": "channels_last", "padding": "same", "strides": [1, 1], "dilation_rate": [1, 1], "kernel_regularizer": null, "filters": 256, "bias_initializer": {"class_name": "Zeros", "config": {}}, "use_bias": false, "activity_regularizer": null, "kernel_size": [3, 1]}, "inbound_nodes": [[["activation_596", 0, 0, {}]]], "name": "conv2d_597"}, {"class_name": "BatchNormalization", "config": {"beta_constraint": null, "gamma_initializer": {"class_name": "Ones", "config": {}}, "moving_mean_initializer": {"class_name": "Zeros", "config": {}}, "name": "batch_normalization_594", "epsilon": 0.001, "trainable": false, "moving_variance_initializer": {"class_name": "Ones", "config": {}}, "beta_initializer": {"class_name": "Zeros", "config": {}}, "scale": false, "axis": 3, "gamma_constraint": null, "gamma_regularizer": null, "beta_regularizer": null, "momentum": 0.99, "center": true}, "inbound_nodes": [[["conv2d_594", 0, 0, {}]]], "name": "batch_normalization_594"}, {"class_name": "BatchNormalization", "config": {"beta_constraint": null, "gamma_initializer": {"class_name": "Ones", "config": {}}, "moving_mean_initializer": {"class_name": "Zeros", "config": {}}, "name": "batch_normalization_597", "epsilon": 0.001, "trainable": false, "moving_variance_initializer": {"class_name": "Ones", "config": {}}, "beta_initializer": {"class_name": "Zeros", "config": {}}, "scale": false, "axis": 3, "gamma_constraint": null, "gamma_regularizer": null, "beta_regularizer": null, "momentum": 0.99, "center": true}, "inbound_nodes": [[["conv2d_597", 0, 0, {}]]], "name": "batch_normalization_597"}, {"class_name": "Activation", "config": {"activation": "relu", "trainable": false, "name": "activation_594"}, "inbound_nodes": [[["batch_normalization_594", 0, 0, {}]]], "name": "activation_594"}, {"class_name": "Activation", "config": {"activation": "relu", "trainable": false, "name": "activation_597"}, "inbound_nodes": [[["batch_normalization_597", 0, 0, {}]]], "name": "activation_597"}, {"class_name": "Concatenate", "config": {"trainable": false, "name": "block8_7_mixed", "axis": 3}, "inbound_nodes": [[["activation_594", 0, 0, {}], ["activation_597", 0, 0, {}]]], "name": "block8_7_mixed"}, {"class_name": "Conv2D", "config": {"kernel_constraint": null, "kernel_initializer": {"class_name": "VarianceScaling", "config": {"distribution": "uniform", "scale": 1.0, "seed": null, "mode": "fan_avg"}}, "name": "block8_7_conv", "bias_regularizer": null, "bias_constraint": null, "activation": "linear", "trainable": false, "data_format": "channels_last", "padding": "same", "strides": [1, 1], "dilation_rate": [1, 1], "kernel_regularizer": null, "filters": 2080, "bias_initializer": {"class_name": "Zeros", "config": {}}, "use_bias": true, "activity_regularizer": null, "kernel_size": [1, 1]}, "inbound_nodes": [[["block8_7_mixed", 0, 0, {}]]], "name": "block8_7_conv"}, {"class_name": "Lambda", "config": {"function": ["YwIAAAACAAAAAwAAAFNgAQBzFAAAAHwAAGQBABl8AABkAgAZfAEAFBdTKAMAAABOaQAAAABpAQAA\nACgAAAAAKAIAAAB0BgAAAGlucHV0c3QFAAAAc2NhbGUoAAAAACgAAAAAc1AAAAAvdXNyL2xvY2Fs\nL2xpYi9weXRob24yLjcvZGlzdC1wYWNrYWdlcy9rZXJhc19hcHBsaWNhdGlvbnMvaW5jZXB0aW9u\nX3Jlc25ldF92Mi5weXQIAAAAPGxhbWJkYT6qAAAAdAAAAAA=\n", null, null], "name": "block8_7", "trainable": false, "function_type": "lambda", "arguments": {"scale": 0.2}, "output_shape": [3, 3, 2080], "output_shape_type": "raw"}, "inbound_nodes": [[["block8_6_ac", 0, 0, {}], ["block8_7_conv", 0, 0, {}]]], "name": "block8_7"}, {"class_name": "Activation", "config": {"activation": "relu", "trainable": false, "name": "block8_7_ac"}, "inbound_nodes": [[["block8_7", 0, 0, {}]]], "name": "block8_7_ac"}, {"class_name": "Conv2D", "config": {"kernel_constraint": null, "kernel_initializer": {"class_name": "VarianceScaling", "config": {"distribution": "uniform", "scale": 1.0, "seed": null, "mode": "fan_avg"}}, "name": "conv2d_599", "bias_regularizer": null, "bias_constraint": null, "activation": "linear", "trainable": false, "data_format": "channels_last", "padding": "same", "strides": [1, 1], "dilation_rate": [1, 1], "kernel_regularizer": null, "filters": 192, "bias_initializer": {"class_name": "Zeros", "config": {}}, "use_bias": false, "activity_regularizer": null, "kernel_size": [1, 1]}, "inbound_nodes": [[["block8_7_ac", 0, 0, {}]]], "name": "conv2d_599"}, {"class_name": "BatchNormalization", "config": {"beta_constraint": null, "gamma_initializer": {"class_name": "Ones", "config": {}}, "moving_mean_initializer": {"class_name": "Zeros", "config": {}}, "name": "batch_normalization_599", "epsilon": 0.001, "trainable": false, "moving_variance_initializer": {"class_name": "Ones", "config": {}}, "beta_initializer": {"class_name": "Zeros", "config": {}}, "scale": false, "axis": 3, "gamma_constraint": null, "gamma_regularizer": null, "beta_regularizer": null, "momentum": 0.99, "center": true}, "inbound_nodes": [[["conv2d_599", 0, 0, {}]]], "name": "batch_normalization_599"}, {"class_name": "Activation", "config": {"activation": "relu", "trainable": false, "name": "activation_599"}, "inbound_nodes": [[["batch_normalization_599", 0, 0, {}]]], "name": "activation_599"}, {"class_name": "Conv2D", "config": {"kernel_constraint": null, "kernel_initializer": {"class_name": "VarianceScaling", "config": {"distribution": "uniform", "scale": 1.0, "seed": null, "mode": "fan_avg"}}, "name": "conv2d_600", "bias_regularizer": null, "bias_constraint": null, "activation": "linear", "trainable": false, "data_format": "channels_last", "padding": "same", "strides": [1, 1], "dilation_rate": [1, 1], "kernel_regularizer": null, "filters": 224, "bias_initializer": {"class_name": "Zeros", "config": {}}, "use_bias": false, "activity_regularizer": null, "kernel_size": [1, 3]}, "inbound_nodes": [[["activation_599", 0, 0, {}]]], "name": "conv2d_600"}, {"class_name": "BatchNormalization", "config": {"beta_constraint": null, "gamma_initializer": {"class_name": "Ones", "config": {}}, "moving_mean_initializer": {"class_name": "Zeros", "config": {}}, "name": "batch_normalization_600", "epsilon": 0.001, "trainable": false, "moving_variance_initializer": {"class_name": "Ones", "config": {}}, "beta_initializer": {"class_name": "Zeros", "config": {}}, "scale": false, "axis": 3, "gamma_constraint": null, "gamma_regularizer": null, "beta_regularizer": null, "momentum": 0.99, "center": true}, "inbound_nodes": [[["conv2d_600", 0, 0, {}]]], "name": "batch_normalization_600"}, {"class_name": "Activation", "config": {"activation": "relu", "trainable": false, "name": "activation_600"}, "inbound_nodes": [[["batch_normalization_600", 0, 0, {}]]], "name": "activation_600"}, {"class_name": "Conv2D", "config": {"kernel_constraint": null, "kernel_initializer": {"class_name": "VarianceScaling", "config": {"distribution": "uniform", "scale": 1.0, "seed": null, "mode": "fan_avg"}}, "name": "conv2d_598", "bias_regularizer": null, "bias_constraint": null, "activation": "linear", "trainable": false, "data_format": "channels_last", "padding": "same", "strides": [1, 1], "dilation_rate": [1, 1], "kernel_regularizer": null, "filters": 192, "bias_initializer": {"class_name": "Zeros", "config": {}}, "use_bias": false, "activity_regularizer": null, "kernel_size": [1, 1]}, "inbound_nodes": [[["block8_7_ac", 0, 0, {}]]], "name": "conv2d_598"}, {"class_name": "Conv2D", "config": {"kernel_constraint": null, "kernel_initializer": {"class_name": "VarianceScaling", "config": {"distribution": "uniform", "scale": 1.0, "seed": null, "mode": "fan_avg"}}, "name": "conv2d_601", "bias_regularizer": null, "bias_constraint": null, "activation": "linear", "trainable": false, "data_format": "channels_last", "padding": "same", "strides": [1, 1], "dilation_rate": [1, 1], "kernel_regularizer": null, "filters": 256, "bias_initializer": {"class_name": "Zeros", "config": {}}, "use_bias": false, "activity_regularizer": null, "kernel_size": [3, 1]}, "inbound_nodes": [[["activation_600", 0, 0, {}]]], "name": "conv2d_601"}, {"class_name": "BatchNormalization", "config": {"beta_constraint": null, "gamma_initializer": {"class_name": "Ones", "config": {}}, "moving_mean_initializer": {"class_name": "Zeros", "config": {}}, "name": "batch_normalization_598", "epsilon": 0.001, "trainable": false, "moving_variance_initializer": {"class_name": "Ones", "config": {}}, "beta_initializer": {"class_name": "Zeros", "config": {}}, "scale": false, "axis": 3, "gamma_constraint": null, "gamma_regularizer": null, "beta_regularizer": null, "momentum": 0.99, "center": true}, "inbound_nodes": [[["conv2d_598", 0, 0, {}]]], "name": "batch_normalization_598"}, {"class_name": "BatchNormalization", "config": {"beta_constraint": null, "gamma_initializer": {"class_name": "Ones", "config": {}}, "moving_mean_initializer": {"class_name": "Zeros", "config": {}}, "name": "batch_normalization_601", "epsilon": 0.001, "trainable": false, "moving_variance_initializer": {"class_name": "Ones", "config": {}}, "beta_initializer": {"class_name": "Zeros", "config": {}}, "scale": false, "axis": 3, "gamma_constraint": null, "gamma_regularizer": null, "beta_regularizer": null, "momentum": 0.99, "center": true}, "inbound_nodes": [[["conv2d_601", 0, 0, {}]]], "name": "batch_normalization_601"}, {"class_name": "Activation", "config": {"activation": "relu", "trainable": false, "name": "activation_598"}, "inbound_nodes": [[["batch_normalization_598", 0, 0, {}]]], "name": "activation_598"}, {"class_name": "Activation", "config": {"activation": "relu", "trainable": false, "name": "activation_601"}, "inbound_nodes": [[["batch_normalization_601", 0, 0, {}]]], "name": "activation_601"}, {"class_name": "Concatenate", "config": {"trainable": false, "name": "block8_8_mixed", "axis": 3}, "inbound_nodes": [[["activation_598", 0, 0, {}], ["activation_601", 0, 0, {}]]], "name": "block8_8_mixed"}, {"class_name": "Conv2D", "config": {"kernel_constraint": null, "kernel_initializer": {"class_name": "VarianceScaling", "config": {"distribution": "uniform", "scale": 1.0, "seed": null, "mode": "fan_avg"}}, "name": "block8_8_conv", "bias_regularizer": null, "bias_constraint": null, "activation": "linear", "trainable": false, "data_format": "channels_last", "padding": "same", "strides": [1, 1], "dilation_rate": [1, 1], "kernel_regularizer": null, "filters": 2080, "bias_initializer": {"class_name": "Zeros", "config": {}}, "use_bias": true, "activity_regularizer": null, "kernel_size": [1, 1]}, "inbound_nodes": [[["block8_8_mixed", 0, 0, {}]]], "name": "block8_8_conv"}, {"class_name": "Lambda", "config": {"function": ["YwIAAAACAAAAAwAAAFNgAQBzFAAAAHwAAGQBABl8AABkAgAZfAEAFBdTKAMAAABOaQAAAABpAQAA\nACgAAAAAKAIAAAB0BgAAAGlucHV0c3QFAAAAc2NhbGUoAAAAACgAAAAAc1AAAAAvdXNyL2xvY2Fs\nL2xpYi9weXRob24yLjcvZGlzdC1wYWNrYWdlcy9rZXJhc19hcHBsaWNhdGlvbnMvaW5jZXB0aW9u\nX3Jlc25ldF92Mi5weXQIAAAAPGxhbWJkYT6qAAAAdAAAAAA=\n", null, null], "name": "block8_8", "trainable": false, "function_type": "lambda", "arguments": {"scale": 0.2}, "output_shape": [3, 3, 2080], "output_shape_type": "raw"}, "inbound_nodes": [[["block8_7_ac", 0, 0, {}], ["block8_8_conv", 0, 0, {}]]], "name": "block8_8"}, {"class_name": "Activation", "config": {"activation": "relu", "trainable": false, "name": "block8_8_ac"}, "inbound_nodes": [[["block8_8", 0, 0, {}]]], "name": "block8_8_ac"}, {"class_name": "Conv2D", "config": {"kernel_constraint": null, "kernel_initializer": {"class_name": "VarianceScaling", "config": {"distribution": "uniform", "scale": 1.0, "seed": null, "mode": "fan_avg"}}, "name": "conv2d_603", "bias_regularizer": null, "bias_constraint": null, "activation": "linear", "trainable": false, "data_format": "channels_last", "padding": "same", "strides": [1, 1], "dilation_rate": [1, 1], "kernel_regularizer": null, "filters": 192, "bias_initializer": {"class_name": "Zeros", "config": {}}, "use_bias": false, "activity_regularizer": null, "kernel_size": [1, 1]}, "inbound_nodes": [[["block8_8_ac", 0, 0, {}]]], "name": "conv2d_603"}, {"class_name": "BatchNormalization", "config": {"beta_constraint": null, "gamma_initializer": {"class_name": "Ones", "config": {}}, "moving_mean_initializer": {"class_name": "Zeros", "config": {}}, "name": "batch_normalization_603", "epsilon": 0.001, "trainable": false, "moving_variance_initializer": {"class_name": "Ones", "config": {}}, "beta_initializer": {"class_name": "Zeros", "config": {}}, "scale": false, "axis": 3, "gamma_constraint": null, "gamma_regularizer": null, "beta_regularizer": null, "momentum": 0.99, "center": true}, "inbound_nodes": [[["conv2d_603", 0, 0, {}]]], "name": "batch_normalization_603"}, {"class_name": "Activation", "config": {"activation": "relu", "trainable": false, "name": "activation_603"}, "inbound_nodes": [[["batch_normalization_603", 0, 0, {}]]], "name": "activation_603"}, {"class_name": "Conv2D", "config": {"kernel_constraint": null, "kernel_initializer": {"class_name": "VarianceScaling", "config": {"distribution": "uniform", "scale": 1.0, "seed": null, "mode": "fan_avg"}}, "name": "conv2d_604", "bias_regularizer": null, "bias_constraint": null, "activation": "linear", "trainable": false, "data_format": "channels_last", "padding": "same", "strides": [1, 1], "dilation_rate": [1, 1], "kernel_regularizer": null, "filters": 224, "bias_initializer": {"class_name": "Zeros", "config": {}}, "use_bias": false, "activity_regularizer": null, "kernel_size": [1, 3]}, "inbound_nodes": [[["activation_603", 0, 0, {}]]], "name": "conv2d_604"}, {"class_name": "BatchNormalization", "config": {"beta_constraint": null, "gamma_initializer": {"class_name": "Ones", "config": {}}, "moving_mean_initializer": {"class_name": "Zeros", "config": {}}, "name": "batch_normalization_604", "epsilon": 0.001, "trainable": false, "moving_variance_initializer": {"class_name": "Ones", "config": {}}, "beta_initializer": {"class_name": "Zeros", "config": {}}, "scale": false, "axis": 3, "gamma_constraint": null, "gamma_regularizer": null, "beta_regularizer": null, "momentum": 0.99, "center": true}, "inbound_nodes": [[["conv2d_604", 0, 0, {}]]], "name": "batch_normalization_604"}, {"class_name": "Activation", "config": {"activation": "relu", "trainable": false, "name": "activation_604"}, "inbound_nodes": [[["batch_normalization_604", 0, 0, {}]]], "name": "activation_604"}, {"class_name": "Conv2D", "config": {"kernel_constraint": null, "kernel_initializer": {"class_name": "VarianceScaling", "config": {"distribution": "uniform", "scale": 1.0, "seed": null, "mode": "fan_avg"}}, "name": "conv2d_602", "bias_regularizer": null, "bias_constraint": null, "activation": "linear", "trainable": false, "data_format": "channels_last", "padding": "same", "strides": [1, 1], "dilation_rate": [1, 1], "kernel_regularizer": null, "filters": 192, "bias_initializer": {"class_name": "Zeros", "config": {}}, "use_bias": false, "activity_regularizer": null, "kernel_size": [1, 1]}, "inbound_nodes": [[["block8_8_ac", 0, 0, {}]]], "name": "conv2d_602"}, {"class_name": "Conv2D", "config": {"kernel_constraint": null, "kernel_initializer": {"class_name": "VarianceScaling", "config": {"distribution": "uniform", "scale": 1.0, "seed": null, "mode": "fan_avg"}}, "name": "conv2d_605", "bias_regularizer": null, "bias_constraint": null, "activation": "linear", "trainable": false, "data_format": "channels_last", "padding": "same", "strides": [1, 1], "dilation_rate": [1, 1], "kernel_regularizer": null, "filters": 256, "bias_initializer": {"class_name": "Zeros", "config": {}}, "use_bias": false, "activity_regularizer": null, "kernel_size": [3, 1]}, "inbound_nodes": [[["activation_604", 0, 0, {}]]], "name": "conv2d_605"}, {"class_name": "BatchNormalization", "config": {"beta_constraint": null, "gamma_initializer": {"class_name": "Ones", "config": {}}, "moving_mean_initializer": {"class_name": "Zeros", "config": {}}, "name": "batch_normalization_602", "epsilon": 0.001, "trainable": false, "moving_variance_initializer": {"class_name": "Ones", "config": {}}, "beta_initializer": {"class_name": "Zeros", "config": {}}, "scale": false, "axis": 3, "gamma_constraint": null, "gamma_regularizer": null, "beta_regularizer": null, "momentum": 0.99, "center": true}, "inbound_nodes": [[["conv2d_602", 0, 0, {}]]], "name": "batch_normalization_602"}, {"class_name": "BatchNormalization", "config": {"beta_constraint": null, "gamma_initializer": {"class_name": "Ones", "config": {}}, "moving_mean_initializer": {"class_name": "Zeros", "config": {}}, "name": "batch_normalization_605", "epsilon": 0.001, "trainable": false, "moving_variance_initializer": {"class_name": "Ones", "config": {}}, "beta_initializer": {"class_name": "Zeros", "config": {}}, "scale": false, "axis": 3, "gamma_constraint": null, "gamma_regularizer": null, "beta_regularizer": null, "momentum": 0.99, "center": true}, "inbound_nodes": [[["conv2d_605", 0, 0, {}]]], "name": "batch_normalization_605"}, {"class_name": "Activation", "config": {"activation": "relu", "trainable": false, "name": "activation_602"}, "inbound_nodes": [[["batch_normalization_602", 0, 0, {}]]], "name": "activation_602"}, {"class_name": "Activation", "config": {"activation": "relu", "trainable": false, "name": "activation_605"}, "inbound_nodes": [[["batch_normalization_605", 0, 0, {}]]], "name": "activation_605"}, {"class_name": "Concatenate", "config": {"trainable": false, "name": "block8_9_mixed", "axis": 3}, "inbound_nodes": [[["activation_602", 0, 0, {}], ["activation_605", 0, 0, {}]]], "name": "block8_9_mixed"}, {"class_name": "Conv2D", "config": {"kernel_constraint": null, "kernel_initializer": {"class_name": "VarianceScaling", "config": {"distribution": "uniform", "scale": 1.0, "seed": null, "mode": "fan_avg"}}, "name": "block8_9_conv", "bias_regularizer": null, "bias_constraint": null, "activation": "linear", "trainable": false, "data_format": "channels_last", "padding": "same", "strides": [1, 1], "dilation_rate": [1, 1], "kernel_regularizer": null, "filters": 2080, "bias_initializer": {"class_name": "Zeros", "config": {}}, "use_bias": true, "activity_regularizer": null, "kernel_size": [1, 1]}, "inbound_nodes": [[["block8_9_mixed", 0, 0, {}]]], "name": "block8_9_conv"}, {"class_name": "Lambda", "config": {"function": ["YwIAAAACAAAAAwAAAFNgAQBzFAAAAHwAAGQBABl8AABkAgAZfAEAFBdTKAMAAABOaQAAAABpAQAA\nACgAAAAAKAIAAAB0BgAAAGlucHV0c3QFAAAAc2NhbGUoAAAAACgAAAAAc1AAAAAvdXNyL2xvY2Fs\nL2xpYi9weXRob24yLjcvZGlzdC1wYWNrYWdlcy9rZXJhc19hcHBsaWNhdGlvbnMvaW5jZXB0aW9u\nX3Jlc25ldF92Mi5weXQIAAAAPGxhbWJkYT6qAAAAdAAAAAA=\n", null, null], "name": "block8_9", "trainable": false, "function_type": "lambda", "arguments": {"scale": 0.2}, "output_shape": [3, 3, 2080], "output_shape_type": "raw"}, "inbound_nodes": [[["block8_8_ac", 0, 0, {}], ["block8_9_conv", 0, 0, {}]]], "name": "block8_9"}, {"class_name": "Activation", "config": {"activation": "relu", "trainable": false, "name": "block8_9_ac"}, "inbound_nodes": [[["block8_9", 0, 0, {}]]], "name": "block8_9_ac"}, {"class_name": "Conv2D", "config": {"kernel_constraint": null, "kernel_initializer": {"class_name": "VarianceScaling", "config": {"distribution": "uniform", "scale": 1.0, "seed": null, "mode": "fan_avg"}}, "name": "conv2d_607", "bias_regularizer": null, "bias_constraint": null, "activation": "linear", "trainable": false, "data_format": "channels_last", "padding": "same", "strides": [1, 1], "dilation_rate": [1, 1], "kernel_regularizer": null, "filters": 192, "bias_initializer": {"class_name": "Zeros", "config": {}}, "use_bias": false, "activity_regularizer": null, "kernel_size": [1, 1]}, "inbound_nodes": [[["block8_9_ac", 0, 0, {}]]], "name": "conv2d_607"}, {"class_name": "BatchNormalization", "config": {"beta_constraint": null, "gamma_initializer": {"class_name": "Ones", "config": {}}, "moving_mean_initializer": {"class_name": "Zeros", "config": {}}, "name": "batch_normalization_607", "epsilon": 0.001, "trainable": false, "moving_variance_initializer": {"class_name": "Ones", "config": {}}, "beta_initializer": {"class_name": "Zeros", "config": {}}, "scale": false, "axis": 3, "gamma_constraint": null, "gamma_regularizer": null, "beta_regularizer": null, "momentum": 0.99, "center": true}, "inbound_nodes": [[["conv2d_607", 0, 0, {}]]], "name": "batch_normalization_607"}, {"class_name": "Activation", "config": {"activation": "relu", "trainable": false, "name": "activation_607"}, "inbound_nodes": [[["batch_normalization_607", 0, 0, {}]]], "name": "activation_607"}, {"class_name": "Conv2D", "config": {"kernel_constraint": null, "kernel_initializer": {"class_name": "VarianceScaling", "config": {"distribution": "uniform", "scale": 1.0, "seed": null, "mode": "fan_avg"}}, "name": "conv2d_608", "bias_regularizer": null, "bias_constraint": null, "activation": "linear", "trainable": false, "data_format": "channels_last", "padding": "same", "strides": [1, 1], "dilation_rate": [1, 1], "kernel_regularizer": null, "filters": 224, "bias_initializer": {"class_name": "Zeros", "config": {}}, "use_bias": false, "activity_regularizer": null, "kernel_size": [1, 3]}, "inbound_nodes": [[["activation_607", 0, 0, {}]]], "name": "conv2d_608"}, {"class_name": "BatchNormalization", "config": {"beta_constraint": null, "gamma_initializer": {"class_name": "Ones", "config": {}}, "moving_mean_initializer": {"class_name": "Zeros", "config": {}}, "name": "batch_normalization_608", "epsilon": 0.001, "trainable": false, "moving_variance_initializer": {"class_name": "Ones", "config": {}}, "beta_initializer": {"class_name": "Zeros", "config": {}}, "scale": false, "axis": 3, "gamma_constraint": null, "gamma_regularizer": null, "beta_regularizer": null, "momentum": 0.99, "center": true}, "inbound_nodes": [[["conv2d_608", 0, 0, {}]]], "name": "batch_normalization_608"}, {"class_name": "Activation", "config": {"activation": "relu", "trainable": false, "name": "activation_608"}, "inbound_nodes": [[["batch_normalization_608", 0, 0, {}]]], "name": "activation_608"}, {"class_name": "Conv2D", "config": {"kernel_constraint": null, "kernel_initializer": {"class_name": "VarianceScaling", "config": {"distribution": "uniform", "scale": 1.0, "seed": null, "mode": "fan_avg"}}, "name": "conv2d_606", "bias_regularizer": null, "bias_constraint": null, "activation": "linear", "trainable": false, "data_format": "channels_last", "padding": "same", "strides": [1, 1], "dilation_rate": [1, 1], "kernel_regularizer": null, "filters": 192, "bias_initializer": {"class_name": "Zeros", "config": {}}, "use_bias": false, "activity_regularizer": null, "kernel_size": [1, 1]}, "inbound_nodes": [[["block8_9_ac", 0, 0, {}]]], "name": "conv2d_606"}, {"class_name": "Conv2D", "config": {"kernel_constraint": null, "kernel_initializer": {"class_name": "VarianceScaling", "config": {"distribution": "uniform", "scale": 1.0, "seed": null, "mode": "fan_avg"}}, "name": "conv2d_609", "bias_regularizer": null, "bias_constraint": null, "activation": "linear", "trainable": false, "data_format": "channels_last", "padding": "same", "strides": [1, 1], "dilation_rate": [1, 1], "kernel_regularizer": null, "filters": 256, "bias_initializer": {"class_name": "Zeros", "config": {}}, "use_bias": false, "activity_regularizer": null, "kernel_size": [3, 1]}, "inbound_nodes": [[["activation_608", 0, 0, {}]]], "name": "conv2d_609"}, {"class_name": "BatchNormalization", "config": {"beta_constraint": null, "gamma_initializer": {"class_name": "Ones", "config": {}}, "moving_mean_initializer": {"class_name": "Zeros", "config": {}}, "name": "batch_normalization_606", "epsilon": 0.001, "trainable": false, "moving_variance_initializer": {"class_name": "Ones", "config": {}}, "beta_initializer": {"class_name": "Zeros", "config": {}}, "scale": false, "axis": 3, "gamma_constraint": null, "gamma_regularizer": null, "beta_regularizer": null, "momentum": 0.99, "center": true}, "inbound_nodes": [[["conv2d_606", 0, 0, {}]]], "name": "batch_normalization_606"}, {"class_name": "BatchNormalization", "config": {"beta_constraint": null, "gamma_initializer": {"class_name": "Ones", "config": {}}, "moving_mean_initializer": {"class_name": "Zeros", "config": {}}, "name": "batch_normalization_609", "epsilon": 0.001, "trainable": false, "moving_variance_initializer": {"class_name": "Ones", "config": {}}, "beta_initializer": {"class_name": "Zeros", "config": {}}, "scale": false, "axis": 3, "gamma_constraint": null, "gamma_regularizer": null, "beta_regularizer": null, "momentum": 0.99, "center": true}, "inbound_nodes": [[["conv2d_609", 0, 0, {}]]], "name": "batch_normalization_609"}, {"class_name": "Activation", "config": {"activation": "relu", "trainable": false, "name": "activation_606"}, "inbound_nodes": [[["batch_normalization_606", 0, 0, {}]]], "name": "activation_606"}, {"class_name": "Activation", "config": {"activation": "relu", "trainable": false, "name": "activation_609"}, "inbound_nodes": [[["batch_normalization_609", 0, 0, {}]]], "name": "activation_609"}, {"class_name": "Concatenate", "config": {"trainable": false, "name": "block8_10_mixed", "axis": 3}, "inbound_nodes": [[["activation_606", 0, 0, {}], ["activation_609", 0, 0, {}]]], "name": "block8_10_mixed"}, {"class_name": "Conv2D", "config": {"kernel_constraint": null, "kernel_initializer": {"class_name": "VarianceScaling", "config": {"distribution": "uniform", "scale": 1.0, "seed": null, "mode": "fan_avg"}}, "name": "block8_10_conv", "bias_regularizer": null, "bias_constraint": null, "activation": "linear", "trainable": false, "data_format": "channels_last", "padding": "same", "strides": [1, 1], "dilation_rate": [1, 1], "kernel_regularizer": null, "filters": 2080, "bias_initializer": {"class_name": "Zeros", "config": {}}, "use_bias": true, "activity_regularizer": null, "kernel_size": [1, 1]}, "inbound_nodes": [[["block8_10_mixed", 0, 0, {}]]], "name": "block8_10_conv"}, {"class_name": "Lambda", "config": {"function": ["YwIAAAACAAAAAwAAAFNgAQBzFAAAAHwAAGQBABl8AABkAgAZfAEAFBdTKAMAAABOaQAAAABpAQAA\nACgAAAAAKAIAAAB0BgAAAGlucHV0c3QFAAAAc2NhbGUoAAAAACgAAAAAc1AAAAAvdXNyL2xvY2Fs\nL2xpYi9weXRob24yLjcvZGlzdC1wYWNrYWdlcy9rZXJhc19hcHBsaWNhdGlvbnMvaW5jZXB0aW9u\nX3Jlc25ldF92Mi5weXQIAAAAPGxhbWJkYT6qAAAAdAAAAAA=\n", null, null], "name": "block8_10", "trainable": false, "function_type": "lambda", "arguments": {"scale": 1.0}, "output_shape": [3, 3, 2080], "output_shape_type": "raw"}, "inbound_nodes": [[["block8_9_ac", 0, 0, {}], ["block8_10_conv", 0, 0, {}]]], "name": "block8_10"}, {"class_name": "Conv2D", "config": {"kernel_constraint": null, "kernel_initializer": {"class_name": "VarianceScaling", "config": {"distribution": "uniform", "scale": 1.0, "seed": null, "mode": "fan_avg"}}, "name": "conv_7b", "bias_regularizer": null, "bias_constraint": null, "activation": "linear", "trainable": false, "data_format": "channels_last", "padding": "same", "strides": [1, 1], "dilation_rate": [1, 1], "kernel_regularizer": null, "filters": 1536, "bias_initializer": {"class_name": "Zeros", "config": {}}, "use_bias": false, "activity_regularizer": null, "kernel_size": [1, 1]}, "inbound_nodes": [[["block8_10", 0, 0, {}]]], "name": "conv_7b"}, {"class_name": "BatchNormalization", "config": {"beta_constraint": null, "gamma_initializer": {"class_name": "Ones", "config": {}}, "moving_mean_initializer": {"class_name": "Zeros", "config": {}}, "name": "conv_7b_bn", "epsilon": 0.001, "trainable": false, "moving_variance_initializer": {"class_name": "Ones", "config": {}}, "beta_initializer": {"class_name": "Zeros", "config": {}}, "scale": false, "axis": 3, "gamma_constraint": null, "gamma_regularizer": null, "beta_regularizer": null, "momentum": 0.99, "center": true}, "inbound_nodes": [[["conv_7b", 0, 0, {}]]], "name": "conv_7b_bn"}, {"class_name": "Activation", "config": {"activation": "relu", "trainable": false, "name": "conv_7b_ac"}, "inbound_nodes": [[["conv_7b_bn", 0, 0, {}]]], "name": "conv_7b_ac"}, {"class_name": "GlobalAveragePooling2D", "config": {"trainable": true, "name": "global_average_pooling2d_3", "data_format": "channels_last"}, "inbound_nodes": [[["conv_7b_ac", 0, 0, {}]]], "name": "global_average_pooling2d_3"}, {"class_name": "Dense", "config": {"kernel_initializer": {"class_name": "VarianceScaling", "config": {"distribution": "uniform", "scale": 1.0, "seed": null, "mode": "fan_avg"}}, "name": "dense_3", "kernel_constraint": null, "bias_regularizer": null, "bias_constraint": null, "activation": "relu", "trainable": true, "kernel_regularizer": null, "bias_initializer": {"class_name": "Zeros", "config": {}}, "units": 1024, "use_bias": true, "activity_regularizer": null}, "inbound_nodes": [[["global_average_pooling2d_3", 0, 0, {}]]], "name": "dense_3"}, {"class_name": "Dropout", "config": {"rate": 0.5, "noise_shape": null, "trainable": true, "seed": null, "name": "dropout_3"}, "inbound_nodes": [[["dense_3", 0, 0, {}]]], "name": "dropout_3"}, {"class_name": "Dense", "config": {"kernel_initializer": {"class_name": "VarianceScaling", "config": {"distribution": "uniform", "scale": 1.0, "seed": null, "mode": "fan_avg"}}, "name": "logits", "kernel_constraint": null, "bias_regularizer": null, "bias_constraint": null, "activation": "linear", "trainable": true, "kernel_regularizer": null, "bias_initializer": {"class_name": "Zeros", "config": {}}, "units": 2, "use_bias": true, "activity_regularizer": null}, "inbound_nodes": [[["dropout_3", 0, 0, {}]]], "name": "logits"}, {"class_name": "Activation", "config": {"activation": "softmax", "trainable": true, "name": "absolute_output"}, "inbound_nodes": [[["logits", 0, 0, {}]]], "name": "absolute_output"}], "input_layers": [["absolute_input", 0, 0]], "output_layers": [["absolute_output", 0, 0]], "name": "model_3"}, "backend": "tensorflow"}