{"class_name": "Model", "keras_version": "2.2.2", "config": {"layers": [{"class_name": "InputLayer", "config": {"dtype": "float32", "batch_input_shape": [null, 32, 32, 3], "name": "absolute_input", "sparse": false}, "inbound_nodes": [], "name": "absolute_input"}, {"class_name": "Conv2D", "config": {"kernel_constraint": null, "kernel_initializer": {"class_name": "VarianceScaling", "config": {"distribution": "uniform", "scale": 1.0, "seed": null, "mode": "fan_avg"}}, "name": "conv2d_1", "bias_regularizer": null, "bias_constraint": null, "activation": "relu", "trainable": true, "data_format": "channels_last", "padding": "valid", "strides": [1, 1], "dilation_rate": [1, 1], "kernel_regularizer": null, "filters": 32, "bias_initializer": {"class_name": "Zeros", "config": {}}, "use_bias": true, "activity_regularizer": null, "kernel_size": [5, 5]}, "inbound_nodes": [[["absolute_input", 0, 0, {}]]], "name": "conv2d_1"}, {"class_name": "MaxPooling2D", "config": {"name": "max_pooling2d_1", "trainable": true, "data_format": "channels_last", "pool_size": [2, 2], "padding": "valid", "strides": [2, 2]}, "inbound_nodes": [[["conv2d_1", 0, 0, {}]]], "name": "max_pooling2d_1"}, {"class_name": "Conv2D", "config": {"kernel_constraint": null, "kernel_initializer": {"class_name": "VarianceScaling", "config": {"distribution": "uniform", "scale": 1.0, "seed": null, "mode": "fan_avg"}}, "name": "conv2d_2", "bias_regularizer": null, "bias_constraint": null, "activation": "relu", "trainable": true, "data_format": "channels_last", "padding": "valid", "strides": [1, 1], "dilation_rate": [1, 1], "kernel_regularizer": null, "filters": 64, "bias_initializer": {"class_name": "Zeros", "config": {}}, "use_bias": true, "activity_regularizer": null, "kernel_size": [3, 3]}, "inbound_nodes": [[["max_pooling2d_1", 0, 0, {}]]], "name": "conv2d_2"}, {"class_name": "MaxPooling2D", "config": {"name": "max_pooling2d_2", "trainable": true, "data_format": "channels_last", "pool_size": [2, 2], "padding": "valid", "strides": [2, 2]}, "inbound_nodes": [[["conv2d_2", 0, 0, {}]]], "name": "max_pooling2d_2"}, {"class_name": "Flatten", "config": {"trainable": true, "name": "flatten_1", "data_format": "channels_last"}, "inbound_nodes": [[["max_pooling2d_2", 0, 0, {}]]], "name": "flatten_1"}, {"class_name": "Dense", "config": {"kernel_initializer": {"class_name": "VarianceScaling", "config": {"distribution": "uniform", "scale": 1.0, "seed": null, "mode": "fan_avg"}}, "name": "dense_1", "kernel_constraint": null, "bias_regularizer": null, "bias_constraint": null, "activation": "relu", "trainable": true, "kernel_regularizer": null, "bias_initializer": {"class_name": "Zeros", "config": {}}, "units": 256, "use_bias": true, "activity_regularizer": null}, "inbound_nodes": [[["flatten_1", 0, 0, {}]]], "name": "dense_1"}, {"class_name": "Dropout", "config": {"rate": 0.5, "noise_shape": null, "trainable": true, "seed": null, "name": "dropout_1"}, "inbound_nodes": [[["dense_1", 0, 0, {}]]], "name": "dropout_1"}, {"class_name": "Dense", "config": {"kernel_initializer": {"class_name": "VarianceScaling", "config": {"distribution": "uniform", "scale": 1.0, "seed": null, "mode": "fan_avg"}}, "name": "logits", "kernel_constraint": null, "bias_regularizer": null, "bias_constraint": null, "activation": "linear", "trainable": true, "kernel_regularizer": null, "bias_initializer": {"class_name": "Zeros", "config": {}}, "units": 10, "use_bias": true, "activity_regularizer": null}, "inbound_nodes": [[["dropout_1", 0, 0, {}]]], "name": "logits"}, {"class_name": "Activation", "config": {"activation": "softmax", "trainable": true, "name": "absolute_output"}, "inbound_nodes": [[["logits", 0, 0, {}]]], "name": "absolute_output"}], "input_layers": [["absolute_input", 0, 0]], "output_layers": [["absolute_output", 0, 0]], "name": "model_1"}, "backend": "tensorflow"}