{"backend": "tensorflow", "keras_version": "2.2.2", "config": {"layers": [{"name": "absolute_input", "class_name": "InputLayer", "config": {"batch_input_shape": [null, 128, 128, 3], "name": "absolute_input", "dtype": "float32", "sparse": false}, "inbound_nodes": []}, {"name": "block1_conv1", "class_name": "Conv2D", "config": {"bias_initializer": {"config": {}, "class_name": "Zeros"}, "kernel_constraint": null, "data_format": "channels_last", "kernel_regularizer": null, "bias_constraint": null, "name": "block1_conv1", "bias_regularizer": null, "use_bias": true, "dilation_rate": [1, 1], "filters": 64, "strides": [1, 1], "kernel_initializer": {"config": {"scale": 1.0, "distribution": "uniform", "mode": "fan_avg", "seed": null}, "class_name": "VarianceScaling"}, "activity_regularizer": null, "kernel_size": [3, 3], "activation": "relu", "trainable": false, "padding": "same"}, "inbound_nodes": [[["absolute_input", 0, 0, {}]]]}, {"name": "block1_conv2", "class_name": "Conv2D", "config": {"bias_initializer": {"config": {}, "class_name": "Zeros"}, "kernel_constraint": null, "data_format": "channels_last", "kernel_regularizer": null, "bias_constraint": null, "name": "block1_conv2", "bias_regularizer": null, "use_bias": true, "dilation_rate": [1, 1], "filters": 64, "strides": [1, 1], "kernel_initializer": {"config": {"scale": 1.0, "distribution": "uniform", "mode": "fan_avg", "seed": null}, "class_name": "VarianceScaling"}, "activity_regularizer": null, "kernel_size": [3, 3], "activation": "relu", "trainable": false, "padding": "same"}, "inbound_nodes": [[["block1_conv1", 0, 0, {}]]]}, {"name": "block1_pool", "class_name": "MaxPooling2D", "config": {"data_format": "channels_last", "pool_size": [2, 2], "trainable": false, "name": "block1_pool", "padding": "valid", "strides": [2, 2]}, "inbound_nodes": [[["block1_conv2", 0, 0, {}]]]}, {"name": "block2_conv1", "class_name": "Conv2D", "config": {"bias_initializer": {"config": {}, "class_name": "Zeros"}, "kernel_constraint": null, "data_format": "channels_last", "kernel_regularizer": null, "bias_constraint": null, "name": "block2_conv1", "bias_regularizer": null, "use_bias": true, "dilation_rate": [1, 1], "filters": 128, "strides": [1, 1], "kernel_initializer": {"config": {"scale": 1.0, "distribution": "uniform", "mode": "fan_avg", "seed": null}, "class_name": "VarianceScaling"}, "activity_regularizer": null, "kernel_size": [3, 3], "activation": "relu", "trainable": false, "padding": "same"}, "inbound_nodes": [[["block1_pool", 0, 0, {}]]]}, {"name": "block2_conv2", "class_name": "Conv2D", "config": {"bias_initializer": {"config": {}, "class_name": "Zeros"}, "kernel_constraint": null, "data_format": "channels_last", "kernel_regularizer": null, "bias_constraint": null, "name": "block2_conv2", "bias_regularizer": null, "use_bias": true, "dilation_rate": [1, 1], "filters": 128, "strides": [1, 1], "kernel_initializer": {"config": {"scale": 1.0, "distribution": "uniform", "mode": "fan_avg", "seed": null}, "class_name": "VarianceScaling"}, "activity_regularizer": null, "kernel_size": [3, 3], "activation": "relu", "trainable": false, "padding": "same"}, "inbound_nodes": [[["block2_conv1", 0, 0, {}]]]}, {"name": "block2_pool", "class_name": "MaxPooling2D", "config": {"data_format": "channels_last", "pool_size": [2, 2], "trainable": false, "name": "block2_pool", "padding": "valid", "strides": [2, 2]}, "inbound_nodes": [[["block2_conv2", 0, 0, {}]]]}, {"name": "block3_conv1", "class_name": "Conv2D", "config": {"bias_initializer": {"config": {}, "class_name": "Zeros"}, "kernel_constraint": null, "data_format": "channels_last", "kernel_regularizer": null, "bias_constraint": null, "name": "block3_conv1", "bias_regularizer": null, "use_bias": true, "dilation_rate": [1, 1], "filters": 256, "strides": [1, 1], "kernel_initializer": {"config": {"scale": 1.0, "distribution": "uniform", "mode": "fan_avg", "seed": null}, "class_name": "VarianceScaling"}, "activity_regularizer": null, "kernel_size": [3, 3], "activation": "relu", "trainable": false, "padding": "same"}, "inbound_nodes": [[["block2_pool", 0, 0, {}]]]}, {"name": "block3_conv2", "class_name": "Conv2D", "config": {"bias_initializer": {"config": {}, "class_name": "Zeros"}, "kernel_constraint": null, "data_format": "channels_last", "kernel_regularizer": null, "bias_constraint": null, "name": "block3_conv2", "bias_regularizer": null, "use_bias": true, "dilation_rate": [1, 1], "filters": 256, "strides": [1, 1], "kernel_initializer": {"config": {"scale": 1.0, "distribution": "uniform", "mode": "fan_avg", "seed": null}, "class_name": "VarianceScaling"}, "activity_regularizer": null, "kernel_size": [3, 3], "activation": "relu", "trainable": false, "padding": "same"}, "inbound_nodes": [[["block3_conv1", 0, 0, {}]]]}, {"name": "block3_conv3", "class_name": "Conv2D", "config": {"bias_initializer": {"config": {}, "class_name": "Zeros"}, "kernel_constraint": null, "data_format": "channels_last", "kernel_regularizer": null, "bias_constraint": null, "name": "block3_conv3", "bias_regularizer": null, "use_bias": true, "dilation_rate": [1, 1], "filters": 256, "strides": [1, 1], "kernel_initializer": {"config": {"scale": 1.0, "distribution": "uniform", "mode": "fan_avg", "seed": null}, "class_name": "VarianceScaling"}, "activity_regularizer": null, "kernel_size": [3, 3], "activation": "relu", "trainable": false, "padding": "same"}, "inbound_nodes": [[["block3_conv2", 0, 0, {}]]]}, {"name": "block3_pool", "class_name": "MaxPooling2D", "config": {"data_format": "channels_last", "pool_size": [2, 2], "trainable": false, "name": "block3_pool", "padding": "valid", "strides": [2, 2]}, "inbound_nodes": [[["block3_conv3", 0, 0, {}]]]}, {"name": "block4_conv1", "class_name": "Conv2D", "config": {"bias_initializer": {"config": {}, "class_name": "Zeros"}, "kernel_constraint": null, "data_format": "channels_last", "kernel_regularizer": null, "bias_constraint": null, "name": "block4_conv1", "bias_regularizer": null, "use_bias": true, "dilation_rate": [1, 1], "filters": 512, "strides": [1, 1], "kernel_initializer": {"config": {"scale": 1.0, "distribution": "uniform", "mode": "fan_avg", "seed": null}, "class_name": "VarianceScaling"}, "activity_regularizer": null, "kernel_size": [3, 3], "activation": "relu", "trainable": false, "padding": "same"}, "inbound_nodes": [[["block3_pool", 0, 0, {}]]]}, {"name": "block4_conv2", "class_name": "Conv2D", "config": {"bias_initializer": {"config": {}, "class_name": "Zeros"}, "kernel_constraint": null, "data_format": "channels_last", "kernel_regularizer": null, "bias_constraint": null, "name": "block4_conv2", "bias_regularizer": null, "use_bias": true, "dilation_rate": [1, 1], "filters": 512, "strides": [1, 1], "kernel_initializer": {"config": {"scale": 1.0, "distribution": "uniform", "mode": "fan_avg", "seed": null}, "class_name": "VarianceScaling"}, "activity_regularizer": null, "kernel_size": [3, 3], "activation": "relu", "trainable": false, "padding": "same"}, "inbound_nodes": [[["block4_conv1", 0, 0, {}]]]}, {"name": "block4_conv3", "class_name": "Conv2D", "config": {"bias_initializer": {"config": {}, "class_name": "Zeros"}, "kernel_constraint": null, "data_format": "channels_last", "kernel_regularizer": null, "bias_constraint": null, "name": "block4_conv3", "bias_regularizer": null, "use_bias": true, "dilation_rate": [1, 1], "filters": 512, "strides": [1, 1], "kernel_initializer": {"config": {"scale": 1.0, "distribution": "uniform", "mode": "fan_avg", "seed": null}, "class_name": "VarianceScaling"}, "activity_regularizer": null, "kernel_size": [3, 3], "activation": "relu", "trainable": false, "padding": "same"}, "inbound_nodes": [[["block4_conv2", 0, 0, {}]]]}, {"name": "block4_pool", "class_name": "MaxPooling2D", "config": {"data_format": "channels_last", "pool_size": [2, 2], "trainable": false, "name": "block4_pool", "padding": "valid", "strides": [2, 2]}, "inbound_nodes": [[["block4_conv3", 0, 0, {}]]]}, {"name": "block5_conv1", "class_name": "Conv2D", "config": {"bias_initializer": {"config": {}, "class_name": "Zeros"}, "kernel_constraint": null, "data_format": "channels_last", "kernel_regularizer": null, "bias_constraint": null, "name": "block5_conv1", "bias_regularizer": null, "use_bias": true, "dilation_rate": [1, 1], "filters": 512, "strides": [1, 1], "kernel_initializer": {"config": {"scale": 1.0, "distribution": "uniform", "mode": "fan_avg", "seed": null}, "class_name": "VarianceScaling"}, "activity_regularizer": null, "kernel_size": [3, 3], "activation": "relu", "trainable": false, "padding": "same"}, "inbound_nodes": [[["block4_pool", 0, 0, {}]]]}, {"name": "block5_conv2", "class_name": "Conv2D", "config": {"bias_initializer": {"config": {}, "class_name": "Zeros"}, "kernel_constraint": null, "data_format": "channels_last", "kernel_regularizer": null, "bias_constraint": null, "name": "block5_conv2", "bias_regularizer": null, "use_bias": true, "dilation_rate": [1, 1], "filters": 512, "strides": [1, 1], "kernel_initializer": {"config": {"scale": 1.0, "distribution": "uniform", "mode": "fan_avg", "seed": null}, "class_name": "VarianceScaling"}, "activity_regularizer": null, "kernel_size": [3, 3], "activation": "relu", "trainable": false, "padding": "same"}, "inbound_nodes": [[["block5_conv1", 0, 0, {}]]]}, {"name": "block5_conv3", "class_name": "Conv2D", "config": {"bias_initializer": {"config": {}, "class_name": "Zeros"}, "kernel_constraint": null, "data_format": "channels_last", "kernel_regularizer": null, "bias_constraint": null, "name": "block5_conv3", "bias_regularizer": null, "use_bias": true, "dilation_rate": [1, 1], "filters": 512, "strides": [1, 1], "kernel_initializer": {"config": {"scale": 1.0, "distribution": "uniform", "mode": "fan_avg", "seed": null}, "class_name": "VarianceScaling"}, "activity_regularizer": null, "kernel_size": [3, 3], "activation": "relu", "trainable": false, "padding": "same"}, "inbound_nodes": [[["block5_conv2", 0, 0, {}]]]}, {"name": "block5_pool", "class_name": "MaxPooling2D", "config": {"data_format": "channels_last", "pool_size": [2, 2], "trainable": false, "name": "block5_pool", "padding": "valid", "strides": [2, 2]}, "inbound_nodes": [[["block5_conv3", 0, 0, {}]]]}, {"name": "global_average_pooling2d_1", "class_name": "GlobalAveragePooling2D", "config": {"trainable": true, "name": "global_average_pooling2d_1", "data_format": "channels_last"}, "inbound_nodes": [[["block5_pool", 0, 0, {}]]]}, {"name": "dense_1", "class_name": "Dense", "config": {"units": 1024, "kernel_constraint": null, "bias_constraint": null, "kernel_regularizer": null, "use_bias": true, "name": "dense_1", "kernel_initializer": {"config": {"scale": 1.0, "distribution": "uniform", "mode": "fan_avg", "seed": null}, "class_name": "VarianceScaling"}, "activity_regularizer": null, "trainable": true, "bias_initializer": {"config": {}, "class_name": "Zeros"}, "bias_regularizer": null, "activation": "relu"}, "inbound_nodes": [[["global_average_pooling2d_1", 0, 0, {}]]]}, {"name": "dropout_1", "class_name": "Dropout", "config": {"trainable": true, "noise_shape": null, "rate": 0.5, "seed": null, "name": "dropout_1"}, "inbound_nodes": [[["dense_1", 0, 0, {}]]]}, {"name": "logits", "class_name": "Dense", "config": {"units": 10, "kernel_constraint": null, "bias_constraint": null, "kernel_regularizer": null, "use_bias": true, "name": "logits", "kernel_initializer": {"config": {"scale": 1.0, "distribution": "uniform", "mode": "fan_avg", "seed": null}, "class_name": "VarianceScaling"}, "activity_regularizer": null, "trainable": true, "bias_initializer": {"config": {}, "class_name": "Zeros"}, "bias_regularizer": null, "activation": "linear"}, "inbound_nodes": [[["dropout_1", 0, 0, {}]]]}, {"name": "absolute_output", "class_name": "Activation", "config": {"trainable": true, "name": "absolute_output", "activation": "softmax"}, "inbound_nodes": [[["logits", 0, 0, {}]]]}], "name": "model_1", "output_layers": [["absolute_output", 0, 0]], "input_layers": [["absolute_input", 0, 0]]}, "class_name": "Model"}